ML/models/BTC/4h/gru_model.pth (torch, 168883 bytes, 9 tensors)

gru.weight_ih_l0 f4 [192, 19]
00000000: ae00 0fbe c358 913d 063b 033e 06b7 fe3d
00000010: 72d7 dcbd 1b82 1e3e c871 08be ddca cbbc
00000020: 17db 91bd a6bb 61bd aa56 a23d 894a b6bc
00000030: 7781 173e 7fa9 b9bc 0a12 e23d c1d5 d73d
00000040: bdc1 b2bd c314 e53d eb3d 053e 24f3 6abc
00000050: 90cb dfbc 16e7 f8bd 6f0d 05be bcdb 29be
00000060: 318d 293e 44c7 3e3d 0189 833d d894 05bd
00000070: 1ecf a43d 7ab6 243e d72e 39bd 7b20 a4bd
00000080: 65ad ffbd 891e 2abe dba3 243e 545f 163e
00000090: c724 0d3d d0f1 ebbd f84f ebbc 147a 2fbd
000000a0: ca91 bdbd 9706 d33c 5b73 c2bd d0a5 a0bd
000000b0: 0756 babd 1e9c 1a3d 983f c8bd 261d 10bd
000000c0: 83c9 fe3c f6bf b4bd 1d55 febd d370 14be
000000d0: 14c8 dc3d f034 003e 2566 1cbe 5170 3fbd
000000e0: 7d43 2abe ba78 3f3d a1ba 22be 621d 1f3e
000000f0: 89b5 003e 5eff 373c 4989 ecbb da63 5e3d
00000100: 83ce 70bc f5f7 1c3e dfd1 eebd b900 8e3d
00000110: f71d e53c c6ef 4c3c a217 28bd 96cb 873d
00000120: 9eb3 60bd 1408 3a3d 35bd 8e3d 29f6 0fbe
00000130: c904 92bd 9ee3 623c 5052 ecbd 8272 febd
00000140: c0c7 86bd 84d0 c4bd a80b 16be 545e 0a3e
00000150: 347f 033e 6af8 1d3e a67f 903d f27b 03be
00000160: 786b 193d c3c2 7c3d ec12 c23d ec3f db3d
00000170: c6cc fcbd 0893 13be 4186 a6bc ed7f 163e
00000180: 9dcc b8bd 50eb d1bd 4d7b ca3d 8533 c33d
00000190: 7228 24be 171d adbd 0148 dc3c 4738 c7bc
000001a0: 6c69 be3d c382 bfba b780 61bd 38d1 ddbd
000001b0: 74e1 323b f5ed 87bd 8993 28bd 0262 8b3d
000001c0: e8e8 c53d 9086 00be c2e5 f8bd a3b7 b63c
000001d0: 0990 0dbe 246c f33b 0115 f63d aa30 79bc
000001e0: 69e3 af3c aef9 1abe b712 46bd d6b7 f6bc
000001f0: d765 033e ffb3 e1bb d045 213e d4f2 c93d
00000200: 9f47 293e 7ffb 063e 2398 a5bd f66e 9fbd
00000210: 0031 ca3d 79e2 16be 5b38 923d 23b2 ff3d
00000220: 899e 4c3d 9430 13be 43ea cb3d bbe5 9f3d
00000230: 0769 a7bd df99 0a3e 5ae0 813d d34d c13d
00000240: 7e84 943d 249e 3ebd 1af7 c63c 4794 00be
00000250: dafe 293e 3531 74bd 46d7 b5bc 63c2 ecbd
00000260: b954 f4bd 2b8a 903d a961 f93d 3cae 0fbe
00000270: e349 613d 5fc4 8bbd 6926 97bd 154c f53d
00000280: e22f 543d f8a6 a8bc 1fd0 a5bd b1f0 c4bc
00000290: b56f 01be b195 92bd 7f00 a63d c5a5 b23d
000002a0: 0f44 bdbd 648a 28be 22de 61bd a382 b83d
000002b0: d8c4 2a3e 2950 48bd 1ee7 0cbe e2e2 21be
000002c0: 3de3 ffbd 8cb5 d9bd c4ad b83d 5a3d 40bd
000002d0: d2d8 3bbd 94da 2b3e 2ec8 213e 14d2 a23d
000002e0: 0b94 173e c64f 093e 7681 2abe 55bd ba3c
000002f0: ef8d 20be 9b2f b53d cc2d fabd 9a07 d6bd
00000300: b7f7 10bc 876d 9f3d f5e5 0cbe 7b4c 72bd
00000310: 716c 22be dadd 91bd 1cba e9bd 9348 243e
00000320: bec3 b3bd c1c0 f6bd ec95 873b afdc 643d
00000330: 082b adbd 73ff 15be a867 0e3e 3951 093e
00000340: e92b 813d e1ff b9bc 45d1 00bd dda2 c9bd
00000350: c579 1fbe b2b5 47bd b40a ebbc 204a c03c
00000360: 36f3 a73b 825a 8e3c 416d dd3a a76a 573d
00000370: 92a8 1ebe 1e5c 26bd 3c92 0d3e 50c5 b2bd
00000380: 69e2 df3d 754f 1dbd 5fe2 13be 0a93 25be
00000390: c648 0ebe 8ae9 0b3e c63a 2bbe 5db0 35bd
000003a0: a3d8 41bc 7d48 ae3d e003 09be c292 e23b
000003b0: bd28 dfbd aaa6 c4bd 8465 ed3d d05c ca3c
000003c0: e443 fdbc c8e0 fd3d 93d8 1d3d a7b9 a6bd
000003d0: e308 1ebd 1ccb d8bc 7f4a bb3d fb1f 033e
000003e0: 669f ad3d 2f8d b4bc 4d87 273e f729 153e
000003f0: 5625 613c 0bd1 063c 7798 933d 1d98 acbd
-0.13965103 0.07097008 0.12815484 0.12437253 -0.107832804 0.15479319 -0.13324654 -0.024877006
-0.07121866 -0.055110596 0.07926686 -0.022252338 0.1479548 -0.02266383 0.11038597 0.10538817
-0.08728359 0.111856006 0.13011901 -0.014340196 -0.027318746 -0.12153451 -0.12993406 -0.16587728
0.16557766 0.046576753 0.06422616 -0.03261265 0.08047317 0.16085234 -0.045210686 -0.08014008
-0.12484244 -0.1661321 0.16078131 0.14684802 0.0344589 -0.115207314 -0.028724656 -0.042841032
-0.09256323 0.025759978 -0.094946586 -0.07844126 -0.0909844 0.03774654 -0.097777545 -0.035184048
0.031101948 -0.08825676 -0.12418578 -0.14496164 0.107803494 0.12520194 -0.1527334 -0.046737973
-0.16627307 0.046745993 -0.15891506 0.15538552 0.1256925 0.011230318 -0.007218514 0.054294445
-0.014697674 0.15328963 -0.116611235 0.069337316 0.02796839 0.012508338 -0.041038163 0.06630628
-0.054858796 0.04541786 0.06969682 -0.14058746 -0.07129819 0.0138482135 -0.11539137 -0.124241844
-0.06581068 -0.09610084 -0.14652884 0.13512546 0.12841493 0.15426794 0.07055597 -0.1284025
0.037456006 0.061709177 0.09476265 0.107055515 -0.12343745 -0.14411557 -0.02032769 0.14697237
-0.09023402 -0.102499604 0.09886799 0.09531311 -0.16031054 -0.08452814 0.026889803 -0.024318827
0.092974514 -0.0014611114 -0.055054393 -0.10830921 0.0027295025 -0.066371836 -0.041156325 0.06805803
0.09663564 -0.12551332 -0.12153198 0.022304362 -0.13824476 0.007428663 0.12015725 -0.015209356
0.021470742 -0.15134308 -0.04835769 -0.030116957 0.12831818 -0.0068879123 0.15749288 0.09860769
0.16531228 0.13181876 -0.080856584 -0.07784836 0.09872627 -0.1473483 0.07139655 0.12485149
0.04995588 -0.14374 0.09956791 0.078074895 -0.08174329 0.1353526 0.0634162 0.09438672
0.072518334 -0.046537533 0.02428775 -0.12556563 0.16601124 -0.05961724 -0.022197377 -0.11560514
-0.11930222 0.070576034 0.1217683 -0.14031309 0.055002104 -0.06824564 -0.07380373 0.11977402
0.051803477 -0.02058743 -0.080963366 -0.024040552 -0.12640269 -0.071574576 0.08105563 0.08723024
-0.09241497 -0.16459042 -0.055143483 0.09009292 0.16676652 -0.04890457 -0.13760039 -0.15809205
-0.12494514 -0.106303304 0.09017518 -0.04693351 -0.045861073 0.167826 0.15799019 0.079502255
0.14802568 0.13409337 -0.16650948 0.022795359 -0.15679143 0.08846971 -0.12215766 -0.10450669
-0.008848122 0.077845626 -0.13759597 -0.05915497 -0.1586168 -0.07122393 -0.11412451 0.1604331
-0.08777569 -0.12048484 0.004137745 0.055874523 -0.08455473 -0.14648227 0.13906729 0.1340989
0.06307203 -0.02270502 -0.031449575 -0.09845517 -0.15573795 -0.048757263 -0.028691627 0.023472846
0.0051254285 0.017377142 0.0016893522 0.052591946 -0.15493992 -0.040615194 0.13825315 -0.087290406
0.10931856 -0.038405854 -0.14441822 -0.16169372 -0.13894948 0.13663307 -0.16721639 -0.044357646
-0.011831435 0.0850992 -0.13380384 0.0069144676 -0.10896442 -0.09602101 0.11591628 0.02470246
-0.030916162 0.12396389 0.03853662 -0.08140879 -0.038582694 -0.026464038 0.091450684 0.12805168
0.084776685 -0.022039978 0.16360207 0.1456679 0.013741812 0.008228551 0.07206815 -0.08427451

gru.weight_hh_l0 f4 [192, 64]
00000000: a01c 8f3d ec1a ca3c 00d8 4abd cc15 783c
00000010: ea3c 363d 8044 0ebc 0032 9f3b b03a da3b
00000020: 08da d53b 4d07 5d3c 7ce2 94bd 4056 ac3a
00000030: 9ab3 8a3d 240f 833c fbc7 67bd 3c64 98bc
00000040: 8e38 02bd 27a5 98bc b83a 3abb a09c f43d
00000050: fb84 863c e1ab e53d 5ccc f93a 2a14 0bbe
00000060: 7e94 af3d 60d8 433a 28e9 09be 4da6 4ebc
00000070: e83e b93d 1ce8 343c 1d31 553c 3808 79bd
00000080: 13f6 43bd 22a4 6a3d c74d 223d 6648 30bd
00000090: 526d 233b d26d edbc 3753 00bd b15b a2bb
000000a0: 4493 a5bd 45c9 503d a426 11bd 313c 643d
000000b0: e8ba a3bc c290 92bd 3cca 93bd 1b7c f4bb
000000c0: 6cce f4bd 8231 933d 34d9 a23d 645a 543e
000000d0: 6990 0abd e92c 863d 3088 bd3d 51de 7ebb
000000e0: 4273 013e 52a0 dc3d c60f 87bc b4ed 9b3d
000000f0: 8a30 bc3d 5176 35bd 2448 a3bd f4ec b73c
00000100: 7b6f 1dbd 18f5 09be 752b e83c 4bc5 9bbd
00000110: eb19 44bc 98f2 04bd 3e49 9b39 98df c7bd
00000120: 72ed f6bd a4e2 753d 682b b1bd d42e 193d
00000130: 0df0 abbd c4ba 45bd 7a8a 833d a56b f23c
00000140: 1f45 73bd a71d 7e3c 2f64 ba3d 575c bb3c
00000150: bcec e7bd 4c24 363d 571a 883d 0c0a b6bd
00000160: 1b88 dbbc 6f4f 53bd e267 62bd 3416 18bc
00000170: a773 b73d 8f78 1dbd 8912 d2bd a639 843d
00000180: e467 8b3d 93bc 773d 8cf6 a83c b2f8 72bc
00000190: 27d4 99bd d85c 34bd 7e51 c53c 3014 0bbe
000001a0: 81ee 813d 67fc 63bd e4f1 88bd e02a 233d
000001b0: 0ace 09be fa3b 353d cde4 413e 00b8 93bc
000001c0: 440a 4ebd 8399 d03c 2833 6fbd 88fa 053c
000001d0: 7110 93bc 3a00 0c3d cb28 2f3d 8a06 8a3d
000001e0: 0a99 e8bc 7d85 b93c ffe7 87bd 0fbe 0d3e
000001f0: 891e 873b e83b 96bd 3f58 743d 2b5e 343c
00000200: 9687 483d 6f65 b7bc 008b 66bc 6e31 df3d
00000210: 781a 693c bad3 c73d 2442 2b3d 62c5 703b
00000220: 815a 0fbd 4f17 1abd 9afc 913d f91b b9bd
00000230: ad72 16be b296 b13d 73bb 673c f73e 843d
00000240: cbcb 9fbd 2d9c a23d 2842 793d 912a babc
00000250: f5dc f7bd 16a1 543c c799 7cba 0b1f 083c
00000260: 5f4c 1abd 5c08 14bd 2284 b83d 3e42 983d
00000270: 762d e7bc 7b35 93bc dafa 453d 44e4 543d
00000280: 3a0b ce3d a5d2 b73d 1f6f 2dbe 052c 0abe
00000290: 968d 03be 10f0 3dbc 28ae 41bd c251 1fbd
000002a0: 00df 32bd 6700 88bd ce61 893d 8b3d 1fbd
000002b0: da9e 6bbb eac2 e8bb 1421 293e 535b 9abd
000002c0: 88c7 0bba 9e0c 29bd ae4d 6b3e 7727 883d
000002d0: 4866 373e b370 9c3d 3870 4bbd f53d 1c3e
000002e0: cc4a 45bc 94e4 073e 68c9 8b3d d72b dabb
000002f0: a79f efbd 958b e4bc 9a37 aa3c 6ce4 6bbd
00000300: f4b4 68bd 9f4e 96bd af41 b83d 1837 14be
00000310: cfe9 b03c 6d6a ef3c 2002 1ebd 2219 903c
00000320: ec8f 383d 8773 89bd 28f8 96bc 5c5e 153d
00000330: 55e5 86bb 1b04 22bd 35ac 673c 0d05 a33c
00000340: 23ed c1bd 7903 c2bd 577c 9bbc 90d2 8cbd
00000350: a43a f93c b9d3 fcbd b88e 803d 6687 c7bd
00000360: bcf5 8dbc d436 70bd 54aa 4a3e 9e41 07bb
00000370: 6e1e 613d cda0 ff3c 69f7 543d 75ec 643d
00000380: 9221 b53d 7372 913b 3a04 91bd 53a6 a3bc
00000390: 7651 1cbd 46f7 593d 3fc6 4ebd 9aea 64bd
000003a0: d130 883c 368f 32bd 399c 243e 2547 a13d
000003b0: 2112 313d d9ef ddbd d157 82bd 6e93 cb3b
000003c0: 5aca 8cbc be57 6abc 79ac 3ebd 09f5 c1bd
000003d0: 2c92 6fbb d610 063e 2ea1 e5bc e3b1 19be
000003e0: 9918 8dbd dfa4 1d3d ad77 2e3c 1223 933d
000003f0: 5032 943d 0389 863d 1715 2dbd 3175 503d
0.06987882 0.02467104 -0.0495224 0.0151419155 0.044491686 -0.008683324 0.0048582554 0.006659828
0.0065262355 0.01349051 -0.07269761 0.0013148263 0.067725375 0.01599843 -0.0565872 -0.018602483
-0.031792216 -0.018633438 -0.0028416347 0.11943936 0.016420832 0.11214424 0.0019058096 -0.1358191
0.085732445 0.0007470902 -0.13467848 -0.012612891 0.090452015 0.011041667 0.013012198 -0.060798854
-0.047842097 0.057285435 0.039624956 -0.043037795 0.0024936986 -0.02898303 -0.03132936 -0.004954778
-0.08084729 0.050973196 -0.03543724 0.055721465 -0.019986585 -0.071565166 -0.072163075 -0.0074610836
-0.11953434 0.07187177 0.079515845 0.20737606 -0.033829127 0.06551535 0.09254491 -0.0038889835
0.12641624 0.10772766 -0.016487014 0.07613698 0.091889456 -0.04430229 -0.07972744 0.022451855
-0.038436394 -0.13472402 0.028341034 -0.0760599 -0.01196907 -0.032457918 0.00029618473 -0.09759444
-0.12057008 0.060030594 -0.08650857 0.037398174 -0.083953954 -0.048273817 0.06422897 0.029592345
-0.05939209 0.015509999 0.0910114 0.02287118 -0.113244504 0.04446821 0.06645649 -0.08888635
-0.026798299 -0.051589426 -0.05527485 -0.009282637 0.08957606 -0.03844505 -0.102574416 0.06456308
0.06806925 0.060482573 0.020625375 -0.014829801 -0.07511168 -0.044033855 0.02408671 -0.1358192
0.06344319 -0.05566063 -0.06686762 0.03983581 -0.13457504 0.04424665 0.18934937 -0.018032074
-0.05030276 0.025463825 -0.058398396 0.008177407 -0.017952176 0.034179904 0.042763513 0.067395285
-0.028393287 0.02264666 -0.066360466 0.13842033 0.004123513 -0.07335645 0.05965447 0.0110087795
0.04895743 -0.022387234 -0.014071226 0.108981 0.014227502 0.097571805 0.041811123 0.0036738743
-0.03499842 -0.037619885 0.07128258 -0.090385385 -0.14692183 0.08671321 0.0141438125 0.06457322
-0.07802542 0.079399444 0.060854107 -0.022725375 -0.12102691 0.012977859 -0.0009635952 0.0083081825
-0.03767049 -0.036140785 0.09009577 0.0743451 -0.02821992 -0.017969837 0.048334934 0.051975504
0.10060735 0.08975724 -0.1693692 -0.13493355 -0.1284698 -0.01159288 -0.04728523 -0.03889633
-0.0436697 -0.06640702 0.06708108 -0.03887705 -0.0035952837 -0.0071033137 0.16516525 -0.0753695
-0.00053321617 -0.0412718 0.22978851 0.06648152 0.17910111 0.07638683 -0.049667567 0.1525801
-0.012041759 0.1327079 0.068255246 -0.006658058 -0.11700373 -0.02789859 0.020778466 -0.057590887
-0.056813195 -0.073392145 0.08996903 -0.14474142 0.021595864 0.029225552 -0.038576245 0.01759011
0.04505913 -0.06711488 -0.018428877 0.03646694 -0.004116694 -0.039554697 0.014140178 0.01989987
-0.09469058 -0.094733186 -0.018980188 -0.06876099 0.03042347 -0.123450704 0.062772214 -0.09742622
-0.01732909 -0.05864604 0.19791538 -0.0020638476 0.05496066 0.031204605 0.05199376 0.055889565
0.08844294 0.0044386922 -0.07080884 -0.01997677 -0.038163625 0.053214334 -0.05048203 -0.055887796
0.01662484 -0.043593608 0.16075219 0.07874898 0.04323018 -0.10836763 -0.06364406 0.0062126433
-0.017186332 -0.014303146 -0.0465512 -0.09470565 -0.003655563 0.1309236 -0.028030958 -0.15009265
-0.06889457 0.03848731 0.01064865 0.071844235 0.07236159 0.06569102 -0.04225644 0.050893012

gru.bias_ih_l0 f4 [192]
00000000: 0000 0000 0000 0000 0000 0000 0000 0000
00000010: 0000 0000 0000 0000 0000 0000 0000 0000
00000020: 0000 0000 0000 0000 0000 0000 0000 0000
00000030: 0000 0000 0000 0000 0000 0000 0000 0000
00000040: 0000 0000 0000 0000 0000 0000 0000 0000
00000050: 0000 0000 0000 0000 0000 0000 0000 0000
00000060: 0000 0000 0000 0000 0000 0000 0000 0000
00000070: 0000 0000 0000 0000 0000 0000 0000 0000
00000080: 0000 0000 0000 0000 0000 0000 0000 0000
00000090: 0000 0000 0000 0000 0000 0000 0000 0000
000000a0: 0000 0000 0000 0000 0000 0000 0000 0000
000000b0: 0000 0000 0000 0000 0000 0000 0000 0000
000000c0: 0000 0000 0000 0000 0000 0000 0000 0000
000000d0: 0000 0000 0000 0000 0000 0000 0000 0000
000000e0: 0000 0000 0000 0000 0000 0000 0000 0000
000000f0: 0000 0000 0000 0000 0000 0000 0000 0000
00000100: 0000 0000 0000 0000 0000 0000 0000 0000
00000110: 0000 0000 0000 0000 0000 0000 0000 0000
00000120: 0000 0000 0000 0000 0000 0000 0000 0000
00000130: 0000 0000 0000 0000 0000 0000 0000 0000
00000140: 0000 0000 0000 0000 0000 0000 0000 0000
00000150: 0000 0000 0000 0000 0000 0000 0000 0000
00000160: 0000 0000 0000 0000 0000 0000 0000 0000
00000170: 0000 0000 0000 0000 0000 0000 0000 0000
00000180: 0000 0000 0000 0000 0000 0000 0000 0000
00000190: 0000 0000 0000 0000 0000 0000 0000 0000
000001a0: 0000 0000 0000 0000 0000 0000 0000 0000
000001b0: 0000 0000 0000 0000 0000 0000 0000 0000
000001c0: 0000 0000 0000 0000 0000 0000 0000 0000
000001d0: 0000 0000 0000 0000 0000 0000 0000 0000
000001e0: 0000 0000 0000 0000 0000 0000 0000 0000
000001f0: 0000 0000 0000 0000 0000 0000 0000 0000
00000200: 0000 0000 0000 0000 0000 0000 0000 0000
00000210: 0000 0000 0000 0000 0000 0000 0000 0000
00000220: 0000 0000 0000 0000 0000 0000 0000 0000
00000230: 0000 0000 0000 0000 0000 0000 0000 0000
00000240: 0000 0000 0000 0000 0000 0000 0000 0000
00000250: 0000 0000 0000 0000 0000 0000 0000 0000
00000260: 0000 0000 0000 0000 0000 0000 0000 0000
00000270: 0000 0000 0000 0000 0000 0000 0000 0000
00000280: 0000 0000 0000 0000 0000 0000 0000 0000
00000290: 0000 0000 0000 0000 0000 0000 0000 0000
000002a0: 0000 0000 0000 0000 0000 0000 0000 0000
000002b0: 0000 0000 0000 0000 0000 0000 0000 0000
000002c0: 0000 0000 0000 0000 0000 0000 0000 0000
000002d0: 0000 0000 0000 0000 0000 0000 0000 0000
000002e0: 0000 0000 0000 0000 0000 0000 0000 0000
000002f0: 0000 0000 0000 0000 0000 0000 0000 0000
0.0 0.0 0.0 0.0 0.0 0.0 0.0 0.0
0.0 0.0 0.0 0.0 0.0 0.0 0.0 0.0
0.0 0.0 0.0 0.0 0.0 0.0 0.0 0.0
0.0 0.0 0.0 0.0 0.0 0.0 0.0 0.0
0.0 0.0 0.0 0.0 0.0 0.0 0.0 0.0
0.0 0.0 0.0 0.0 0.0 0.0 0.0 0.0
0.0 0.0 0.0 0.0 0.0 0.0 0.0 0.0
0.0 0.0 0.0 0.0 0.0 0.0 0.0 0.0
0.0 0.0 0.0 0.0 0.0 0.0 0.0 0.0
0.0 0.0 0.0 0.0 0.0 0.0 0.0 0.0
0.0 0.0 0.0 0.0 0.0 0.0 0.0 0.0
0.0 0.0 0.0 0.0 0.0 0.0 0.0 0.0
0.0 0.0 0.0 0.0 0.0 0.0 0.0 0.0
0.0 0.0 0.0 0.0 0.0 0.0 0.0 0.0
0.0 0.0 0.0 0.0 0.0 0.0 0.0 0.0
0.0 0.0 0.0 0.0 0.0 0.0 0.0 0.0
0.0 0.0 0.0 0.0 0.0 0.0 0.0 0.0
0.0 0.0 0.0 0.0 0.0 0.0 0.0 0.0
0.0 0.0 0.0 0.0 0.0 0.0 0.0 0.0
0.0 0.0 0.0 0.0 0.0 0.0 0.0 0.0
0.0 0.0 0.0 0.0 0.0 0.0 0.0 0.0
0.0 0.0 0.0 0.0 0.0 0.0 0.0 0.0
0.0 0.0 0.0 0.0 0.0 0.0 0.0 0.0
0.0 0.0 0.0 0.0 0.0 0.0 0.0 0.0

gru.bias_hh_l0 f4 [192]
00000000: 0000 0000 0000 0000 0000 0000 0000 0000
00000010: 0000 0000 0000 0000 0000 0000 0000 0000
00000020: 0000 0000 0000 0000 0000 0000 0000 0000
00000030: 0000 0000 0000 0000 0000 0000 0000 0000
00000040: 0000 0000 0000 0000 0000 0000 0000 0000
00000050: 0000 0000 0000 0000 0000 0000 0000 0000
00000060: 0000 0000 0000 0000 0000 0000 0000 0000
00000070: 0000 0000 0000 0000 0000 0000 0000 0000
00000080: 0000 0000 0000 0000 0000 0000 0000 0000
00000090: 0000 0000 0000 0000 0000 0000 0000 0000
000000a0: 0000 0000 0000 0000 0000 0000 0000 0000
000000b0: 0000 0000 0000 0000 0000 0000 0000 0000
000000c0: 0000 0000 0000 0000 0000 0000 0000 0000
000000d0: 0000 0000 0000 0000 0000 0000 0000 0000
000000e0: 0000 0000 0000 0000 0000 0000 0000 0000
000000f0: 0000 0000 0000 0000 0000 0000 0000 0000
00000100: 0000 0000 0000 0000 0000 0000 0000 0000
00000110: 0000 0000 0000 0000 0000 0000 0000 0000
00000120: 0000 0000 0000 0000 0000 0000 0000 0000
00000130: 0000 0000 0000 0000 0000 0000 0000 0000
00000140: 0000 0000 0000 0000 0000 0000 0000 0000
00000150: 0000 0000 0000 0000 0000 0000 0000 0000
00000160: 0000 0000 0000 0000 0000 0000 0000 0000
00000170: 0000 0000 0000 0000 0000 0000 0000 0000
00000180: 0000 0000 0000 0000 0000 0000 0000 0000
00000190: 0000 0000 0000 0000 0000 0000 0000 0000
000001a0: 0000 0000 0000 0000 0000 0000 0000 0000
000001b0: 0000 0000 0000 0000 0000 0000 0000 0000
000001c0: 0000 0000 0000 0000 0000 0000 0000 0000
000001d0: 0000 0000 0000 0000 0000 0000 0000 0000
000001e0: 0000 0000 0000 0000 0000 0000 0000 0000
000001f0: 0000 0000 0000 0000 0000 0000 0000 0000
00000200: 0000 0000 0000 0000 0000 0000 0000 0000
00000210: 0000 0000 0000 0000 0000 0000 0000 0000
00000220: 0000 0000 0000 0000 0000 0000 0000 0000
00000230: 0000 0000 0000 0000 0000 0000 0000 0000
00000240: 0000 0000 0000 0000 0000 0000 0000 0000
00000250: 0000 0000 0000 0000 0000 0000 0000 0000
00000260: 0000 0000 0000 0000 0000 0000 0000 0000
00000270: 0000 0000 0000 0000 0000 0000 0000 0000
00000280: 0000 0000 0000 0000 0000 0000 0000 0000
00000290: 0000 0000 0000 0000 0000 0000 0000 0000
000002a0: 0000 0000 0000 0000 0000 0000 0000 0000
000002b0: 0000 0000 0000 0000 0000 0000 0000 0000
000002c0: 0000 0000 0000 0000 0000 0000 0000 0000
000002d0: 0000 0000 0000 0000 0000 0000 0000 0000
000002e0: 0000 0000 0000 0000 0000 0000 0000 0000
000002f0: 0000 0000 0000 0000 0000 0000 0000 0000
0.0 0.0 0.0 0.0 0.0 0.0 0.0 0.0
0.0 0.0 0.0 0.0 0.0 0.0 0.0 0.0
0.0 0.0 0.0 0.0 0.0 0.0 0.0 0.0
0.0 0.0 0.0 0.0 0.0 0.0 0.0 0.0
0.0 0.0 0.0 0.0 0.0 0.0 0.0 0.0
0.0 0.0 0.0 0.0 0.0 0.0 0.0 0.0
0.0 0.0 0.0 0.0 0.0 0.0 0.0 0.0
0.0 0.0 0.0 0.0 0.0 0.0 0.0 0.0
0.0 0.0 0.0 0.0 0.0 0.0 0.0 0.0
0.0 0.0 0.0 0.0 0.0 0.0 0.0 0.0
0.0 0.0 0.0 0.0 0.0 0.0 0.0 0.0
0.0 0.0 0.0 0.0 0.0 0.0 0.0 0.0
0.0 0.0 0.0 0.0 0.0 0.0 0.0 0.0
0.0 0.0 0.0 0.0 0.0 0.0 0.0 0.0
0.0 0.0 0.0 0.0 0.0 0.0 0.0 0.0
0.0 0.0 0.0 0.0 0.0 0.0 0.0 0.0
0.0 0.0 0.0 0.0 0.0 0.0 0.0 0.0
0.0 0.0 0.0 0.0 0.0 0.0 0.0 0.0
0.0 0.0 0.0 0.0 0.0 0.0 0.0 0.0
0.0 0.0 0.0 0.0 0.0 0.0 0.0 0.0
0.0 0.0 0.0 0.0 0.0 0.0 0.0 0.0
0.0 0.0 0.0 0.0 0.0 0.0 0.0 0.0
0.0 0.0 0.0 0.0 0.0 0.0 0.0 0.0
0.0 0.0 0.0 0.0 0.0 0.0 0.0 0.0

gru.weight_ih_l1 f4 [192, 64]
00000000: fea8 643d 778d df3c 8a28 723d 89ab eabd
00000010: 5549 2f3d 3772 6b3c 165c c0bc bca5 c9bc
00000020: 4292 a6bd f82e a1bd f9e8 1bbe 02c5 383d
00000030: ee2d 63bb 6fb0 043d da84 1cbe 19ff 8b3d
00000040: 5558 a4bd 95f6 0b3e b502 9bbc 8a1d 2d3d
00000050: 9dc4 ccbb 2926 613d 197c de3d 642e 173e
00000060: 9179 073d 40b5 ee3d 95d2 6ebd d45d aabd
00000070: 1fb3 96bd ef39 e63d fe53 af3c 2fed cebd
00000080: 4f9f 6bbd 14ff 85bc ffda 57bd 4de6 3bbd
00000090: d3ad 133e 75d1 cb3d bcbd 9bbc 9628 01be
000000a0: 2736 cf3c 7b03 023e 44ae 543d 0f68 90bd
000000b0: 9c28 e63c 4d26 a63d f2d6 e0bd fa04 96bd
000000c0: 9ddd c73d 474e 6f3b ef29 833d 0fb1 85bd
000000d0: 667c ab3d 4e1d 093d d509 103e 403d 19be
000000e0: 3dac 06be 0d6f 013e 1846 a3bc 1780 24bd
000000f0: 81fc 83bc e67f f13c 2c34 97bd 564c bebc
00000100: 71ab d8bd 6e83 083e 2ec9 2abd f465 96bd
00000110: 1044 fc3d 0823 983d 77b1 06be d1e1 833c
00000120: 13cd a5bd 37fb 433d 8275 92bd b684 013e
00000130: e019 14bd 19ae acbc bc7f 0e3d b89b f93d
00000140: 34b0 f63d 523f fcbc f022 1b3e 40f6 d23d
00000150: 8287 f8bd bfbe fd3c bd00 da3c 159b aa3d
00000160: 03bf 413e cf8a 913d ab64 1fbe d350 fc3c
00000170: 6dac 833c 1542 0e3e 8b37 0cbe 2d13 f93d
00000180: b152 03be 8a88 a43d 99f0 fb3b d500 e9bd
00000190: cac8 3fbd 1d7a e9bd f115 173e cc80 80bd
000001a0: 66ef d73c 234a 953d 9a51 e53d 52b5 4f3d
000001b0: e190 64bd f364 af3d ef4a 0bbe 96fa 8e3b
000001c0: fe86 ab3d d09d 41be 76f1 ce3d 4b44 e1bd
000001d0: 0f3e 8c3d 4008 ad3d 2cb7 d33d 3073 b3bc
000001e0: 8286 b6bc 3e17 273e 8301 70bd 91cd 923d
000001f0: 8a07 cebd 9fc0 5ebd a226 0c3e 514f 6abd
00000200: dcba d039 5cc7 063e 983b 37bd 1c96 63bc
00000210: 3a30 c43d 6e73 29bd 2c5b 85bd 64e1 0e3e
00000220: a043 cebd 5bed 50bd e9f5 013d e46c 123e
00000230: adaf 92bc 1d6a 163d 5d8c a43d 7bed 073e
00000240: 3de6 053c b170 b5bb 2c73 433d 4841 91bd
00000250: 70c7 9d3d 16f4 d5bc 05ba d83c 7f95 ab3d
00000260: 83b3 b53d bfd8 e3bd 5dba a0bd f8b5 453e
00000270: a3e9 01be ce48 8f3d 0017 08bd e32f 07bd
00000280: 40ec 99bd 2600 cebd 001e 073e fa2c a6bd
00000290: d3b1 883d 4997 ad3d d1fe 0c3e 512a a03d
000002a0: 653c ef3d 40d1 ae3c cb76 1bbe 04a3 45be
000002b0: 9381 e5bd 2662 eabd 76a2 20be 437c 5b3e
000002c0: 3c86 203e f8cb febd 5110 03be 46a9 25be
000002d0: 1a56 083e 31b1 e6bd 0cb0 0d3b 5b5b 253d
000002e0: e668 003e 7a0e 403e bd69 943d 0fd9 dfbd
000002f0: 46a1 e2bd fcc1 253d a6aa 223e 53e5 a8bc
00000300: 600e ccbd bdd6 173e 8880 0e3e 1b92 f03d
00000310: f33e 0dbd 164c 6ebc 908a c9bc bc5e ebbc
00000320: 8242 dabd bc50 a6bd 6cdf 15be 4447 0e3e
00000330: 3b62 b33d 45e8 bebd cc43 9c3d 75f7 5dbd
00000340: 5435 e8bc e9f9 32bd dc1a 0a3e 0836 b1bd
00000350: cd33 eb3d 06c4 d83d f8fd a9bd 5698 0ebe
00000360: 2722 133e 6870 8abc fa8a 553d 2337 aa3d
00000370: 5ebc d5bd b8d8 2d3e a149 983d f594 90bd
00000380: 971c 43bd fa72 b33d 0785 c3bb 00aa 1cbe
00000390: a52f 80bd a2d0 433e fe5a 013e 1756 2cbe
000003a0: f690 f33d c8f4 e53d 0a97 e03d c8c0 9ebd
000003b0: 1410 38be e18f e0bc cabf a6bc 9658 393e
000003c0: 5aac 753c d1d9 d73a 9c2f ecbd b91b 2fbb
000003d0: 414f 913d caa5 0b3d f7aa bcbc 56af 26bc
000003e0: 9a2c fabd 4aa5 c7bd cbdd 133e dc83 0a3e
000003f0: 67a1 87bd 902c 323d 0f2f 5fbc cad8 73bc
0.055825226 0.027289135 0.059120692 -0.11458499 0.042794544 0.014370493 -0.02348141 -0.024615161
-0.08133365 -0.07870287 -0.15225591 0.045109756 -0.0034664827 0.032394823 -0.15285054 0.068357654
-0.080246605 0.13668282 -0.01892219 0.0422645 -0.006249024 0.054968033 0.108635135 0.1476379
0.03307492 0.116556644 -0.058306295 -0.083186775 -0.073583834 0.11241519 0.021402355 -0.10103833
-0.057524975 -0.016356982 -0.052699085 -0.04587393 0.14421777 0.0995206 -0.01901137 -0.12613139
0.025294377 0.1269664 0.051924005 -0.070510976 0.028095536 0.08112774 -0.109784976 -0.07325168
0.09759066 0.0036515163 0.064044826 -0.06527912 0.083733365 0.033475213 0.1406625 -0.14964771
-0.13151641 0.12640019 -0.019930884 -0.04016122 -0.016111614 0.029479932 -0.07382998 -0.02322976
-0.10579575 0.13331386 -0.041695766 -0.07343665 0.123176694 0.07428557 -0.13153635 0.016098889
-0.080957554 0.047847 -0.07151319 0.12648281 -0.03615749 -0.02107911 0.034789786 0.12187904
0.12045327 -0.030791912 0.15150046 0.10300875 -0.12135221 0.030974744 0.02661168 0.08330361
0.18920521 0.07106554 -0.15565746 0.030800259 0.01607343 0.13892396 -0.13693063 0.121618606
-0.12824513 0.08033855 0.0076885936 -0.11377112 -0.046822347 -0.114002444 0.14754464 -0.06274566
0.026359271 0.07289531 0.11197205 0.05071003 -0.05580223 0.085641764 -0.13602804 0.0043633683
0.08375357 -0.18907857 0.10104649 -0.10999354 0.06847774 0.08448839 0.10337672 -0.021905512
-0.022280935 0.1631746 -0.05859519 0.07168115 -0.10060032 -0.054382917 0.13686612 -0.05720455
0.00039812073 0.13161987 -0.044734567 -0.013890769 0.09579511 -0.041369848 -0.0651153 0.13953167
-0.10071492 -0.05100761 0.03172866 0.14299351 -0.017906034 0.03672229 0.08034585 0.13274185
0.008172569 -0.0055371155 0.04771726 -0.070925295 0.07704055 -0.026117366 0.026455889 0.083781235
0.0887213 -0.111253254 -0.07848046 0.19307697 -0.12686782 0.06996308 -0.03322506 -0.033004653
-0.07515764 -0.10058622 0.13195038 -0.08114047 0.06674542 0.08476121 0.1376908 0.07820571
0.11681441 0.021340013 -0.15182035 -0.19300467 -0.11206355 -0.114445016 -0.15686974 0.21434121
0.15676206 -0.12441248 -0.12799193 -0.16177854 0.13314095 -0.11264265 0.0021619825 0.040370326
0.12540016 0.18755522 0.072467305 -0.109300725 -0.11065917 0.0404682 0.1588541 -0.020617163
-0.09963679 0.1482801 0.13916218 0.117466174 -0.03448386 -0.0145445075 -0.024602205 -0.028731696
-0.106572166 -0.081208676 -0.1463601 0.13894373 0.0875897 -0.09321646 0.07630119 -0.05419107
-0.028345741 -0.043695364 0.13486809 -0.08652884 0.114844896 0.105842635 -0.08300394 -0.13925299
0.14368497 -0.016899303 0.05213449 0.08311298 -0.10436319 0.16977203 0.074359186 -0.07059661
-0.047634687 0.087621644 -0.005966786 -0.15299225 -0.062590875 0.19122556 0.12632367 -0.16829716
0.118928835 0.11228329 0.109663084 -0.07751614 -0.17974883 -0.027412357 -0.020355124 0.18100199
0.014994705 0.0016468113 -0.11532518 -0.0026719405 0.070951946 0.034093656 -0.023030741 -0.010173639
-0.12215538 -0.09748323 0.14440076 0.13526863 -0.06622582 0.04349953 -0.0136220595 -0.0148832295

gru.weight_hh_l1 f4 [192, 64]
00000000: 0f65 0bbd b35c f0bc 4c9e f9bb 2611 50bd
00000010: c567 023e 8487 b53d 03c5 8c3d c547 bebc
00000020: 0f09 d9bd 9603 14be cc78 10bc 6d31 403d
00000030: aa90 b139 87b6 e23d bb55 93bd 86c3 53bc
00000040: ed8c 5b3d af93 233d b3d0 243c bba5 6b3d
00000050: b740 e63d 8d99 043c cfc4 0b3c be74 cabc
00000060: 53b0 123c 07d6 043e 8374 1a3d 9417 173d
00000070: 18c7 413e d6ad cd3c a56f c8bd f2bd e0bd
00000080: f54d 733d e2ac 0a3d a4f1 263e ad64 953d
00000090: 255b 89be 5a92 07bb d9f0 6c3d 0a19 223c
000000a0: 5221 c6bd 8f26 3f3c f2c6 64bc ed19 aa3a
000000b0: 5602 fdbc b4d6 71bd 3ed6 f8bd 5a1e 953d
000000c0: 6914 b43d 4dcc c83d 501b 7cbd 8964 eabd
000000d0: c8c5 01be 05b7 cbbd 77e9 f23c 01b3 84bc
000000e0: 3476 68bd 895d 673d 3f1b be3d 8a21 86bd
000000f0: 9683 103d 89b8 9bbd 9c68 12be 3951 863d
00000100: 40a9 f9bd 55ba a23d b577 02be 3af2 a23b
00000110: e005 f03b c947 7f3d d57b 23bb d2e5 f0bd
00000120: 8b58 b4bd 4709 423d 399b 203d 169b e73c
00000130: 9847 a2bc 4b4c d23d 3561 17bd f14f ff3d
00000140: 113b 503d 5e9f bb3d c076 b0bb ca06 07bd
00000150: 7be9 d4bd f6e3 b9bd 10a4 10be c3ae 27bc
00000160: 56ee a2bd e108 01bd f156 853d cae8 ee3a
00000170: d6ad 833c f743 9c3d 595c f1bd 0775 143c
00000180: e1b5 113e 4873 30bc 731b e63c 4c00 1f3d
00000190: ed31 babd c8a6 43be bba8 193d 3815 00be
000001a0: 5bdb d1bd 96b8 8e3d 4540 b03c 5cce f43d
000001b0: 9bb0 9d3d c9c0 0cbe f8e1 4cbd 1517 d43c
000001c0: 3e68 3cbc 2c18 403d e4cf 493c 9dc7 3ebd
000001d0: fddd 4cbd f7c2 933d 5490 193d 6c92 cc3d
000001e0: ce05 b6bc 4948 15bd c060 923d 4a76 eb3d
000001f0: 4be8 c83c 9f0a 91bd 2282 963d a268 1abe
00000200: 0d7e 883d 83fe 96bd cedc e3bd 2f48 d6bd
00000210: e776 813d 8b70 073e 82f8 e03d fcd5 96bd
00000220: b6b3 e1bc 9c72 453d 2293 d7bd 1ce4 65bd
00000230: 5b8b 28bd cb02 393e e578 afbb 4c6a d63c
00000240: 4d1f 0e3e 1f90 e63c cbb2 193e 28f2 4c3d
00000250: 38e9 b13b 3c54 b1bd 6e17 183d c689 06bd
00000260: 3412 56bd b54c a53d 492b 403d 3a0c 1e3e
00000270: 2841 2cbc e8ae 5ebd b195 423c 3901 6dbd
00000280: a2b8 b6bb a2f5 733e ef83 283e c3eb 893d
00000290: f1f7 4cbc 89b4 11be 57d2 d23d dc0e 44bd
000002a0: 655f 85bd b4d2 76bd 791e 05bd 9072 03be
000002b0: 5141 c33d 0708 f53d 0052 d4bd 316d 5a3e
000002c0: 5639 b7bd ea87 aa3d 11ed 06bc 3ced 27be
000002d0: 9391 073c 0f59 ad3d 1a60 b13d 4dcf b83a
000002e0: a5bf 93bd 0dc0 14be 6ff0 5fbc 5a89 9e3d
000002f0: fcaf 7f3d 9d70 19be 73f7 9ebd 5085 853d
00000300: 9a84 a8bc 3426 dabd 925d 7e3d 522c 393d
00000310: 6805 183e f5c9 67bd a6c0 773b 36d3 b93d
00000320: 9792 44be f422 b53d f96c 9cbd d4c8 58bd
00000330: fd76 b5bd 1b00 ebbc 7524 833d 2bfc bd3d
00000340: e3a3 ce3d 9405 ea3b 86c1 00bc 898e 703d
00000350: e178 483d 0b63 103d cbda 99bd 6947 10bd
00000360: 2f56 cabc e05f dc3d e3fe f43b 040d 783d
00000370: 1513 23bb d32c 11bd 8acb fabd 6e43 833d
00000380: f5aa ddbd d84b 0b3d 0c19 ddb8 34a9 953d
00000390: ce90 a23d f066 efbc 0c4f a23d cc1a f5bc
000003a0: d1a8 05be 6de8 283d ffb3 a23d daad 0f3e
000003b0: 123e 44bd 1f9b 913d 476e b0bd 410c d8bb
000003c0: 4a79 0abd eb26 39be a359 ac3d 07e6 b83d
000003d0: 9616 8e3b 8b0f cfbc 83ae e3bc 2700 85bd
000003e0: 47d4 b2bd 5ff9 d93d b134 5f3c d90a 003e
000003f0: 43c8 10bd 9b1c 513d be47 9a3d 010b 17be
-0.034031924 -0.029341077 -0.0076177474 -0.050797604 0.12734897 0.08863738 0.068735145 -0.023227582
-0.10597431 -0.14454493 -0.008817863 0.046922136 0.00033867854 0.110699706 -0.07194086 -0.012925034
0.053601194 0.039935764 0.010059523 0.0575311 0.11242812 0.00809325 0.00853081 -0.02471387
0.008953172 0.1297227 0.03770877 0.03688772 0.18923604 0.025107305 -0.097869195 -0.10973729
0.059400517 0.03385628 0.16303116 0.07294593 -0.2682735 -0.0020686598 0.057846878 0.009893665
-0.09674324 0.011666908 -0.013963448 0.0012977697 -0.030884903 -0.059042647 -0.121502385 0.0728118
0.087929554 0.09804592 -0.061549485 -0.11444957 -0.12673104 -0.099470176 0.02965234 -0.016198637
-0.056753352 0.056485686 0.092825405 -0.06549366 0.03528174 -0.07603557 -0.14297718 0.06558461
-0.12190485 0.07945696 -0.12740977 0.0049727233 0.007324919 0.06232432 -0.0024945636 -0.11762585
-0.08805951 0.04737213 0.03921053 0.028272193 -0.01980953 0.10268458 -0.03695794 0.124664195
0.05083758 0.09161256 -0.00538525 -0.03296546 -0.10396095 -0.09076683 -0.14125085 -0.010234538
-0.07955615 -0.03150261 0.065107234 0.0018227336 0.016074102 0.07630151 -0.11785192 0.009061105
0.14229538 -0.010769673 0.02808926 0.038818642 -0.09091554 -0.19106591 0.03751443 -0.12508094
-0.10246917 0.06968801 0.021515021 0.119534224 0.076997004 -0.13745417 -0.050020188 0.025889913
-0.011499463 0.046898052 0.012317631 -0.046577085 -0.050016392 0.07214921 0.037491158 0.09988865
-0.022219565 -0.03644589 0.0714736 0.11497171 0.024524828 -0.07082104 0.073490396 -0.15078977
0.06664667 -0.07372763 -0.111260995 -0.10462987 0.06321507 0.13226525 0.10984899 -0.07365033
-0.027551513 0.048205003 -0.1052611 -0.056125745 -0.041148525 0.18067472 -0.005354988 0.026173733
0.13879128 0.028144894 0.1500961 0.050035626 0.005429413 -0.086586446 0.03713172 -0.032846235
-0.052263454 0.08071271 0.04691628 0.15434352 -0.010513581 -0.054366022 0.0118765095 -0.057862494
-0.005576209 0.2382417 0.16456579 0.06734421 -0.012510286 -0.14229025 0.102940254 -0.047865734
-0.06512336 -0.060259536 -0.032499764 -0.12836671 0.095339425 0.11964422 -0.10367203 0.21330716
-0.08946483 0.08326705 -0.008235232 -0.16399091 0.008274454 0.08464252 0.08660908 0.0014099866
-0.07214288 -0.14526387 -0.013668164 0.077410415 0.06242369 -0.14984365 -0.07762041 0.06519568
-0.020571042 -0.10651818 0.062100954 0.045208283 0.14845812 -0.056589086 0.0037804036 0.090734884
-0.19196545 0.088445574 -0.076379724 -0.0529259 -0.08860586 -0.028686574 0.06403438 0.09276613
0.10089853 0.0071417782 -0.00785864 0.058729682 0.048943404 0.035250705 -0.075124346 -0.035224352
-0.024699299 0.10760474 0.007476674 0.060559288 -0.00248832 -0.03544314 -0.12245853 0.064093456
-0.10823623 0.034007877 -0.000105427665 0.073076636 0.079377756 -0.02922389 0.07925233 -0.029920004
-0.1305268 0.041237283 0.07944488 0.14031163 -0.047910757 0.07109665 -0.08614784 -0.0065932577
-0.033807077 -0.18081252 0.08415534 0.09028249 0.0043361885 -0.025275966 -0.027793175 -0.0649417
-0.08731895 0.10643267 0.013623402 0.12504138 -0.035347234 0.05105267 0.07533215 -0.14750291

gru.bias_ih_l1 f4 [192]
00000000: 91fb 29bd 8d3e 14bd 221d 9abd 8975 51bd
00000010: e30d 18bd b158 98bc e3e9 01bd 8b73 8fbd
00000020: a6a1 a7ba b92f 843b c408 bfbc 7574 8bbd
00000030: 7ba5 c2bd 91f1 81bd 7320 11bd 6cec 41bd
00000040: 35ce 45bd 01a0 a7bc e5a9 90bc 26ec e7bc
00000050: 056b 37bd 7e83 6ebd 63f3 9b3b 548b 05bd
00000060: e165 9cbc 2b78 28bd 0a1a a8bc 8d44 4bbd
00000070: 8303 fbbb cfc8 6b3b 620e 8e3d a7c0 59bd
00000080: 5a28 6fbd fa9a debc 60c7 5bbd ca95 96bc
00000090: 84e5 75bd 18b5 06bd 7b50 00bd 4074 9bbc
000000a0: bff9 59bd 47e8 98bd d42f 0abd 6691 983b
000000b0: 1e39 5dbd ceb3 29bd 85ec 49bd 6b1f 01bd
000000c0: 0272 90bc 163c 78bd f0e1 15bd 2852 32bd
000000d0: 6c91 38bc 38f6 f1bc 8982 f4bc ec87 01bd
000000e0: 9f0b 92bd 7d3c 7cbc 373c 5bbd 9c08 c9bb
000000f0: b5d6 96bd 5e28 7abc 857b 3abd 7d39 15bd
00000100: 837e 5d3d 16b3 823d cc45 053d 408a 5a3d
00000110: d2f1 823d d485 423d 3a46 b03d 5715 923d
00000120: 2b47 3f3d 523a e83d 4111 5b3d 956a 463d
00000130: 67ce b73d 3175 833d a387 e73d e0f5 9c3d
00000140: 9b36 043e 3bfe 183d 1bb3 c13d ad77 e33d
00000150: 2c67 823d 7f00 7f3d aa97 8b3d 85dc ce3d
00000160: 3cb1 d43c 46d0 783d 32d8 df3d e143 163d
00000170: b3e4 ce3d f571 603d de90 c43b 2f74 583d
00000180: 84b1 053e b0d0 f03c d4d5 343d e641 523d
00000190: 70f3 db3d 413b a93d 3426 403d 9ab0 bb3c
000001a0: ce77 7f3d c514 4d3d 11b9 ac3d 489d 5d3d
000001b0: 31d8 e83c 9171 2a3d 49ab 9f3d f145 af3d
000001c0: 5e78 e53b e50a c53c 2e34 403d 2db1 4d3d
000001d0: dfee 9abb fc71 b23d 2947 b33d d1bb 273d
000001e0: 456d d83d 5545 b13d a212 733d dbb8 d83d
000001f0: 0645 a03d 0b8c 933d 9db1 143d 56d5 603b
00000200: f057 be3c b5f1 cabc 2663 6c3c e12c c33c
00000210: 697f 01bd a040 b9bc 6e93 f2bc a3a0 b23c
00000220: 8523 133d 59f3 6c3c d544 0b3d 4839 77b9
00000230: 9eb4 f13b 24de 20bc 033b 5b3c 9b91 8fbc
00000240: 32ed 39bc 84ff 93bc 2c26 61bc 3e2e d3bb
00000250: 4b36 12bc 3fad 283c 1d2a 9abd 87e1 703c
00000260: 7edb a93c be5c ddbc 73b7 cabc e288 08bd
00000270: f102 2dbd cd92 03bd 7c4b 743d 3d0b f63b
00000280: 389c aabc ced9 8e3b cecb 16bd 6afb afbc
00000290: f1f3 493a fe27 893c 7dca 5fbc 2691 d53c
000002a0: 194d b83c 0828 08bd 6583 5f3c 1c81 dd3b
000002b0: 78b4 54bc 3cf6 c0bc 0b34 bb3c 0b61 cdbc
000002c0: e698 aa3c 74f6 08bd c555 9a3c 8c86 163d
000002d0: 7075 cc3c d340 bbbc 69d6 62bc bea5 b03c
000002e0: 49da ebbb 2cd8 0a3d 9277 d3bc 86c4 0abc
000002f0: 1f5e a4bc 3994 0f3c 2bc9 013c 86cc ffbc
-0.041499678 -0.036192466 -0.07525088 -0.05113748 -0.03712262 -0.018596979 -0.031717192 -0.0700446
-0.0012789264 0.0040340093 -0.02331961 -0.06809322 -0.09504219 -0.06344903 -0.035431337 -0.04734461
-0.048292357 -0.020462038 -0.017659137 -0.028310847 -0.044779796 -0.05823087 0.0047592386 -0.032603577
-0.019091548 -0.041130226 -0.020520229 -0.049625922 -0.0076603307 0.0035977846 0.06936337 -0.053162243
-0.05838809 -0.027173508 -0.053656936 -0.018381972 -0.060033336 -0.03288755 -0.031326752 -0.01897633
-0.053216692 -0.074661784 -0.03373702 0.0046560047 -0.05400955 -0.04143124 -0.04929783 -0.031524103
-0.017632488 -0.060604177 -0.036592424 -0.04353538 -0.01126514 -0.029536352 -0.0298474 -0.031623766
-0.07131123 -0.015395281 -0.053524222 -0.0061350595 -0.07365171 -0.015268413 -0.045527954 -0.03643178
0.05407573 0.06381814 0.032537267 0.0533545 0.0639378 0.04749091 0.08607145 0.071329765
0.04669873 0.11339249 0.05348325 0.04844149 0.08974915 0.06418837 0.113051675 0.076640844
0.12911455 0.037351828 0.0945799 0.11106811 0.06367335 0.062256332 0.06816037 0.101006545
0.025963418 0.0607455 0.10929908 0.036685828 0.10102215 0.054796178 0.005998715 0.052845176
0.13055998 0.029396385 0.044149235 0.051332377 0.107397914 0.08263255 0.046911433 0.022911359
0.062370114 0.050068635 0.08433736 0.054105073 0.0284234 0.04161221 0.07796342 0.08558262
0.0070028743 0.024053046 0.046924762 0.050217796 -0.0047281827 0.08713147 0.08753807 0.0409506
0.105677165 0.08655802 0.05934394 0.105821334 0.07825665 0.072044455 0.036302198 0.0034306846
0.023235291 -0.024773458 0.014427936 0.02382511 -0.03161565 -0.022613823 -0.029611316 0.021805113
0.035922546 0.0144623155 0.03400119 -0.00023577095 0.0073762676 -0.009818587 0.013380769 -0.017525485
-0.011348056 -0.018066175 -0.013742011 -0.0064447215 -0.008924077 0.010295211 -0.07527564 0.014702207
0.020734545 -0.027021762 -0.024745679 -0.033333667 -0.042239133 -0.032122422 0.0596423 0.007508664
-0.020826444 0.0043594604 -0.036815457 -0.021482188 0.00077038916 0.016742703 -0.013659117 0.026070189
0.0224977 -0.0332413 0.013642167 0.006759776 -0.01298248 -0.023554914 0.022851964 -0.025070688
0.02082486 -0.03343816 0.018839726 0.036749408 0.024958342 -0.022858059 -0.013845065 0.021563407
-0.0071976525 0.033897564 -0.025813852 -0.008469706 -0.020064412 0.008763366 0.007921497 -0.031225454

gru.bias_hh_l1 f4 [192]
00000000: 91fb 29bd 8d3e 14bd 221d 9abd 8975 51bd
00000010: e30d 18bd b158 98bc e3e9 01bd 8b73 8fbd
00000020: a6a1 a7ba b92f 843b c408 bfbc 7574 8bbd
00000030: 7ba5 c2bd 91f1 81bd 7320 11bd 6cec 41bd
00000040: 35ce 45bd 01a0 a7bc e5a9 90bc 26ec e7bc
00000050: 056b 37bd 7e83 6ebd 63f3 9b3b 548b 05bd
00000060: e165 9cbc 2b78 28bd 0a1a a8bc 8d44 4bbd
00000070: 8303 fbbb cfc8 6b3b 620e 8e3d a7c0 59bd
00000080: 5a28 6fbd fa9a debc 60c7 5bbd ca95 96bc
00000090: 84e5 75bd 18b5 06bd 7b50 00bd 4074 9bbc
000000a0: bff9 59bd 47e8 98bd d42f 0abd 6691 983b
000000b0: 1e39 5dbd ceb3 29bd 85ec 49bd 6b1f 01bd
000000c0: 0272 90bc 163c 78bd f0e1 15bd 2852 32bd
000000d0: 6c91 38bc 38f6 f1bc 8982 f4bc ec87 01bd
000000e0: 9f0b 92bd 7d3c 7cbc 373c 5bbd 9c08 c9bb
000000f0: b5d6 96bd 5e28 7abc 857b 3abd 7d39 15bd
00000100: 837e 5d3d 16b3 823d cc45 053d 408a 5a3d
00000110: d2f1 823d d485 423d 3a46 b03d 5715 923d
00000120: 2b47 3f3d 523a e83d 4111 5b3d 956a 463d
00000130: 67ce b73d 3175 833d a387 e73d e0f5 9c3d
00000140: 9b36 043e 3bfe 183d 1bb3 c13d ad77 e33d
00000150: 2c67 823d 7f00 7f3d aa97 8b3d 85dc ce3d
00000160: 3cb1 d43c 46d0 783d 32d8 df3d e143 163d
00000170: b3e4 ce3d f571 603d de90 c43b 2f74 583d
00000180: 84b1 053e b0d0 f03c d4d5 343d e641 523d
00000190: 70f3 db3d 413b a93d 3426 403d 9ab0 bb3c
000001a0: ce77 7f3d c514 4d3d 11b9 ac3d 489d 5d3d
000001b0: 31d8 e83c 9171 2a3d 49ab 9f3d f145 af3d
000001c0: 5e78 e53b e50a c53c 2e34 403d 2db1 4d3d
000001d0: dfee 9abb fc71 b23d 2947 b33d d1bb 273d
000001e0: 456d d83d 5545 b13d a212 733d dbb8 d83d
000001f0: 0645 a03d 0b8c 933d 9db1 143d 56d5 603b
00000200: 497e 6d3c 7f7f 13bd b314 da3c 0106 133d
00000210: 1f03 10bd a33a b2bc dd2e d4bc b21b c13c
00000220: 3494 003d a6fc 983c c085 c13c f944 923c
00000230: c11a 28bc 53da 0fbd 0bb3 653c 13a5 33bc
00000240: c1a3 1ebc dbb6 85bc 6ecc 8dbc ee3b acb6
00000250: a448 84bc b7bb 253c 913b 86bd 3895 713c
00000260: 61ae 433c 1ae8 bcbc fdfd 8bbc c258 37bd
00000270: 2dd9 28bd 3a51 03bd 3b65 833d 0500 35bc
00000280: dc2d a2bc 7020 e4bb d413 f0bc 272b f3bc
00000290: b97f 153c ed3b d53c 3a1a c7bc 6428 653c
000002a0: 3214 793c 2ce5 35bd ab93 143d 0142 533c
000002b0: 7d01 bbbc 02bd 1bbd 17ca 013d aeb1 19bd
000002c0: ee95 953c c88b 10bd 17b5 e13c b762 e33c
000002d0: 7686 a23c 70cb 14bd 2864 b6bc 026d ab3c
000002e0: 5916 4abb 92ec d63c 5ab1 ecbc acf5 30bc
000002f0: 44ee b9bc e8a1 8b3c 6032 4b3c 6f68 d5bc
-0.041499678 -0.036192466 -0.07525088 -0.05113748 -0.03712262 -0.018596979 -0.031717192 -0.0700446
-0.0012789264 0.0040340093 -0.02331961 -0.06809322 -0.09504219 -0.06344903 -0.035431337 -0.04734461
-0.048292357 -0.020462038 -0.017659137 -0.028310847 -0.044779796 -0.05823087 0.0047592386 -0.032603577
-0.019091548 -0.041130226 -0.020520229 -0.049625922 -0.0076603307 0.0035977846 0.06936337 -0.053162243
-0.05838809 -0.027173508 -0.053656936 -0.018381972 -0.060033336 -0.03288755 -0.031326752 -0.01897633
-0.053216692 -0.074661784 -0.03373702 0.0046560047 -0.05400955 -0.04143124 -0.04929783 -0.031524103
-0.017632488 -0.060604177 -0.036592424 -0.04353538 -0.01126514 -0.029536352 -0.0298474 -0.031623766
-0.07131123 -0.015395281 -0.053524222 -0.0061350595 -0.07365171 -0.015268413 -0.045527954 -0.03643178
0.05407573 0.06381814 0.032537267 0.0533545 0.0639378 0.04749091 0.08607145 0.071329765
0.04669873 0.11339249 0.05348325 0.04844149 0.08974915 0.06418837 0.113051675 0.076640844
0.12911455 0.037351828 0.0945799 0.11106811 0.06367335 0.062256332 0.06816037 0.101006545
0.025963418 0.0607455 0.10929908 0.036685828 0.10102215 0.054796178 0.005998715 0.052845176
0.13055998 0.029396385 0.044149235 0.051332377 0.107397914 0.08263255 0.046911433 0.022911359
0.062370114 0.050068635 0.08433736 0.054105073 0.0284234 0.04161221 0.07796342 0.08558262
0.0070028743 0.024053046 0.046924762 0.050217796 -0.0047281827 0.08713147 0.08753807 0.0409506
0.105677165 0.08655802 0.05934394 0.105821334 0.07825665 0.072044455 0.036302198 0.0034306846
0.014495441 -0.03601026 0.026621198 0.035894398 -0.035159227 -0.021756476 -0.025901252 0.023572776
0.031391338 0.01867516 0.023623347 0.017855154 -0.010260285 -0.03512032 0.014019738 -0.01096465
-0.009682597 -0.016322544 -0.017309394 -5.132976e-06 -0.016147919 0.0101155555 -0.0655433 0.014745049
0.011943431 -0.023059893 -0.017088884 -0.04476238 -0.04122274 -0.032059886 0.064157926 -0.011047368
-0.019797258 -0.0069618747 -0.02930633 -0.029683663 0.00912469 0.026029551 -0.024304498 0.013986681
0.015202569 -0.04440801 0.03627364 0.0128941545 -0.022827858 -0.03802205 0.03168687 -0.037522964
0.018259969 -0.035289556 0.02755217 0.027757032 0.019839507 -0.036326826 -0.022264555 0.020926002
-0.0030836074 0.026235852 -0.028893162 -0.01080076 -0.022696622 0.017044976 0.012402147 -0.026050774

fc.weight f4 [1, 64]
00000000: c9a2 123d 70a8 0cbd e50b 893c 1742 b03c
00000010: c911 c9bc 02ef ccbc 3987 c2bc e1d0 253d
00000020: af94 f13c 7a91 cf3c cb09 993c 3de7 223d
00000030: 9e95 25bd d674 6fbc d79e cf3c f1ba dabc
00000040: 443c babb 714a 6fbc 0b1d 09bd 1386 71bc
00000050: b620 14bc 6d7d 0b3d 6f0e abbc 2dd7 233d
00000060: 2e66 213c 8e36 1bbc 9683 d3bc 4dbc eebc
00000070: b3f4 b7bc 54a9 cfbc 8004 9c3c 543c 6d3b
00000080: 9909 b1bc 61e8 ecbb 82ce 1bbd 9c84 2cbd
00000090: 5f0a f73c 145e c23c 7e34 86bc 9d62 693c
000000a0: f48c 0d3d 2b33 91bc e978 e63c f7f3 543c
000000b0: 3b3a e7bc 26c3 20bc 2245 503c 70ce ccbc
000000c0: e39b c53c a183 96bc d636 9c3c c47f 083d
000000d0: cd40 b53c 9a5e 0bbd 4e57 06bd 6a96 203c
000000e0: fa65 973d a927 2c3d 36af 53bc ceed 29bd
000000f0: df95 e3bc 8a00 093d fe66 c83b 3b13 6dbc
0.035799775 -0.034340322 0.016729305 0.02151589 -0.024544613 -0.025016312 -0.02374612 0.040482406
0.029489843 0.025337923 0.018681427 0.039771307 -0.04042589 -0.014615258 0.025344295 -0.026700469
-0.0056834538 -0.014605151 -0.033474963 -0.014741438 -0.009041002 0.034055162 -0.020880906 0.04000013
0.009851022 -0.009473456 -0.025819581 -0.029142523 -0.022455549 -0.025349297 0.019045115 0.0036199288
-0.021611022 -0.00722985 -0.038038738 -0.042118654 0.030156313 0.0237265 -0.016382452 0.014244703
0.03455825 -0.017724594 0.028133826 0.012997619 -0.028226009 -0.009812152 0.012711795 -0.02500078
0.024122184 -0.018373312 0.019069117 0.03332497 0.022125626 -0.034025766 -0.032798104 0.0098014865
0.07392497 0.04203001 -0.0129201915 -0.041486554 -0.027781425 0.03344778 0.0061157933 -0.014469917
