ML/models/BTC/4h/gru_model.pth (torch, 169075 bytes, 9 tensors)

gru.weight_ih_l0 f4 [192, 19]
000000 b0 ec 04 3e 65 c5 8d bd 65 b4 a7 bd b4 c3 9a 3d
       0.12980914 -0.06922416 -0.081887044 0.07556859
000010 8d 11 ba 3d ef 59 ae 3d f5 72 8c bd 30 95 9d bd
       0.09085379 0.08513247 -0.06857864 -0.07694471
000020 86 9b bc bc 94 f2 0e 3e 2f b7 07 bd 88 57 66 3d
       -0.023023378 0.13959724 -0.033133682 0.05623582
000030 e8 a6 09 3e c5 c7 d9 3d 17 6d 28 3e 4f a7 00 3e
       0.13442576 0.10633806 0.16447864 0.12563823
000040 e9 be 01 bd 9c c8 b2 bd ee 1c a5 bd 5b 53 1e be
       -0.031676207 -0.087296695 -0.080621585 -0.15461485
000050 eb cf 28 be 81 92 62 3d 2c dd 15 be 0b a8 26 be
       -0.16485564 0.0553155 -0.14635152 -0.16275041
000060 74 ac be 3d 18 b1 9d bc d3 32 f0 3d 6c e7 00 3e
       0.093102366 -0.019249484 0.11728444 0.1258828
000070 79 13 27 be 6d 03 40 3d b9 cb c6 3d 3b 27 de 3d
       -0.16316022 0.046878267 0.09706826 0.10847326
000080 3b 8f 18 3e ac 66 59 3d 1a 22 7c bb 41 02 91 bc
       0.14898388 0.05307643 -0.0038472475 -0.01770127
000090 3e 0c eb 3d a5 3d 2d 3d 73 a4 82 bd 11 96 1c 3e
       0.114769444 0.042295117 -0.063790224 0.15291621
0000a0 ad d2 f2 bd 42 80 28 be 3c 50 d2 bd f7 0e f6 bd
       -0.118565895 -0.16455176 -0.1026921 -0.12014573
0000b0 28 12 27 3e 14 74 5a 3d ff bb 84 bd a2 3c 41 bd
       0.1631552 0.053333357 -0.0648117 -0.047176965
0000c0 43 0a a3 3d 04 b3 79 3d 0a 61 9f 3c 56 48 c3 bc
       0.07960942 0.06096174 0.019455452 -0.023838203
0000d0 9b 20 1e be ed 7f ff bd 91 e2 b0 bd 40 15 b9 3d
       -0.15442125 -0.12475572 -0.08636964 0.09037256
0000e0 51 06 f1 bd 4d 9d 65 bd 8d 9d f6 bd 69 45 b5 3b
       -0.11768783 -0.056058217 -0.12041769 0.005531956
0000f0 90 ca 22 be 38 ea ba 3d 0e 20 67 bd 63 1a 87 3d
       -0.15897584 0.09126705 -0.056427054 0.0659683
000100 ca 6c 0c 3e 41 d8 2a 3d 67 62 1d be 83 3e 8c 3c
       0.13713375 0.041710142 -0.15369569 0.017119652
000110 84 fe af bc 11 f5 3c 3d fc 89 1d be ac ab 19 3e
       -0.021483667 0.04613215 -0.15384668 0.15006894
000120 b4 57 b3 bd 15 a8 dc 3d de 6c 9f 3d 52 eb aa bd
       -0.087569624 0.107742466 0.07784437 -0.08345665
000130 f8 6a 20 be 54 d6 17 3e 7e 1b 98 bc 7c 97 af bd
       -0.15665805 0.14827853 -0.018567797 -0.08573815
000140 66 f6 f7 3d de a8 ce 3d b7 7c ba bd 74 3a 4c 3d
       0.12107544 0.100908026 -0.09105819 0.049860433
000150 a4 62 8b 3d b2 74 cb bd 48 52 9c 3d f4 e5 97 bd
       0.068059236 -0.09934367 0.076328814 -0.07416907
000160 f0 11 a3 bd 62 98 4e bc ea 5d a4 bd 3e d9 5e 3d
       -0.07962406 -0.012609573 -0.08025725 0.054406397
000170 06 cf ac 3d 5b 6c ad bb f9 70 ae bd 3b 7d 70 3d
       0.08437924 -0.005292458 -0.085176416 0.05871318
000180 c5 6d c1 bc 4b b9 0e be 33 97 b9 bc 3f 28 8f 3d
       -0.023611913 -0.13937871 -0.022655105 0.06990098
000190 fc da 2b 3e 21 5a 2b 3e 1a 07 ff bc 77 b0 a0 3d
       0.16782755 0.167336 -0.031131316 0.07846158
0001a0 39 9e df 3d 03 79 59 bd c2 52 15 3d 3a 0d 20 be
       0.109188505 -0.05309392 0.036455877 -0.15630046
0001b0 ba 64 22 be c6 47 00 be f6 21 71 bd fe 2a 9e bd
       -0.15858737 -0.1252738 -0.05887028 -0.07723044
0001c0 4d 3c 68 bc 60 7c 1c 3b d1 5a 20 be ab c5 f8 3d
       -0.014174533 0.0023877844 -0.15659644 0.12147077
0001d0 76 24 fa bc d6 c8 6c bd ab f7 cc 3d 34 2c ed bd
       -0.030534964 -0.05780872 0.100081764 -0.11580697
0001e0 41 af 12 be f3 f7 48 3d 61 90 c8 bd 1e 9f 0e 3d
       -0.14324667 0.049064588 -0.09793163 0.034819715
0001f0 d8 d6 90 bd a2 74 22 3e 8b be d4 3d 5d c8 1b bc
       -0.07072228 0.15864804 0.10387906 -0.00950822
000200 c1 26 b6 bd 2c e0 80 bc 15 b2 a3 bd 93 14 05 3e
       -0.088941105 -0.015731893 -0.07992951 0.1299613
000210 03 72 fd bc 29 cd 5d 3d 59 ce 86 3d d3 82 2e 3d
       -0.030938154 0.054150734 0.065823264 0.042605232
000220 a7 4a e7 3b 74 b0 95 3c 69 38 b9 3d 2e f0 2b 3c
       0.00705846 0.018272616 0.090439625 0.010494275
000230 f4 f1 8a bd 23 bc 03 be 70 dd 04 be 38 3f 70 3d
       -0.0678443 -0.12864737 -0.12975097 0.05865404
000240 f0 9b b4 bc 99 89 14 be 07 25 a7 bd ba 1b 61 3c
       -0.022047013 -0.14505614 -0.08161359 0.013739521
000250 4d bd 10 be 69 3c ae 3d 74 1d 0a be aa 34 c9 bd
       -0.14134713 0.08507616 -0.13487798 -0.09824498
000260 2c ac 04 3e 29 98 f9 3c 25 c9 f7 bc 5e c2 4a bd
       0.12956303 0.030468063 -0.03024728 -0.04950177
000270 2e a8 d5 bd a8 aa 4b bd 64 d5 14 3e c6 54 46 bd
       -0.10432468 -0.049723297 0.14534527 -0.04842069
000280 c3 32 00 be 6b 34 e0 3d cb aa e6 bc 08 f3 f9 3d
       -0.12519364 0.10947498 -0.028157612 0.12204558
000290 ee c6 9b 3a 8e d9 a4 3c 54 97 39 3d 7f 12 fe 3d
       0.0011884847 0.02012327 0.045310333 0.124058716
0002a0 13 6a e0 bc c0 68 52 bd 1d 7c 4b 3d f0 71 e1 bc
       -0.02739433 -0.05136943 0.04967891 -0.02752015
0002b0 b1 07 5b 3c 37 81 1d be f1 a4 4a bc 55 52 ee bd
       0.013368533 -0.15381323 -0.012368427 -0.11636797
0002c0 27 27 04 3e 42 6e f2 3d 84 72 33 3d 0c 25 67 bc
       0.1290556 0.11837436 0.043810382 -0.014107954
0002d0 d8 e8 1d be fe 17 b0 3d 36 60 cf 3d 04 e4 97 bc
       -0.15420854 0.08598326 0.10125773 -0.018541344
0002e0 5b d5 14 3e e8 9e 79 3d 1c ce 49 bb be a1 ce bd
       0.14534514 0.06094256 -0.0030793017 -0.100894436
0002f0 e7 e8 f2 bd 33 a9 a6 3c 88 59 41 3d 72 92 f6 3d
       -0.11860829 0.020344352 0.047204524 0.12039651
000300 cb 77 38 3d d0 36 3f 3d 11 6b f5 3d b3 0c f7 bd
       0.04503612 0.046683133 0.11983312 -0.12062969
000310 c5 2f 8d bd 3a 45 29 3e 1b 3a dd bd ed 48 16 3e
       -0.06893877 0.16530314 -0.10802098 0.14676256
000320 c8 43 14 3e ae 98 c5 3d 18 51 22 3e f6 1b da bd
       0.14478981 0.09648262 0.15851247 -0.106498644
000330 18 22 0d 3e 10 e2 b2 bd 40 65 0b 3e 05 eb b0 bc
       0.13782537 -0.08734524 0.13612843 -0.021596441
000340 b8 e9 9b 3d 07 77 d7 bd 2e 32 83 3d 41 85 0c 3d
       0.07612938 -0.105207495 0.064060554 0.03430677
000350 da 4f bd 3d 15 33 f6 ba d2 15 b0 bd b7 41 d3 bd
       0.09243746 -0.0018783534 -0.08597912 -0.103152685
000360 76 e9 29 be 66 85 e5 bd 69 97 25 3d 66 10 e3 bd
       -0.16592965 -0.11207084 0.0404276 -0.11087112
000370 a7 f9 59 3d b5 f8 00 3c 9e f2 ed bd 92 60 52 3d
       0.053216603 0.007871796 -0.11618541 0.051361628
000380 29 b7 29 be c3 b4 f6 bb 7c 9a db ba 1b d2 1a 3e
       -0.16573776 -0.0075288727 -0.0016754414 0.15119211
000390 c2 94 04 be ad 9b eb bd c8 60 99 bc 8d 80 a8 bd
       -0.12947372 -0.11504302 -0.018722907 -0.08227644
0003a0 db ab 02 3d 9e 68 02 bd 75 47 ef 3b 88 f5 cd 3c
       0.031902175 -0.031838052 0.0073022195 0.025141492
0003b0 99 4c 16 be f3 97 de bd b3 84 db bd 95 1b 08 bd
       -0.14677657 -0.10868826 -0.1071867 -0.03322943
0003c0 de 0a 07 3e 61 0e 4d bc ae e1 db bd 76 d9 a8 3d
       0.13187739 -0.012515635 -0.10736404 0.082446024
0003d0 ef cf 2f 3d 1d 84 28 3e af cd ec 3d 87 db d4 bd
       0.04292291 0.16456647 0.115626685 -0.10393434
0003e0 6d 87 fd 3c 8c ef 28 3e c4 21 22 bd 97 0f c1 bc
       0.030948365 0.1649763 -0.039582983 -0.023567004
0003f0 d4 08 fd 3c 3f a5 28 3e 4e 5f 88 bd 00 0e 83 3c
       0.030887999 0.16469286 -0.06658803 0.015997887

gru.weight_hh_l0 f4 [192, 64]
000000 20 47 2b bd 36 e9 d8 bc 7c db 48 3d 74 21 e7 3c
       -0.041815877 -0.026478391 0.04903744 0.028214194
000010 80 80 27 bb ad 18 43 bd be 26 8e 3d f4 14 56 bd
       -0.002555877 -0.047630955 0.06940983 -0.052266076
000020 5a 73 a8 bc a6 d0 92 bd c7 e3 aa 3c 72 0a 86 bd
       -0.020562816 -0.07168703 0.020860566 -0.06544961
000030 df 8f 89 bc 70 0e 1f bd 88 f1 23 3d 2b 59 f1 3d
       -0.016792236 -0.038832128 0.040025264 0.117845856
000040 90 8c 86 3d bf 65 a9 bd 50 e7 62 3e 1a 26 de bd
       0.06569779 -0.0827136 0.22158551 -0.10847111
000050 92 f1 bc 3c 45 ed b7 bd c0 7c 97 bd 41 e0 a6 3d
       0.023064408 -0.089808024 -0.07396841 0.08148242
000060 f3 24 da 3d 21 d8 0f 3d aa 53 11 be 00 ce 7c bc
       0.10651579 0.035118226 -0.14192072 -0.015429974
000070 93 74 ca 3b 78 0d 45 3c e5 ba 4c 3d a0 21 fc ba
       0.0061784475 0.012027137 0.049982924 -0.0019236095
000080 89 d7 19 3d 98 2a 25 3d 29 6d 04 bd 40 6e ab 3d
       0.037559066 0.040323824 -0.032330666 0.08370638
000090 a0 d8 c1 bd 35 b5 5a 3d b4 6d 5b 3c 4e 13 16 be
       -0.09465146 0.05339547 0.0133928545 -0.14655802
0000a0 af 82 17 3c 28 dd c1 3c 49 5f be 3d 9c bf 94 3d
       0.009247466 0.023665026 0.09295518 0.07263109
0000b0 86 5b d1 3d 06 17 47 3d 54 66 fa bd fe 18 c9 bc
       0.10222535 0.04860594 -0.12226549 -0.02454805
0000c0 94 15 8e bb 59 1a f5 3c 5c 67 b7 3d de da 22 3c
       -0.0043360684 0.02991979 0.08955261 0.009939877
0000d0 6e 6e 6e 3c bf 9a bd bb 16 db 9e bd b0 1b 09 3e
       0.014552696 -0.0057862694 -0.07756631 0.13389468
0000e0 86 01 fe bd a0 48 29 bb b6 59 39 3c 40 32 ab b9
       -0.12402634 -0.0025830641 0.011312893 -0.000326531
0000f0 3e 20 23 bd ad 4a 88 3d 8e 3e f8 bd d5 2f a9 bd
       -0.03982567 0.06654868 -0.12121306 -0.08261076
000100 05 45 48 bc 40 ea cd bc 85 f8 79 3d 96 c9 8e 3c
       -0.012223487 -0.025136113 0.061028022 0.017430108
000110 50 8c 45 bd b6 3c 7c 3c d9 e1 80 bc d4 2e c4 bd
       -0.048229516 0.015395334 -0.015732693 -0.09579244
000120 64 84 09 3c c7 90 a9 bc b8 f9 4b 3e b1 ce d9 bc
       0.008393381 -0.020698918 0.19919479 -0.026587816
000130 eb f0 69 bc 5d 14 c0 bd 4e 95 09 3d 85 77 d0 3b
       -0.014278631 -0.09378884 0.033589654 0.006361904
000140 0d 69 2b 3e 42 6b 72 bd 0a 2a 1d be 92 db 0f be
       0.16739292 -0.05918432 -0.15348068 -0.14048603
000150 48 9c 5f bd cd 55 ba 3d 0d de ac 3c 0e 8a 06 bd
       -0.0545924 0.090983965 0.021101976 -0.032846503
000160 38 3d 0c 3e 8c 09 b2 bc 86 24 1f bd d1 88 b5 3d
       0.13695228 -0.021733068 -0.03885319 0.08863986
000170 13 47 48 bd ee 09 57 3d b8 a8 9d bc e5 87 bb bc
       -0.048895907 0.052499704 -0.01924549 -0.022891948
000180 bc 81 a4 bb f9 37 11 3d 92 4a 8b bb 5c 61 41 3d
       -0.0050203484 0.03545377 -0.004250833 0.04721199
000190 3b cd 9e bd 1f db 98 3c 48 88 7d bd 79 d2 6f bc
       -0.07753988 0.018659173 -0.061897546 -0.014637583
0001a0 b3 a7 a2 bd 38 39 f3 bd 6e 54 41 bd a4 bc 86 3c
       -0.07942142 -0.11876148 -0.04719966 0.016447373
0001b0 1a f2 51 3d 02 1e f4 bb 2a be c3 bc fb 10 6b bb
       0.051256277 -0.0074498663 -0.023894388 -0.0035868275
0001c0 09 d6 23 be 37 4c 91 3d a3 af 95 3d ef e3 83 3d
       -0.15999617 0.07094615 0.07308891 0.06439959
0001d0 85 13 eb bd 93 df 1b 3e fe 8f 9b bd c7 a9 e0 3c
       -0.114783324 0.15222006 -0.07595824 0.027424706
0001e0 cf 40 de bd a1 5b 80 3c 77 8f 6f 3d c6 78 7d bd
       -0.10852205 0.015668692 0.058486428 -0.061882757
0001f0 26 e9 9c bc 40 f9 c0 3c 09 2c 8f 3d f3 63 33 be
       -0.019154143 0.023556352 0.06990821 -0.17518596
000200 40 07 82 bd d6 2b 0c bc d0 72 17 be a9 f4 39 bd
       -0.06349039 -0.008555373 -0.14789891 -0.04539934
000210 d1 72 a6 3d 64 90 8e 3d 3f ea c8 3b 25 5f ba 3c
       0.08127368 0.06961134 0.00613144 0.022750447
000220 5c 5b 66 bd 56 43 29 be 82 f2 a2 3d 35 1e b1 3d
       -0.05623947 -0.16529593 0.07956411 0.0864834
000230 3e bc 09 bd 1d c5 2b 3d a2 8e 09 3c 36 cb ae 3d
       -0.033626787 0.04193603 0.008395823 0.08534853
000240 32 fb 83 bd 56 2f c3 3d 91 be 10 bd 47 bc 83 3d
       -0.06444396 0.09530513 -0.03533799 0.064323954
000250 b0 ea 4e 3d 82 a8 b4 3d 83 58 a1 3d 08 ad 4d bd
       0.050516784 0.08821203 0.078782104 -0.050213844
000260 28 71 ab bc 5e 7d 86 bc 11 21 92 bd 0e 3a e3 3d
       -0.02092798 -0.016417202 -0.07135213 0.110950574
000270 62 9b b5 3d 02 f7 f4 3c 3a 79 17 bd c5 c8 ad bd
       0.088675275 0.029902939 -0.036980845 -0.084855594
000280 0a 30 c1 bd 28 50 24 3d 16 0c 03 bc b7 fe 83 bd
       -0.09432991 0.040115505 -0.007998487 -0.064450674
000290 6e b1 3d 3d 22 14 82 3c 06 e0 0d 3e b3 a4 86 bd
       0.04631179 0.01587874 0.1385499 -0.06574383
0002a0 c1 2b 17 3c 93 03 3e 3d fa 2b fa 3d 1d 90 01 be
       0.00922674 0.046390127 0.12215419 -0.12652631
0002b0 a6 42 e6 bc b4 20 19 3c 5e 96 db 3d 91 e3 96 bd
       -0.028107952 0.009346176 0.1072204 -0.073676236
0002c0 50 b3 6e 3d 48 ca 58 bc d4 a3 91 ba ed b1 81 3d
       0.058276474 -0.013231821 -0.0011111447 0.06332765
0002d0 02 59 da 3c dd 46 fe 3d a3 48 91 bd f9 0a 25 be
       0.02665377 0.1241586 -0.070939325 -0.16117467
0002e0 e8 76 40 be c5 de e4 3c e6 b9 c7 bd 19 7a f6 3c
       -0.18795359 0.027938256 -0.09752254 0.030087518
0002f0 02 91 8f bc b2 61 05 3e c0 b7 80 bd f2 ad 5a bd
       -0.0175252 0.13025549 -0.062850475 -0.053388543
000300 b0 df ae 3d 28 18 8e 3c 59 ee ee bd 00 2b dd 3b
       0.08538759 0.017345503 -0.11666555 0.0067495108
000310 90 7a 5e 3c d2 cb 57 bd 64 63 cb bd 6a eb 2d bc
       0.013579026 -0.052684613 -0.09931067 -0.010615209
000320 7d fc 6e 3d 3a e8 1e 3d 5b 71 59 3d 30 02 f7 bd
       0.05834626 0.038795687 0.05308662 -0.12060964
000330 b5 c7 48 bd 12 f7 8b bd fd 41 70 3c e5 31 9a 3d
       -0.04901858 -0.06834234 0.01466417 0.07529048
000340 df 5f ec 3b 60 33 99 bd 28 e7 95 bb 94 28 1b bb
       0.007213577 -0.07480502 -0.004574675 -0.002367531
000350 6c 36 eb 3d be 59 fc 3d 19 0c ad bd 24 f8 c0 3c
       0.114849895 0.123218045 -0.08449573 0.023555823
000360 43 c2 9b bd 86 99 29 bc 21 e5 cd 3d 4d d5 48 bd
       -0.07605412 -0.010351544 0.100534685 -0.049031544
000370 c0 b8 ee bc 77 a3 e3 bc bf 7b 85 bc 89 19 e7 bc
       -0.02914083 -0.027787907 -0.016294358 -0.028210418
000380 8b 1f d0 3d f2 09 b4 3d fa e0 c3 3c 06 17 d6 3c
       0.10162266 0.087909594 0.023910988 0.026134025
000390 ce bd 59 3d 9c 46 79 bc 7c 16 b2 bc ac 12 21 be
       0.053159527 -0.0152145885 -0.021739237 -0.15729779
0003a0 d5 80 fa 3d c4 76 55 3c bc d1 b7 3c 56 2e b6 3c
       0.12231604 0.013028804 0.022438876 0.022238892
0003b0 ea c4 19 3d b5 d0 b8 bc 82 29 bf bd f1 2d fb 3d
       0.037541308 -0.022560457 -0.09334089 0.12264622
0003c0 d0 14 17 bb 7f d8 02 bd 0e e8 05 be 29 87 1e 3e
       -0.0023053177 -0.031944748 -0.13076803 0.15481247
0003d0 ca 51 15 3d 48 79 54 3d a4 26 a7 bb e6 f4 c6 bd
       0.036454953 0.051873475 -0.005101042 -0.097146794
0003e0 7b 3f 0b 3e 0c 47 2a bc e5 71 8a 3d 58 cb 6d bb
       0.13598435 -0.010392915 0.06760005 -0.0036284532
0003f0 60 f0 aa 38 d0 3a 34 3d 9e 64 d3 bc 51 b6 8a bc
       8.151005e-05 0.0440014 -0.025804814 -0.016932638

gru.bias_ih_l0 f4 [192]
000000 00 00 00 00 00 00 00 00 00 00 00 00 00 00 00 00
       0.0 0.0 0.0 0.0
000010 00 00 00 00 00 00 00 00 00 00 00 00 00 00 00 00
       0.0 0.0 0.0 0.0
000020 00 00 00 00 00 00 00 00 00 00 00 00 00 00 00 00
       0.0 0.0 0.0 0.0
000030 00 00 00 00 00 00 00 00 00 00 00 00 00 00 00 00
       0.0 0.0 0.0 0.0
000040 00 00 00 00 00 00 00 00 00 00 00 00 00 00 00 00
       0.0 0.0 0.0 0.0
000050 00 00 00 00 00 00 00 00 00 00 00 00 00 00 00 00
       0.0 0.0 0.0 0.0
000060 00 00 00 00 00 00 00 00 00 00 00 00 00 00 00 00
       0.0 0.0 0.0 0.0
000070 00 00 00 00 00 00 00 00 00 00 00 00 00 00 00 00
       0.0 0.0 0.0 0.0
000080 00 00 00 00 00 00 00 00 00 00 00 00 00 00 00 00
       0.0 0.0 0.0 0.0
000090 00 00 00 00 00 00 00 00 00 00 00 00 00 00 00 00
       0.0 0.0 0.0 0.0
0000a0 00 00 00 00 00 00 00 00 00 00 00 00 00 00 00 00
       0.0 0.0 0.0 0.0
0000b0 00 00 00 00 00 00 00 00 00 00 00 00 00 00 00 00
       0.0 0.0 0.0 0.0
0000c0 00 00 00 00 00 00 00 00 00 00 00 00 00 00 00 00
       0.0 0.0 0.0 0.0
0000d0 00 00 00 00 00 00 00 00 00 00 00 00 00 00 00 00
       0.0 0.0 0.0 0.0
0000e0 00 00 00 00 00 00 00 00 00 00 00 00 00 00 00 00
       0.0 0.0 0.0 0.0
0000f0 00 00 00 00 00 00 00 00 00 00 00 00 00 00 00 00
       0.0 0.0 0.0 0.0
000100 00 00 00 00 00 00 00 00 00 00 00 00 00 00 00 00
       0.0 0.0 0.0 0.0
000110 00 00 00 00 00 00 00 00 00 00 00 00 00 00 00 00
       0.0 0.0 0.0 0.0
000120 00 00 00 00 00 00 00 00 00 00 00 00 00 00 00 00
       0.0 0.0 0.0 0.0
000130 00 00 00 00 00 00 00 00 00 00 00 00 00 00 00 00
       0.0 0.0 0.0 0.0
000140 00 00 00 00 00 00 00 00 00 00 00 00 00 00 00 00
       0.0 0.0 0.0 0.0
000150 00 00 00 00 00 00 00 00 00 00 00 00 00 00 00 00
       0.0 0.0 0.0 0.0
000160 00 00 00 00 00 00 00 00 00 00 00 00 00 00 00 00
       0.0 0.0 0.0 0.0
000170 00 00 00 00 00 00 00 00 00 00 00 00 00 00 00 00
       0.0 0.0 0.0 0.0
000180 00 00 00 00 00 00 00 00 00 00 00 00 00 00 00 00
       0.0 0.0 0.0 0.0
000190 00 00 00 00 00 00 00 00 00 00 00 00 00 00 00 00
       0.0 0.0 0.0 0.0
0001a0 00 00 00 00 00 00 00 00 00 00 00 00 00 00 00 00
       0.0 0.0 0.0 0.0
0001b0 00 00 00 00 00 00 00 00 00 00 00 00 00 00 00 00
       0.0 0.0 0.0 0.0
0001c0 00 00 00 00 00 00 00 00 00 00 00 00 00 00 00 00
       0.0 0.0 0.0 0.0
0001d0 00 00 00 00 00 00 00 00 00 00 00 00 00 00 00 00
       0.0 0.0 0.0 0.0
0001e0 00 00 00 00 00 00 00 00 00 00 00 00 00 00 00 00
       0.0 0.0 0.0 0.0
0001f0 00 00 00 00 00 00 00 00 00 00 00 00 00 00 00 00
       0.0 0.0 0.0 0.0
000200 00 00 00 00 00 00 00 00 00 00 00 00 00 00 00 00
       0.0 0.0 0.0 0.0
000210 00 00 00 00 00 00 00 00 00 00 00 00 00 00 00 00
       0.0 0.0 0.0 0.0
000220 00 00 00 00 00 00 00 00 00 00 00 00 00 00 00 00
       0.0 0.0 0.0 0.0
000230 00 00 00 00 00 00 00 00 00 00 00 00 00 00 00 00
       0.0 0.0 0.0 0.0
000240 00 00 00 00 00 00 00 00 00 00 00 00 00 00 00 00
       0.0 0.0 0.0 0.0
000250 00 00 00 00 00 00 00 00 00 00 00 00 00 00 00 00
       0.0 0.0 0.0 0.0
000260 00 00 00 00 00 00 00 00 00 00 00 00 00 00 00 00
       0.0 0.0 0.0 0.0
000270 00 00 00 00 00 00 00 00 00 00 00 00 00 00 00 00
       0.0 0.0 0.0 0.0
000280 00 00 00 00 00 00 00 00 00 00 00 00 00 00 00 00
       0.0 0.0 0.0 0.0
000290 00 00 00 00 00 00 00 00 00 00 00 00 00 00 00 00
       0.0 0.0 0.0 0.0
0002a0 00 00 00 00 00 00 00 00 00 00 00 00 00 00 00 00
       0.0 0.0 0.0 0.0
0002b0 00 00 00 00 00 00 00 00 00 00 00 00 00 00 00 00
       0.0 0.0 0.0 0.0
0002c0 00 00 00 00 00 00 00 00 00 00 00 00 00 00 00 00
       0.0 0.0 0.0 0.0
0002d0 00 00 00 00 00 00 00 00 00 00 00 00 00 00 00 00
       0.0 0.0 0.0 0.0
0002e0 00 00 00 00 00 00 00 00 00 00 00 00 00 00 00 00
       0.0 0.0 0.0 0.0
0002f0 00 00 00 00 00 00 00 00 00 00 00 00 00 00 00 00
       0.0 0.0 0.0 0.0

gru.bias_hh_l0 f4 [192]
000000 00 00 00 00 00 00 00 00 00 00 00 00 00 00 00 00
       0.0 0.0 0.0 0.0
000010 00 00 00 00 00 00 00 00 00 00 00 00 00 00 00 00
       0.0 0.0 0.0 0.0
000020 00 00 00 00 00 00 00 00 00 00 00 00 00 00 00 00
       0.0 0.0 0.0 0.0
000030 00 00 00 00 00 00 00 00 00 00 00 00 00 00 00 00
       0.0 0.0 0.0 0.0
000040 00 00 00 00 00 00 00 00 00 00 00 00 00 00 00 00
       0.0 0.0 0.0 0.0
000050 00 00 00 00 00 00 00 00 00 00 00 00 00 00 00 00
       0.0 0.0 0.0 0.0
000060 00 00 00 00 00 00 00 00 00 00 00 00 00 00 00 00
       0.0 0.0 0.0 0.0
000070 00 00 00 00 00 00 00 00 00 00 00 00 00 00 00 00
       0.0 0.0 0.0 0.0
000080 00 00 00 00 00 00 00 00 00 00 00 00 00 00 00 00
       0.0 0.0 0.0 0.0
000090 00 00 00 00 00 00 00 00 00 00 00 00 00 00 00 00
       0.0 0.0 0.0 0.0
0000a0 00 00 00 00 00 00 00 00 00 00 00 00 00 00 00 00
       0.0 0.0 0.0 0.0
0000b0 00 00 00 00 00 00 00 00 00 00 00 00 00 00 00 00
       0.0 0.0 0.0 0.0
0000c0 00 00 00 00 00 00 00 00 00 00 00 00 00 00 00 00
       0.0 0.0 0.0 0.0
0000d0 00 00 00 00 00 00 00 00 00 00 00 00 00 00 00 00
       0.0 0.0 0.0 0.0
0000e0 00 00 00 00 00 00 00 00 00 00 00 00 00 00 00 00
       0.0 0.0 0.0 0.0
0000f0 00 00 00 00 00 00 00 00 00 00 00 00 00 00 00 00
       0.0 0.0 0.0 0.0
000100 00 00 00 00 00 00 00 00 00 00 00 00 00 00 00 00
       0.0 0.0 0.0 0.0
000110 00 00 00 00 00 00 00 00 00 00 00 00 00 00 00 00
       0.0 0.0 0.0 0.0
000120 00 00 00 00 00 00 00 00 00 00 00 00 00 00 00 00
       0.0 0.0 0.0 0.0
000130 00 00 00 00 00 00 00 00 00 00 00 00 00 00 00 00
       0.0 0.0 0.0 0.0
000140 00 00 00 00 00 00 00 00 00 00 00 00 00 00 00 00
       0.0 0.0 0.0 0.0
000150 00 00 00 00 00 00 00 00 00 00 00 00 00 00 00 00
       0.0 0.0 0.0 0.0
000160 00 00 00 00 00 00 00 00 00 00 00 00 00 00 00 00
       0.0 0.0 0.0 0.0
000170 00 00 00 00 00 00 00 00 00 00 00 00 00 00 00 00
       0.0 0.0 0.0 0.0
000180 00 00 00 00 00 00 00 00 00 00 00 00 00 00 00 00
       0.0 0.0 0.0 0.0
000190 00 00 00 00 00 00 00 00 00 00 00 00 00 00 00 00
       0.0 0.0 0.0 0.0
0001a0 00 00 00 00 00 00 00 00 00 00 00 00 00 00 00 00
       0.0 0.0 0.0 0.0
0001b0 00 00 00 00 00 00 00 00 00 00 00 00 00 00 00 00
       0.0 0.0 0.0 0.0
0001c0 00 00 00 00 00 00 00 00 00 00 00 00 00 00 00 00
       0.0 0.0 0.0 0.0
0001d0 00 00 00 00 00 00 00 00 00 00 00 00 00 00 00 00
       0.0 0.0 0.0 0.0
0001e0 00 00 00 00 00 00 00 00 00 00 00 00 00 00 00 00
       0.0 0.0 0.0 0.0
0001f0 00 00 00 00 00 00 00 00 00 00 00 00 00 00 00 00
       0.0 0.0 0.0 0.0
000200 00 00 00 00 00 00 00 00 00 00 00 00 00 00 00 00
       0.0 0.0 0.0 0.0
000210 00 00 00 00 00 00 00 00 00 00 00 00 00 00 00 00
       0.0 0.0 0.0 0.0
000220 00 00 00 00 00 00 00 00 00 00 00 00 00 00 00 00
       0.0 0.0 0.0 0.0
000230 00 00 00 00 00 00 00 00 00 00 00 00 00 00 00 00
       0.0 0.0 0.0 0.0
000240 00 00 00 00 00 00 00 00 00 00 00 00 00 00 00 00
       0.0 0.0 0.0 0.0
000250 00 00 00 00 00 00 00 00 00 00 00 00 00 00 00 00
       0.0 0.0 0.0 0.0
000260 00 00 00 00 00 00 00 00 00 00 00 00 00 00 00 00
       0.0 0.0 0.0 0.0
000270 00 00 00 00 00 00 00 00 00 00 00 00 00 00 00 00
       0.0 0.0 0.0 0.0
000280 00 00 00 00 00 00 00 00 00 00 00 00 00 00 00 00
       0.0 0.0 0.0 0.0
000290 00 00 00 00 00 00 00 00 00 00 00 00 00 00 00 00
       0.0 0.0 0.0 0.0
0002a0 00 00 00 00 00 00 00 00 00 00 00 00 00 00 00 00
       0.0 0.0 0.0 0.0
0002b0 00 00 00 00 00 00 00 00 00 00 00 00 00 00 00 00
       0.0 0.0 0.0 0.0
0002c0 00 00 00 00 00 00 00 00 00 00 00 00 00 00 00 00
       0.0 0.0 0.0 0.0
0002d0 00 00 00 00 00 00 00 00 00 00 00 00 00 00 00 00
       0.0 0.0 0.0 0.0
0002e0 00 00 00 00 00 00 00 00 00 00 00 00 00 00 00 00
       0.0 0.0 0.0 0.0
0002f0 00 00 00 00 00 00 00 00 00 00 00 00 00 00 00 00
       0.0 0.0 0.0 0.0

gru.weight_ih_l1 f4 [192, 64]
000000 9e 6b 10 be 9d 6e e4 bd 6e 1c 14 be 5d c7 eb 3d
       -0.14103553 -0.1115391 -0.1446397 0.11512635
000010 38 8d d0 3d 74 9a e2 bc a1 d9 d2 3d 6b e2 c8 3d
       0.10183185 -0.02766154 0.10295416 0.09808811
000020 88 fd e8 bc 43 8d cb bc ea b2 27 3e 75 ab fe 3c
       -0.028441206 -0.024847632 0.16376844 0.031087616
000030 26 fa 4b 3d 5d 97 fc 3d 23 e6 f7 3d 26 42 c9 bd
       0.049799107 0.12333558 0.12104442 -0.0982707
000040 5b 34 ee bc 84 2e 18 3e c3 b1 db bd b6 d0 c9 bd
       -0.0290777 0.14861494 -0.10727265 -0.098542616
000050 77 c7 20 bd 4c 01 ea 3d b6 5e e7 3d 2b a9 22 3c
       -0.039252724 0.114260286 0.112973616 0.009928028
000060 d9 46 ae 3c 42 63 e5 bd 53 f2 02 3e 0c 80 dc bd
       0.021274017 -0.112005726 0.12787752 -0.107666105
000070 22 64 88 3d 28 41 00 3e 31 b4 5b 3c b8 ff 17 be
       0.06659724 0.12524855 0.01340966 -0.14843643
000080 ac cb 65 3c 61 39 ee 3d 09 4b 8c 3d bb 7a d5 bc
       0.01402561 0.11632038 0.06850249 -0.026059499
000090 f1 60 2e bd 11 9c 36 bd 2e ee b8 bd 42 72 32 bd
       -0.04257292 -0.04458243 -0.09029804 -0.043565996
0000a0 0f 55 36 bc 3a d8 03 be c3 d8 10 3e dc 5d 95 bd
       -0.011128678 -0.12875453 0.14145188 -0.07293293
0000b0 16 ea a5 3d b2 44 5f bd 4b 89 3d bd 7f 19 f4 3d
       0.08101289 -0.054508872 -0.04627351 0.119189255
0000c0 25 6b d9 bd 68 f0 26 3c df a2 0f be 82 0a 2d 3d
       -0.10616139 0.010189153 -0.14026974 0.04224635
0000d0 aa be 0b bd 21 7b b4 bd 8f f7 a2 3b 18 95 10 3c
       -0.03411738 -0.088125475 0.004973359 0.008824609
0000e0 93 c1 ee bd b1 49 02 bd 20 a3 1b be 57 61 c0 bd
       -0.11658015 -0.03180856 -0.15198946 -0.09393566
0000f0 91 d7 07 be 05 f4 f9 3d c0 49 06 be 5c 3f 92 3d
       -0.13265826 0.12204746 -0.13114071 0.07140991
000100 08 c3 09 3d 8e 3f 83 3d b3 3a c1 3d a8 76 f4 bd
       0.033633262 0.064086065 0.09435024 -0.119366944
000110 b9 59 ed bc 93 5a 38 be 90 94 a2 3d eb 30 22 bd
       -0.028973447 -0.18003301 0.07938492 -0.039597433
000120 53 01 27 bd 8b 45 db bc 22 6a 67 bd e7 c5 9f 3c
       -0.040772747 -0.02676656 -0.0564977 0.019503547
000130 92 cb 19 3b 3f a5 db bd f3 a7 ea bd 96 c2 0f be
       0.0023467285 -0.107248776 -0.11457815 -0.14039072
000140 fd 88 0b be 3c 35 bb bd 79 df b9 3d a9 bc 18 be
       -0.13626476 -0.09141013 0.09075827 -0.14915718
000150 99 fe 05 be c1 e8 1b 3e a3 ff 10 3e 1a 08 41 be
       -0.13085403 0.15225507 0.14160018 -0.18850747
000160 8e 0a 2d 3d 25 d0 9f bc 3e e6 f1 3c 5b fa c9 3c
       0.042246394 -0.01950843 0.029528733 0.024655512
000170 4e d9 2a be 8a 26 59 be 4c bf 58 bc 7b 23 80 bd
       -0.16684458 -0.21206108 -0.0132292025 -0.06256767
000180 b9 fa 29 be 60 88 0d be f5 37 d6 bd f1 56 6e bd
       -0.1659955 -0.13821554 -0.10459892 -0.058188383
000190 3c 0a 0c be 80 2e 3b 3e 1d 5b 79 bd 3d 1f 0d be
       -0.13675779 0.18279457 -0.060877908 -0.13781448
0001a0 fa c8 1b 3e 97 ae d0 3d 48 08 07 3d ed f1 3f be
       0.15213385 0.1018955 0.032966882 -0.18744631
0001b0 05 01 54 bd 82 05 4f 3d 03 c2 b3 bd 4c 5d df 3d
       -0.051758785 0.050542362 -0.08777239 0.10906467
0001c0 e3 b7 de bd 7a 6e 1d bc a6 3c 22 bd dc b0 72 b9
       -0.10874917 -0.009608859 -0.03960862 -0.00023144804
0001d0 ef e7 a9 bc ab 5d 9b bd 73 11 ec bd 9d 59 88 bd
       -0.020740477 -0.07586225 -0.11526766 -0.066577174
0001e0 f6 6f e4 3c f4 b9 6f bd 9e 0f 48 bd b5 68 1d be
       0.027885418 -0.058526948 -0.04884302 -0.15371974
0001f0 b1 f3 e6 bd 25 19 4e 3e 11 a5 f8 3d ec 9d 09 be
       -0.11276949 0.2012678 0.12140859 -0.13439149
000200 d5 fb bc 3c 76 04 16 be 77 64 bb bd d7 96 1a 3d
       0.023069302 -0.14650139 -0.091500215 0.03774151
000210 7c 2c 26 3d c0 85 11 be 28 b9 5e bd a2 70 99 3c
       0.040569767 -0.14211178 -0.054375798 0.018730465
000220 5f 3e d3 3d 13 e2 62 3d 74 35 f4 3d 55 b1 f7 bc
       0.10314631 0.055391382 0.11924258 -0.030235926
000230 c3 d2 79 bd 9d e0 03 3e e9 4e 8e bd ea ac 08 bd
       -0.060992014 0.12878652 -0.06948645 -0.03336803
000240 91 46 0b be be df 68 3d db 63 e0 3d 90 42 51 bd
       -0.13601138 0.056854002 0.10956546 -0.05108887
000250 77 39 f2 bd 97 37 8a 3d 18 07 36 3a 54 17 01 bd
       -0.11827367 0.06748884 0.0006943806 -0.031516388
000260 c7 fc 4d 3d 29 70 d8 bd 94 26 70 3d f1 50 19 3c
       0.050289895 -0.10568268 0.05863054 0.009357677
000270 20 fe b1 bd fd 83 ea bd 7e a0 49 3d ac 41 cd bd
       -0.086910486 -0.11450956 0.049225323 -0.100222915
000280 2d 3e 80 3d 51 a3 16 3e f5 2f dc 3d 33 35 aa 3b
       0.06261859 0.14710738 0.107513346 0.00519433
000290 b7 3b d8 bd b5 ef 44 be 1a cc 3c bd e7 e6 c4 3d
       -0.10558265 -0.19232066 -0.046093084 0.096143536
0002a0 e7 7b 06 3e a3 67 66 3d c1 52 cc bc e5 d8 1b bc
       0.13133202 0.05625118 -0.024941804 -0.009512161
0002b0 f2 1d d1 bd e8 ee bf bd cb 9c 02 be 4c 38 01 3e
       -0.1021079 -0.093717396 -0.12755124 0.12619132
0002c0 e5 fc 18 3e 3b e9 48 3d 0e 90 cd bd 0f b2 60 bd
       0.14940222 0.04905055 -0.10037242 -0.05485731
0002d0 cc b1 60 3d b6 77 fd 3d 40 ea ec 3c 87 ff cf bd
       0.05485706 0.12376349 0.028920293 -0.1015616
0002e0 64 bf ce 3d 8b 69 f1 bd 04 e4 de bd 93 98 94 bd
       0.100950986 -0.11787709 -0.10883334 -0.07255664
0002f0 30 60 1a 3e eb 17 f6 bc 88 61 21 bd 9c ba 54 3d
       0.15075755 -0.030040702 -0.039399654 0.051935777
000300 4a b6 fe bd b4 03 0f 3d b2 14 d5 3d 2d 2f 9c 3b
       -0.12437113 0.03491564 0.10404338 0.004766366
000310 5b 16 2f 3e 65 d0 bf bd 19 04 5d bd bb f0 b0 3b
       0.17098372 -0.0936592 -0.053958986 0.005399791
000320 15 7e df bb 57 6b 9c bc 73 8c b2 3a 82 c7 0d 3e
       -0.00682045 -0.019094152 0.0013622179 0.13845637
000330 b7 90 03 3d ef fa 09 be 95 32 84 bd 88 bf f8 bd
       0.032120433 -0.1347463 -0.0645496 -0.12145907
000340 91 12 98 3d 19 3a d7 bc 45 75 6e bd 6e 53 6b bd
       0.07425416 -0.02627282 -0.058217306 -0.05745261
000350 bd 3c 7f 3d 40 90 ea 3d 5a 05 12 3e 70 3e cb 3d
       0.062313784 0.11453295 0.14259854 0.099240184
000360 e0 36 35 3c 4b 23 b3 bd 13 28 ca 3d f0 84 3c be
       0.0110604465 -0.08746966 0.09870925 -0.18410087
000370 5e 22 15 be 3b f6 22 be 23 77 95 3c 88 25 9e bd
       -0.14563891 -0.15914242 0.018245285 -0.07722002
000380 89 2e 61 3d cc 00 47 3b 09 1d 34 be 03 a9 07 3e
       0.05497602 0.0030365465 -0.17589201 0.13248067
000390 ff 66 24 be 2b 04 da 3d 88 3b 49 be ce 5d 06 bc
       -0.16054915 0.10645326 -0.19651616 -0.008201076
0003a0 12 62 c8 3d f4 7c c7 3c 17 f2 86 3d 19 d0 9b bd
       0.097843304 0.024351574 0.06589144 -0.07608051
0003b0 0a 3c a2 3d b8 a8 21 be 0d 8f 1b be 13 f2 bf 3d
       0.07921608 -0.15787017 -0.15191288 0.09372344
0003c0 11 5d b7 bc 0a ac 62 bd 0a c6 19 bd be 1b 13 be
       -0.022383245 -0.05533985 -0.03754238 -0.14366052
0003d0 23 46 49 be 87 28 3a be 2c 9f 9c 3d fc 10 75 3d
       -0.19655661 -0.18179522 0.07647547 0.05983065
0003e0 64 c7 69 bc 30 b2 29 3d 25 60 f6 3d 1a 7c 4e 3d
       -0.01426873 0.0414297 0.12030057 0.05041132
0003f0 79 08 b5 bd 76 96 a5 bd c7 c3 bf bd a1 11 01 be
       -0.08839507 -0.08085339 -0.093635134 -0.12604381

gru.weight_hh_l1 f4 [192, 64]
000000 f4 4a c3 3d 11 b6 03 3d 07 ba cd 3c 0b e6 a9 3d
       0.095357805 0.032156054 0.025113119 0.0829583
000010 e3 58 38 3d b0 bd d4 3d fa e5 52 bd e4 b7 12 3d
       0.045006644 0.103877425 -0.051488854 0.035819903
000020 f1 5a f5 bc 81 a0 ec bc 74 b2 57 3c f7 38 78 bd
       -0.02995059 -0.028885128 0.013165105 -0.0606012
000030 d7 62 93 3d 46 63 e3 bb fa 23 1a 3d 52 89 ad 3d
       0.071965866 -0.0069393246 0.037631966 0.084734574
000040 78 b8 00 bd 3e a4 c8 bd ac 90 b5 bd 6b 6a 68 3d
       -0.031425923 -0.09796952 -0.088654846 0.056742113
000050 b5 66 65 3d 94 62 c9 3d e5 5d 15 bd 09 ab 87 bc
       0.056006152 0.098332554 -0.036466498 -0.016561048
000060 91 24 eb bc b8 43 bf bd 3a 18 be 3a 56 00 57 bd
       -0.02870396 -0.09339088 0.001450307 -0.052490555
000070 d9 f1 1e 3e 2e e5 42 bc eb ac 6e 3d b4 96 c7 bc
       0.15521945 -0.011895461 0.058270376 -0.024363853
000080 fb 4b b9 3c b5 8e 9e 3d b1 2d af 3b 1e 36 2a bd
       0.022619238 0.07742063 0.005346023 -0.041555516
000090 ce 71 c1 bd 0d 59 0b 3e 9b 27 5c 3c 3e da 06 be
       -0.09445535 0.13608189 0.013437177 -0.1316919
0000a0 cd 6d 90 bd 85 bc cf bd 93 b2 76 3d 1e fc 1e 3e
       -0.07052193 -0.10143379 0.060228895 0.15525863
0000b0 0b 13 b1 bd 62 ed 44 bd 7c af 66 3d f8 0d 4f ba
       -0.0864621 -0.04807795 0.0563197 -0.0007898505
0000c0 11 23 79 bd 70 04 e7 bd 15 a4 7d bd b1 97 43 bc
       -0.060824458 -0.11280143 -0.06192406 -0.0119380215
0000d0 ba d1 f0 bb d7 72 e4 3d bc 17 40 bd 4f 3f 40 bc
       -0.00734922 0.111547165 -0.046897635 -0.011733844
0000e0 25 40 7d 3c ad 19 70 3c 36 6b 31 3d 3d 71 65 3d
       0.015457188 0.014654559 0.043315135 0.056016196
0000f0 47 08 d7 3d 9f 5a 00 be 26 cb 8e 3d a5 fe e9 bd
       0.10499626 -0.12534569 0.06972341 -0.11425523
000100 b5 ff 0a be 28 4f 08 be 23 7b 41 bd 2a c7 9a 3c
       -0.13574107 -0.13311446 -0.047236573 0.018893797
000110 0d 67 34 3e 23 8a 58 bc d6 15 db bd cc 80 af bd
       0.17617436 -0.013216528 -0.10697524 -0.08569488
000120 4f e5 60 3d 0e db cf 3b 34 d9 0b 3d 83 db 3c 3d
       0.054906186 0.006343252 0.034142688 0.04610778
000130 dc f5 2b be 88 63 67 bd 0e 39 1c be f9 dc 2f 3e
       -0.16793007 -0.056491405 -0.1525614 0.17174138
000140 ff 62 4b bc e7 01 09 3e b6 34 a9 bd ab 1f 2e 3c
       -0.012413739 0.13379632 -0.08262007 0.010627667
000150 fd 3e c9 3c 5f d6 14 3d 3d 63 ac 3c 9c 26 67 3c
       0.024566168 0.036337253 0.021043414 0.014108326
000160 59 99 5e be b0 04 01 3e 22 49 fa 3c 79 39 17 bd
       -0.21738185 0.12599444 0.03055245 -0.036920045
000170 ab 38 1e 3d 83 5c ce 3d 66 d0 d9 bd 2d a7 f8 bd
       0.03862826 0.10076239 -0.10635452 -0.12141261
000180 e2 da 4f 3e 1f 70 53 bc c1 00 1c bd 39 a0 b0 3d
       0.20298341 -0.01290515 -0.038086656 0.0862431
000190 e1 ad 92 3d 0d 37 05 bd 5b 7c b2 3d 6f 1a 04 be
       0.07162071 -0.032523204 0.08715125 -0.12900709
0001a0 2c 1e 37 bd 82 85 ea 3d a3 13 08 3d f7 a4 17 be
       -0.04470651 0.11451246 0.033221852 -0.14809023
0001b0 8b db c4 bb af 51 48 bc 01 65 d1 bd 54 29 cf 3d
       -0.006007617 -0.012226506 -0.10224343 0.101153046
0001c0 a4 70 5b bd 3f 19 6f 3d a0 a0 50 3d 31 d2 a7 3d
       -0.05357422 0.058373686 0.050934434 0.08194388
0001d0 58 64 87 3c a2 7a 57 3d 9d 1b 68 3c 94 e9 5e be
       0.01652734 0.052607186 0.01416674 -0.2176879
0001e0 58 94 60 3d 94 04 56 3c fc 8c ad 3d b3 c7 34 bd
       0.05482897 0.013062615 0.08474156 -0.04413576
0001f0 9f 79 eb bc 3a 12 8c bd 97 53 37 be e1 71 06 3e
       -0.028744517 -0.06839414 -0.1790298 0.13129379
000200 62 e1 27 bd b7 77 2c 3d 38 f8 40 3e fe 2f 25 3e
       -0.040986426 0.042106356 0.18844688 0.16131589
000210 26 19 61 bd 24 29 ef 3d 60 37 e5 3b 91 40 35 bd
       -0.054955624 0.11677769 0.0069951266 -0.04425103
000220 79 35 4f bd 08 b1 a2 3c b5 c5 e9 bd b3 d9 19 bc
       -0.050588105 0.019859806 -0.11414663 -0.009390282
000230 9a ba c0 3c 77 04 88 3d a4 a3 53 3e af fe 34 bd
       0.023526479 0.066414766 0.20667893 -0.044188198
000240 e2 f8 9e 3d 04 6d 8f bb 8c 6a 1b 3e c8 19 3b 3e
       0.077623144 -0.0043770093 0.15177363 0.18271554
000250 62 38 60 3d 38 73 39 3c 1a b7 09 3e 93 8d 75 bc
       0.05474127 0.011318974 0.13448754 -0.014987367
000260 fb 83 b1 bc bc 07 54 bd 61 60 a3 bd 16 aa 4b 3c
       -0.021669379 -0.05176519 -0.07977367 0.012430688
000270 c9 8d 57 3d b3 1d 12 3b c3 41 0d 3e 5f e4 6a bd
       0.05262545 0.0022295534 0.13794617 -0.057346698
000280 1e e0 ab bd 4a bd e3 bd f5 f2 42 bd 88 34 81 3d
       -0.08392356 -0.111200884 -0.047594983 0.06308848
000290 81 fa 3b 3e 2e 23 1d bc f2 ee f1 3d 2e 73 7e 3c
       0.18357278 -0.009590907 0.11813153 0.015530391
0002a0 87 0d 65 3d e5 2a c1 3c 54 67 6a bd 5c f9 c0 3d
       0.055921104 0.023580024 -0.057227448 0.094225615
0002b0 6c 08 b0 ba c2 28 8b bd 2e 9b 96 3d 1c 53 04 3e
       -0.0013430244 -0.06794883 0.07353817 0.12922329
0002c0 21 35 91 bd 0c 96 a3 3c 86 84 c3 3d a4 85 80 3c
       -0.07090212 0.019969009 0.09546761 0.015688725
0002d0 5f 78 34 be 1a 40 11 be da 18 0f 3e 5a b2 bb 3d
       -0.17624043 -0.14184609 0.13974324 0.09164877
0002e0 40 6f ff 39 0f b6 fc bd 8e c9 3b bc 3b d6 2f 3d
       0.00048720278 -0.123394124 -0.011461629 0.042928915
0002f0 b9 b1 d1 3b a4 2c ee 3c 81 1d 7c 3e fc 31 25 be
       0.00639936 0.02907402 0.2462063 -0.16132349
000300 85 27 d6 bd 03 71 2d be 6b de 75 3d 3f 7b bb bd
       -0.104567565 -0.16937642 0.060026567 -0.09154367
000310 ae a2 a1 bc 29 7d d3 bd b6 13 17 be 43 bd a5 3d
       -0.019730892 -0.10326607 -0.14753613 0.080927394
000320 53 d4 21 3d f2 b8 ec bd 80 a5 cb bb 17 21 26 bd
       0.03950913 -0.11558713 -0.0062147975 -0.0405589
000330 1c 5a f1 bd 87 55 35 be 39 f1 8d bd 38 38 85 bd
       -0.11784765 -0.17708407 -0.06930775 -0.065048635
000340 63 31 58 bd c9 7f 21 3e 42 b9 1f be 12 4c 39 bd
       -0.052781474 0.15771402 -0.15598014 -0.045238562
000350 b7 82 b9 bd a9 e3 b9 3d 42 35 1a bd c6 45 04 3e
       -0.09058135 0.09076626 -0.037648447 0.12917241
000360 15 81 37 3d 12 39 3a 3d 3e 3e b5 3d e6 33 ea bc
       0.044800837 0.045464583 0.088497624 -0.0285892
000370 cf 72 9f 3d 32 91 dd bc 5a 5f 0d be 1d 77 8c bd
       0.0778557 -0.027046774 -0.13805905 -0.068586566
000380 55 12 53 bc 85 b3 d8 3c 8b ea fc bc 9e b7 dc 3d
       -0.012882789 0.02645279 -0.030873558 0.1077721
000390 5d 90 08 3e d2 79 d6 bc 80 fb 56 bd ad 0f 19 3e
       0.1333632 -0.026181135 -0.052485943 0.14947386
0003a0 cb a4 45 bd 62 4c 76 3d fe db bd bd 43 e4 b5 bd
       -0.048252862 0.060131438 -0.09270476 -0.08881428
0003b0 3d e5 32 3e fd 10 ce 3d 50 ea 83 3d d2 2c 48 be
       0.1747026 0.10061834 0.06441176 -0.19548348
0003c0 1d 1e be bc af 7d c1 bd ba ed 1e be b6 d0 cb bd
       -0.023207719 -0.094478 -0.15520373 -0.09951918
0003d0 95 48 81 3d 2d 41 85 3d 8d 14 89 bd e6 7f 93 bd
       0.06312672 0.06506572 -0.06693373 -0.07202129
0003e0 4f 7e 6a 3d 9c 8c cd bd bb 1b b3 bc 4a a6 a4 bd
       0.057249364 -0.10036585 -0.021863809 -0.080395296
0003f0 c1 bc fb bd bb fd ad 3b eb f5 a1 bd bf 9b 12 3e
       -0.12291861 0.005309788 -0.07908233 0.14317225

gru.bias_ih_l1 f4 [192]
000000 8f d1 05 bc 21 9a 68 bd e7 7b 9c 3b 15 6c 18 bd
       -0.008167638 -0.056787614 0.0047755125 -0.03721245
000010 61 4c aa bd dd bc d1 bb a7 0b ac bd b1 f3 1f bd
       -0.08315349 -0.006400688 -0.0840066 -0.03905076
000020 b2 6d 84 bc 1f 37 bf bc ba 81 d2 bc 0b da fa bc
       -0.016165588 -0.023341713 -0.025696624 -0.03062155
000030 21 e5 9a bd f0 89 90 bd 18 5b 46 bd 54 eb 4f bd
       -0.07563234 -0.070575595 -0.048426718 -0.050761536
000040 66 90 a7 bd e2 3e 4c bd a6 f5 36 bd 3f 4e 40 bd
       -0.08181839 -0.049864657 -0.044667862 -0.04694962
000050 73 6d 7e bd bb 9b 20 bd 62 ae 21 bd 9d 77 7c bd
       -0.062116098 -0.039211016 -0.039472945 -0.06163751
000060 62 1f e6 bc 59 a1 34 bd 31 f9 82 bd e3 21 92 bd
       -0.028091136 -0.044099186 -0.06395186 -0.0713537
000070 b9 33 a9 bd eb a2 7f bd 7b 4e 25 bd e7 31 13 bd
       -0.082618184 -0.06241123 -0.040358048 -0.035936262
000080 83 28 38 bd 0c bc 85 bd ac fd 7a bd b4 f1 42 bc
       -0.04496051 -0.06530008 -0.061277077 -0.011898447
000090 06 2e 0b bd ee 2d 0c bd b4 41 1e bd ed d2 08 bd
       -0.03397944 -0.03422349 -0.038636878 -0.03340428
0000a0 fd 87 19 bd af 4f 7e bd 08 9c 8a bd 5c f2 83 bd
       -0.037483204 -0.06208771 -0.06768042 -0.06442711
0000b0 d6 ae 87 bd d1 2c 36 bd ba 60 95 bd 29 5f c7 bc
       -0.06625144 -0.044476334 -0.0729384 -0.024337368
0000c0 d0 15 b6 bd 58 a7 80 bd 22 da 0a bd 3a e1 2f bd
       -0.08890879 -0.06281918 -0.033899434 -0.042939402
0000d0 37 0f 99 bd 74 fc 2f bd 7e 32 5b bd bd ba 6d bd
       -0.07473605 -0.042965367 -0.05351495 -0.058039416
0000e0 3c 5b b3 bd 64 09 34 bd 69 86 43 bd fd 16 29 bd
       -0.08757636 -0.043954268 -0.047735605 -0.04128169
0000f0 da 17 17 bd e4 38 4f bd 75 3b 9d bd 69 c7 a2 bd
       -0.03688798 -0.050591365 -0.07677356 -0.07948191
000100 ec a0 d1 3d 7e ee ca 3d 96 b7 e1 3d dc df 07 3e
       0.102357715 0.0990877 0.11021344 0.1326899
000110 1c 47 d4 3c bc 1f ee 3d 38 be a1 3d 62 7a c6 3c
       0.025912814 0.116271466 0.078976095 0.024228279
000120 01 5c 49 3c 5f ed a6 3d 46 71 bd 3d a2 79 00 3e
       0.012290002 0.08150744 0.09250121 0.12546399
000130 fd 0d e7 3d 68 4e ba 3d a1 26 28 3d d5 68 b0 3d
       0.11281965 0.09096986 0.041052464 0.08613745
000140 e1 72 e7 3d 59 82 54 3d 10 d0 b7 3d ac 9b 8a 3d
       0.11301208 0.05188212 0.08975232 0.06767973
000150 c3 f0 e8 3d f8 ec a2 3d fd 72 85 3b 62 5f cd 3c
       0.11374047 0.079553545 0.0040725456 0.025069896
000160 5f 9b c4 3d e9 70 81 3d f2 3a 88 3d 25 d3 dd 3d
       0.09599947 0.06320364 0.06651868 0.10831288
000170 d7 a3 39 3d 84 b3 ae 3d 9e be 8f 3d b7 16 b2 3d
       0.045322265 0.08530334 0.07018779 0.08695739
000180 61 ea e1 3d 5c 25 9d 3d e5 da 37 3d 3e 64 b8 3d
       0.11031032 0.07673141 0.04488649 0.09003495
000190 f2 eb 00 bd 23 b1 e5 3d 64 a1 b0 3d ae 6b c5 3d
       -0.031475015 0.11215427 0.08624533 0.09639679
0001a0 4d 18 7c 3d 50 3b a6 3d 1a 0e cf 3d 12 fa b1 3d
       0.061546613 0.08116782 0.101101115 0.08690275
0001b0 39 8c 0f 3d 8f ed c5 3d 69 c9 ac 3d ed 84 d0 3d
       0.035045836 0.09664451 0.084368534 0.101816036
0001c0 e5 6c 8c bc c8 38 28 3d 78 ea 59 3d 16 9f 00 3e
       -0.017141769 0.041069776 0.053202122 0.12560686
0001d0 c8 ae ed 3d 5f d9 01 3e 3d 2a 09 3d 78 e0 88 3d
       0.116056025 0.12680577 0.033487547 0.06683439
0001e0 7f f7 19 3c 25 6b e0 bb 88 ec c2 3d bb d0 50 bb
       0.009397387 -0.00684871 0.09517771 -0.0031862694
0001f0 30 14 88 3d 69 68 fe bc e8 b0 3a 3d 37 dc 9d 3d
       0.066444755 -0.031055646 0.045578867 0.07708018
000200 63 e2 b0 3c c3 c8 a9 3c 75 75 ba 3c 81 25 1a 3d
       0.021592325 0.020725613 0.022761086 0.037633423
000210 5e 90 32 bd c4 16 5a 3c 96 ac 9e 3c cd 38 21 3d
       -0.04359471 0.013311092 0.019369405 0.03936081
000220 52 4b 30 bd fa 54 a3 3d b4 cf b3 3d b5 84 b1 bc
       -0.04304058 0.07975192 0.087798506 -0.021669725
000230 6c 3c 16 3d d1 56 07 3d 08 8b ad 3c 94 8e dc bc
       0.036678717 0.03304178 0.02118446 -0.026923455
000240 7d e1 26 3c 86 cc d8 bc 5d b2 9f bb c0 cd 21 3d
       0.0101855965 -0.026464712 -0.0048735575 0.03950286
000250 ff 1e 1a 3d 7b 36 30 bd a0 91 fb 3c bf bd 0a bd
       0.037627216 -0.043020707 0.030709088 -0.033872362
000260 05 fe ae 3c f0 2f 07 bd bc 24 ff bc 8b 0b 15 3c
       0.02136136 -0.0330047 -0.031145446 0.00909699
000270 94 78 00 3d d6 bc ed bc 28 6d 0b 3d 14 c4 9b 3b
       0.031364992 -0.029020708 0.034039646 0.004753599
000280 c0 4a e8 3b 50 51 d9 bc fe 50 91 bc 50 09 cb 3c
       0.007088989 -0.02652803 -0.017738815 0.024784714
000290 6f 21 48 3d 94 78 f1 3c c9 f2 ef 3c 91 e2 bc bc
       0.04886001 0.029476441 0.029290574 -0.023057254
0002a0 73 fc b0 3d 87 8e bc bc ad 53 22 3d e6 08 4a 3c
       0.08641901 -0.023017181 0.03963058 0.012331223
0002b0 cf d6 de bc 21 a4 35 bd fa 65 9a 3c 4a 96 fb 3c
       -0.027202038 -0.04434598 0.018847454 0.030711312
0002c0 01 1c e9 bc d9 53 fc bc bd 9c 4a 3d bd 90 89 bc
       -0.028455736 -0.0308017 0.049465884 -0.01679265
0002d0 a8 7f dd bb 8e 69 35 bc 0a 81 c3 3c 0e 22 26 3d
       -0.0067596026 -0.0110725295 0.023865242 0.04055982
0002e0 3d da 09 bd 47 af 2d bd d0 3c 75 bc bb c7 a3 3c
       -0.033655394 -0.042403486 -0.014968112 0.0199927
0002f0 4c d0 e4 3c 8b c0 ca 3c 46 a5 74 3c d4 97 2f bc
       0.027931355 0.024750015 0.014931982 -0.010717351

gru.bias_hh_l1 f4 [192]
000000 8f d1 05 bc 21 9a 68 bd e7 7b 9c 3b 15 6c 18 bd
       -0.008167638 -0.056787614 0.0047755125 -0.03721245
000010 61 4c aa bd dd bc d1 bb a7 0b ac bd b1 f3 1f bd
       -0.08315349 -0.006400688 -0.0840066 -0.03905076
000020 b2 6d 84 bc 1f 37 bf bc ba 81 d2 bc 0b da fa bc
       -0.016165588 -0.023341713 -0.025696624 -0.03062155
000030 21 e5 9a bd f0 89 90 bd 18 5b 46 bd 54 eb 4f bd
       -0.07563234 -0.070575595 -0.048426718 -0.050761536
000040 66 90 a7 bd e2 3e 4c bd a6 f5 36 bd 3f 4e 40 bd
       -0.08181839 -0.049864657 -0.044667862 -0.04694962
000050 73 6d 7e bd bb 9b 20 bd 62 ae 21 bd 9d 77 7c bd
       -0.062116098 -0.039211016 -0.039472945 -0.06163751
000060 62 1f e6 bc 59 a1 34 bd 31 f9 82 bd e3 21 92 bd
       -0.028091136 -0.044099186 -0.06395186 -0.0713537
000070 b9 33 a9 bd eb a2 7f bd 7b 4e 25 bd e7 31 13 bd
       -0.082618184 -0.06241123 -0.040358048 -0.035936262
000080 83 28 38 bd 0c bc 85 bd ac fd 7a bd b4 f1 42 bc
       -0.04496051 -0.06530008 -0.061277077 -0.011898447
000090 06 2e 0b bd ee 2d 0c bd b4 41 1e bd ed d2 08 bd
       -0.03397944 -0.03422349 -0.038636878 -0.03340428
0000a0 fd 87 19 bd af 4f 7e bd 08 9c 8a bd 5c f2 83 bd
       -0.037483204 -0.06208771 -0.06768042 -0.06442711
0000b0 d6 ae 87 bd d1 2c 36 bd ba 60 95 bd 29 5f c7 bc
       -0.06625144 -0.044476334 -0.0729384 -0.024337368
0000c0 d0 15 b6 bd 58 a7 80 bd 22 da 0a bd 3a e1 2f bd
       -0.08890879 -0.06281918 -0.033899434 -0.042939402
0000d0 37 0f 99 bd 74 fc 2f bd 7e 32 5b bd bd ba 6d bd
       -0.07473605 -0.042965367 -0.05351495 -0.058039416
0000e0 3c 5b b3 bd 64 09 34 bd 69 86 43 bd fd 16 29 bd
       -0.08757636 -0.043954268 -0.047735605 -0.04128169
0000f0 da 17 17 bd e4 38 4f bd 75 3b 9d bd 69 c7 a2 bd
       -0.03688798 -0.050591365 -0.07677356 -0.07948191
000100 ec a0 d1 3d 7e ee ca 3d 96 b7 e1 3d dc df 07 3e
       0.102357715 0.0990877 0.11021344 0.1326899
000110 1c 47 d4 3c bc 1f ee 3d 38 be a1 3d 62 7a c6 3c
       0.025912814 0.116271466 0.078976095 0.024228279
000120 01 5c 49 3c 5f ed a6 3d 46 71 bd 3d a2 79 00 3e
       0.012290002 0.08150744 0.09250121 0.12546399
000130 fd 0d e7 3d 68 4e ba 3d a1 26 28 3d d5 68 b0 3d
       0.11281965 0.09096986 0.041052464 0.08613745
000140 e1 72 e7 3d 59 82 54 3d 10 d0 b7 3d ac 9b 8a 3d
       0.11301208 0.05188212 0.08975232 0.06767973
000150 c3 f0 e8 3d f8 ec a2 3d fd 72 85 3b 62 5f cd 3c
       0.11374047 0.079553545 0.0040725456 0.025069896
000160 5f 9b c4 3d e9 70 81 3d f2 3a 88 3d 25 d3 dd 3d
       0.09599947 0.06320364 0.06651868 0.10831288
000170 d7 a3 39 3d 84 b3 ae 3d 9e be 8f 3d b7 16 b2 3d
       0.045322265 0.08530334 0.07018779 0.08695739
000180 61 ea e1 3d 5c 25 9d 3d e5 da 37 3d 3e 64 b8 3d
       0.11031032 0.07673141 0.04488649 0.09003495
000190 f2 eb 00 bd 23 b1 e5 3d 64 a1 b0 3d ae 6b c5 3d
       -0.031475015 0.11215427 0.08624533 0.09639679
0001a0 4d 18 7c 3d 50 3b a6 3d 1a 0e cf 3d 12 fa b1 3d
       0.061546613 0.08116782 0.101101115 0.08690275
0001b0 39 8c 0f 3d 8f ed c5 3d 69 c9 ac 3d ed 84 d0 3d
       0.035045836 0.09664451 0.084368534 0.101816036
0001c0 e5 6c 8c bc c8 38 28 3d 78 ea 59 3d 16 9f 00 3e
       -0.017141769 0.041069776 0.053202122 0.12560686
0001d0 c8 ae ed 3d 5f d9 01 3e 3d 2a 09 3d 78 e0 88 3d
       0.116056025 0.12680577 0.033487547 0.06683439
0001e0 7f f7 19 3c 25 6b e0 bb 88 ec c2 3d bb d0 50 bb
       0.009397387 -0.00684871 0.09517771 -0.0031862694
0001f0 30 14 88 3d 69 68 fe bc e8 b0 3a 3d 37 dc 9d 3d
       0.066444755 -0.031055646 0.045578867 0.07708018
000200 fc d4 23 3d 55 7d 05 3d 60 46 30 3d 49 33 d1 3c
       0.03999804 0.03259023 0.043035865 0.02553715
000210 82 f9 33 bd 51 57 ee 3c 78 b2 03 3d e1 cc b7 3c
       -0.04393912 0.02909437 0.032152623 0.022436561
000220 fa 25 53 bd 23 4c 98 3d b9 a8 93 3d 3b e2 2a bd
       -0.05154989 0.07436397 0.07209916 -0.041719656
000230 50 f2 0d 3d 68 f7 07 3d f0 29 07 3d 67 b4 2e bd
       0.034654915 0.03319493 0.03299898 -0.042652514
000240 b5 73 cb 3c bc 32 95 bc 9a 9e 92 3c b7 d2 5f 3d
       0.024835447 -0.018212669 0.017897893 0.054644313
000250 68 6e 2b 3d 16 9b 41 bd cd 4a 23 3d 5a 02 58 bd
       0.04185334 -0.047267042 0.039866257 -0.052736618
000260 a0 4c 1e 3d 0f 02 da bc 8d 39 14 bd 4f 80 b6 3b
       0.038647294 -0.02661231 -0.036187697 0.005569495
000270 39 da 27 3d bb 04 1a bd a6 3a 04 3d 1b 8a 00 3d
       0.040979598 -0.037602168 0.032282494 0.031381708
000280 08 00 3c 39 70 09 35 bd 88 8f 81 bc fb 92 14 3d
       0.00017929089 -0.044198453 -0.015815511 0.036272984
000290 d5 42 63 3d 0d 6e 38 3d 71 76 fc 3c 2a d3 0a bd
       0.055483658 0.045026828 0.030818196 -0.033892788
0002a0 e0 c3 81 3d 58 fc d5 bc c3 bd 3c 3d 85 a8 21 3d
       0.06336188 -0.026121303 0.04607941 0.039467353
0002b0 2d e4 e7 bc ba ff 06 bd b9 4f c8 3c 5a 92 49 3d
       -0.028307045 -0.032958724 0.024452077 0.049211837
0002c0 0c 8b f4 bc a0 e8 4b bd 95 d3 36 3d d7 55 0f bd
       -0.029851459 -0.049782395 0.044635374 -0.034993973
0002d0 e5 02 b2 3b b5 bf a2 bc 78 49 1a 3d 30 39 c6 3c
       0.005432474 -0.019866804 0.03766772 0.024197191
0002e0 04 4d 6d bc f6 d0 1f bd 9f 7f d8 bc bd d9 99 3c
       -0.014483694 -0.03901764 -0.026428042 0.018780584
0002f0 a5 9c fc 3c 24 98 31 3d 8a 54 d6 3c 9b d5 b6 bc
       0.030836413 0.043357983 0.026163358 -0.022318652

fc.weight f4 [1, 64]
000000 85 55 d6 3c 1f b7 80 3c f7 05 86 3c fb 14 8d 3c
       0.026163826 0.015712319 0.016360266 0.017221918
000010 74 8b bb bc 93 af ff 3c a5 7d 8d 3c 08 5c 44 3b
       -0.022893645 0.03121165 0.017271826 0.0029962081
000020 ef 5b 44 bc dd af 6a 3c 1d f4 c9 3c 17 5b 2d bd
       -0.011984809 0.014324156 0.024652535 -0.0423232
000030 49 a0 e5 3c 68 8c a6 3c e2 b9 c4 3b 1a 15 26 bd
       0.028030531 0.020330623 0.0060036043 -0.040547468
000040 7e 7c 0d 3d be 5b fa bb f3 78 af 3c 72 03 b6 3c
       0.034542553 -0.007640331 0.021419978 0.02221844
000050 52 d0 98 3c 2f 05 b3 bc 0a 83 76 3b 61 5a 75 bc
       0.018654022 -0.021853058 0.0037614726 -0.014975161
000060 de 9f c5 3c b2 92 37 bc cf e5 2a bc 30 0e a5 3c
       0.024124082 -0.0112044085 -0.010430767 0.020148367
000070 9e 93 ec 3c 34 d7 97 bc 35 7b bf 3c 52 d5 4c 3c
       0.028878983 -0.018535234 0.02337418 0.012502031
000080 72 15 af bb 19 43 b1 bc 2e 61 5f bc 7a 64 ae 3c
       -0.0053431327 -0.02163844 -0.013634009 0.021288145
000090 a3 e0 7e 3c bf 90 92 3c d4 1a 06 3c c8 ad 47 bd
       0.015556487 0.017891286 0.008185107 -0.048749715
0000a0 42 4a de 3c f4 c5 b8 bc 44 06 bb 3c 71 a1 55 3c
       0.027135018 -0.022555329 0.022830136 0.013038979
0000b0 e5 b5 ba bb 6b ae 7b bc 94 5b c2 3a f2 50 18 3d
       -0.005697953 -0.015361409 0.0014828318 0.03718657
0000c0 4f 6e 35 bc 9c 11 c8 bc 93 38 ae 3c be 07 79 bc
       -0.011073663 -0.02442246 0.021267211 -0.0151996
0000d0 1a bb 1b bc f3 c6 d6 bc 18 1a 09 3c 74 4b 0b 3d
       -0.009505058 -0.026217913 0.008368038 0.034007505
0000e0 fe 5a 71 bc 61 c7 df bc 78 c6 1f bd ac 8d 9a 3c
       -0.014731167 -0.027316751 -0.039007634 0.018866383
0000f0 7c b7 66 3c 41 b5 5b 3c 2a e6 89 3c 72 a7 61 bc
       0.014081832 0.0134099135 0.016833384 -0.013772832
