ML/models/BTC/4h/lstm_model.pth (torch, 224060 bytes, 9 tensors)

lstm.weight_ih_l0 f4 [256, 19]
00000000: 1e77 b6bc b864 013e 0428 5ebd bb13 05bd
00000010: 896a 473d 3b1a e43d d07a fa3c bbbe 3e3d
00000020: dcd5 03be f10f b4bc 30bc b5bd 3a42 d93d
00000030: 6c7b 2a3d cf0b 89bc 856b 38bc 50a6 d7bd
00000040: 7853 a7bd dd7e 00be f5d3 f83c 8584 113d
00000050: 1ced a23c eb18 08be 62a4 fe3d 73c0 673c
00000060: eff3 7f3d 1c9d 0f3e 47e5 03bd ddef 69bd
00000070: 25aa 153d c031 acbd 309b 01be d512 423d
00000080: e1e4 81bd 3ab4 d3bd 000d 943d 9c29 e53d
00000090: 1b1a b53d 4a7d 0cbe cd6f a5bd 27f8 1cbd
000000a0: 9c1d 28bc a0a4 983b a57b 93bd d91d 863c
000000b0: 6429 f2bd 8a9a cbbc 6079 a9bd 61a1 b53d
000000c0: 27ed cf3d df58 dd3c d157 83bd 449c 89bd
000000d0: 2eb7 163e 9ae4 bc3c ed1c 02be f843 133b
000000e0: 22af f5bd 013b d33d c1b1 be3c a1c5 05be
000000f0: a568 c23d ce0d ab3d 57e7 09be 0d7b 893d
00000100: c7ae 6c3d 37b7 9e3d 95cb c135 fe02 9a3b
00000110: 4695 cebc 718b 923c 0732 2e3c d5ce 19bd
00000120: 0567 55bd f33c 423c a968 b43d 435a 553d
00000130: d76a d93d 4bd8 d8bd fe48 8f3c 3b51 c63d
00000140: ef0a 94bd 84fa f9bd 2cfb 2cbd ed05 9dbd
00000150: 4976 c53d f276 833d ec1d 0ebe cee5 f53d
00000160: ca74 8ebd 0355 f13d 8fca bcbd 02dc e2bd
00000170: dcb7 46bd 2888 b7bd 4f08 e93d 315b 21bc
00000180: e9f0 71bd 5e7e 1b3d ccc1 d43d d0d3 0bbe
00000190: c03b e73d 676c ac3d 2550 f83d bb10 3dbc
000001a0: 2325 b23d 12b4 00be 9b80 8f3a f0cc 06be
000001b0: 877e ef3d bd06 083e e1b7 00be 0c19 d63b
000001c0: 3062 a0bd 2419 78bb 73cc 643d acf0 163e
000001d0: 74d2 16bc 39d1 c2bd a22a 46bc 9026 e93d
000001e0: 3346 bfbc aa03 ee3d c4dd 09be 59ab bb3c
000001f0: db07 fbbd 5b17 093e d22a babc 38a0 0cbd
00000200: 15db 97bd 510a 713d e8a2 84bd 70f9 073c
00000210: 258f 113e c0fd 39bd 7b80 8a3c d08f edbc
00000220: 10ea 063e 6bfd 153e f863 59bd fd78 4e3c
00000230: 86ca dd3d cd3a b83d 7750 9cbd 4198 133e
00000240: 07ae 9d3d 1ff0 1b3c c6e1 c5bc cf38 a3bc
00000250: 4712 c53c f208 b2bd 8c45 df3d 6a3c 84bd
00000260: ba5c 12be f215 503d a2d5 30bd 1617 f13d
00000270: 3659 a5bd e36b 0b3e 2e3f dc3d 3279 44bd
00000280: c240 5fbc e40c 91bd a035 cb3d e612 e8bd
00000290: 5aa1 8f3d 78c5 47bd 2c31 163d 9134 ffbd
000002a0: a577 3f3d 004f 253d 7be1 813d 2975 0c3d
000002b0: 5b39 d6bc 4a15 12be 8e67 2fbd 751e 043d
000002c0: 2348 d43d 12ab 953d 3b6b ac3b c063 b13d
000002d0: 81a8 163b 1cbc d2bd 3a46 d9bc 5cd3 0d3e
000002e0: 75ac 13be 2e85 c13d 9cfa 173c 6d92 a0bd
000002f0: 86a8 13be c276 883d 0ea1 4ebd fa5b b0bc
00000300: a34c 853d 8155 0cbe f6d8 11be 6cde ee3d
00000310: 8dc0 523d acae b53d f1ef 103d 3c48 e1bd
00000320: bd4d da3d 934a ecbd fb88 c8bc fa60 a4bd
00000330: 5685 2ebc b718 a93d 1255 14be 9ce0 463a
00000340: de07 bbbc 4b5f 1b39 5212 dc3d fa1d c4bd
00000350: 9efe 14bd 0db3 8bbd c354 09be d5e1 bc3b
00000360: 8fc8 a63d 9c95 a1bd 3d28 0f3e bf28 9f3c
00000370: 3fa0 1c3d 056f 4abc d3ca 66bd 5764 0e3c
00000380: 5740 003b b34d bebd a3f9 7ebd 539d e4bd
00000390: 7456 093e cbc4 0abe e1e8 6fbd 10fa 9bbd
000003a0: e1a7 d9bd a3c4 493d 3156 bf3b 204d d03d
000003b0: 8d03 ddbd 4719 3fbd d31b 1f3d 5cd7 b1bd
000003c0: b681 13bb a45c 593c d691 f93d bfa9 10be
000003d0: 18fe 47bd de6e 7cbd 9c5d ff3d 10f6 25bc
000003e0: 6567 f03d dc05 023e bae6 cd3d 507b b9bd
000003f0: 4b9c f2bd 72dc 89bd fb30 a3bd 965e a3bd
-0.022273596 0.12636077 -0.05423738 -0.03248952 0.048685584 0.111378156 0.03057614 0.046568613
-0.1287455 -0.021980258 -0.088737845 0.10608335 0.04162161 -0.016729264 -0.011256103 -0.105297685
-0.08170217 -0.12548395 0.030374506 0.03552677 0.019888453 -0.13290755 0.12433697 0.014145005
0.062488493 0.14024776 -0.032201078 -0.057113517 0.036539216 -0.084079266 -0.12656856 0.04738124
-0.06342483 -0.1033711 0.07229042 0.11189577 0.0884287 -0.13719669 -0.08077965 -0.038322594
-0.010260966 0.0046582967 -0.07201318 0.016371654 -0.11824301 -0.024853963 -0.082751036 0.08868671
0.10152655 0.027019916 -0.06413234 -0.067192584 0.14718315 0.023058224 -0.12706347 0.0022470932
-0.119962946 0.103139885 0.023278119 -0.1306367 0.094926156 0.083522424 -0.13467155 0.06712923
0.05778387 0.07749789 1.4438871e-06 0.0047000637 -0.025217663 0.017888756 0.010632045 -0.037550766
-0.0521002 0.011855352 0.08809025 0.052088033 0.10616081 -0.105881296 0.01749086 0.09683462
-0.07228648 -0.12205985 -0.042231724 -0.07667146 0.09641702 0.064191714 -0.13878602 0.120067224
-0.069558695 0.11783793 -0.092183225 -0.110771194 -0.048515186 -0.089615166 0.11378538 -0.009848402
-0.05906764 0.03796231 0.10388526 -0.13655019 0.11290693 0.084191136 0.12124661 -0.011539633
0.086984895 -0.12568691 0.0010948362 -0.13164115 0.11694055 0.1328382 -0.12570144 0.0065337475
-0.07831228 -0.0037856782 0.05585904 0.14740247 -0.009205449 -0.09512562 -0.012095125 0.11384308
-0.023348903 0.116217926 -0.13463503 0.022908853 -0.12257358 0.13387816 -0.022725496 -0.034332484
-0.074148335 0.05884773 -0.064763844 0.008299217 0.14214762 -0.04540801 0.016906967 -0.02899924
0.13175225 0.14647453 -0.053073853 0.012602088 0.10829644 0.0899559 -0.07632535 0.14413549
0.07699209 0.009517699 -0.024155509 -0.01992455 0.024056567 -0.086931124 0.10901937 -0.064568356
-0.14293185 0.05080218 -0.043172486 0.117719814 -0.08073656 0.13615374 0.10754238 -0.047967143
-0.013626279 -0.07082537 0.099223375 -0.113317296 0.07013197 -0.048772305 0.036667988 -0.12461198
0.04674496 0.040358543 0.06341835 0.03429142 -0.026150396 -0.14265934 -0.042823367 0.03225561
0.103653215 0.0730802 0.0052618063 0.08661604 0.002298862 -0.10289785 -0.026522744 0.13850158
-0.14421256 0.0944923 0.0092760585 -0.078404285 -0.14419755 0.06663276 -0.050446562 -0.021528233
0.06508758 -0.13704492 -0.1424292 0.11663517 0.051453162 0.08871207 0.035385076 -0.11000106
0.10659359 -0.115376614 -0.02447938 -0.08026309 -0.010651907 0.08256667 -0.14485577 0.000758657
-0.0228309 0.00014817451 0.10745682 -0.0957603 -0.036375634 -0.068212606 -0.1341124 0.005764226
0.08143722 -0.07889864 0.13980193 0.019428609 0.03823876 -0.012355571 -0.056345772 0.008690915
0.00195696 -0.09292164 -0.06224979 -0.1116282 0.13411885 -0.13551633 -0.0585717 -0.07616055
-0.106277235 0.049259793 0.0058391322 0.101709604 -0.10791693 -0.046654966 0.038844895 -0.08683655
-0.0022507734 0.013266716 0.12186019 -0.14127253 -0.048826307 -0.06162917 0.124690264 -0.010129467
0.11738471 0.12697548 0.10053773 -0.09056723 -0.11846217 -0.067315 -0.07968327 -0.07977025

lstm.weight_hh_l0 f4 [256, 64]
00000000: c053 5dbd 0c83 d3bd 5c3b 31bd b2fe a13d
00000010: 0359 1abd dc6e 653c fb74 4cbd dad5 c63c
00000020: e742 bfbd 8c4d 99bb e728 e33c b2ee e8bd
00000030: 385f 56bb 3e11 9cbd f517 14bd 70cb 3b3d
00000040: 0677 333c b2ea 86bd 5d19 8bbd 14f2 3dbd
00000050: 3f01 283d 0426 46bd 27bd bc3c 8eaa 063e
00000060: 55c7 0abc a14a 753c a6f0 323d b8a3 213d
00000070: 3f65 a3bc 6a26 e6bd bea3 96bb 2076 c3bc
00000080: 940e 063d aa67 7bbc 042c 913d 2dcc 5c3d
00000090: bf87 85bd bd46 7ebc 849f 2aba a372 1dbc
000000a0: 189d 313a e2c9 73bb e0a7 023e d4aa 0e3d
000000b0: f692 023d 0978 cebd f230 6abc 886a 01bd
000000c0: 2a00 b8bc b9c1 e83b 5688 dcbc 35fc 143d
000000d0: 6e4c fcbc 6388 c83c a8e8 84bd 256e 143d
000000e0: 6b02 a6bd a8ef 3c3b d2a8 973b 908c 8cbd
000000f0: 1824 d3ba cf3f a03c 65f9 12bd 3f89 7e3d
00000100: 5539 93bd e02d 2dbd d5a3 033e 6ae9 b4bd
00000110: 66d3 febd 1a57 a43d 0146 b43d 0945 b13d
00000120: 99de b03d 327d aebd 2770 a7bd 08fb 3fbd
00000130: f2d3 323c 7f1e c2bd 7410 413d 55e0 82bb
00000140: d157 2b3d af5d d13c 964a 3dbd 5da8 a7bd
00000150: 2ff9 c3bc ce06 07bd a1f1 7a3c 9f75 44bd
00000160: 63a2 843d 4e62 393d 710f 9abc 46ab bcbc
00000170: 001d 4c3d fd9b d5bd f3e8 6abd 478c eebd
00000180: 1f57 bfbc 71b4 1fbd afd2 d6bb e3c0 dabd
00000190: dc3a 783c 3e57 373d 4b3e 12bd f433 00bd
000001a0: d26c 1fbd bc74 aabd 01f0 97bd 9a3e 82bb
000001b0: 0d71 753c f1e6 ea3d 73b3 0c3d c0e2 c3bd
000001c0: 843b bcbc ce50 173e 0a82 ee3c 342a e2bb
000001d0: 4870 73bc dbc7 c03c e5a2 4d3d edc3 af3c
000001e0: 26ae 4b3c 7246 723d ceb5 54bd 645c 8b3a
000001f0: f14f 60bd 91c2 16bd 38ac 0bbc 9b5d 96bd
00000200: d08f c63d 5472 153d 10c5 d3bd 1e2b 523d
00000210: 80d1 4f3c d527 c8bc 4529 fc3d 866c 70bd
00000220: 866a 8ebc 1ae1 ec3c 5cb2 b93d d414 b0bd
00000230: b428 2dbd 00fd e73b 0040 41bb a433 2cbc
00000240: cc08 33bd 0157 bebb 2941 f8bd 70a7 573c
00000250: 3790 9abd ba47 8b3d 853f 8e3c 7868 68bc
00000260: 8ba7 05bd f76c 613d c583 b13d 72ba 5abb
00000270: 9bac 4bbd 7530 8abd 34b6 31bd 0ed4 893c
00000280: 4894 cb3c f961 9c3d 5050 7abc 44ed 2b3d
00000290: c206 3dbd 56b9 4bbd 5e4c 133e 7f8f 193e
000002a0: b9af 9e3c 05c2 0dbe 9bf3 efbd d86b f4bb
000002b0: e633 243d 9372 9ebd 20fb 37bc c728 963c
000002c0: d616 acbd a459 04be 5825 f43d 2f5e 8c3d
000002d0: 2b4d c9bd a02f 5c3c 3865 463b 5ab5 94bc
000002e0: 3f89 b4bd 1a38 8e3d 4d2f 143d b5d0 8b3d
000002f0: e2af 30bd e409 b93d 0f21 143d 42de 11bd
00000300: c151 c63d 6dde 503d 44b4 623c 0024 4abd
00000310: 7306 35bd 1dd9 1abd c683 9e3d ac15 7c3c
00000320: 2147 6abc d383 723c f21d 96bd 3d06 213d
00000330: 5dea 143d e91c 93bd b2d0 243d 10c2 72bd
00000340: bcc1 9f3c eda6 5c3d b692 08be 7881 adbc
00000350: ef98 8e3c b92d acbd 5afd e0bd 44e3 dcbb
00000360: 8302 9d3d 04d9 0c3d fa8f 4d3d ab5e 7fbd
00000370: 990d fabd cbc9 ddbd 6c65 bbbc ceb6 01bd
00000380: 2531 01bd 99fa 9abd 7849 7b3b 2545 9fbd
00000390: a471 8c3d d752 33bd d992 dfbd b171 3e3d
000003a0: cf99 1abd f10c f6bb 8472 cebc e6d9 063c
000003b0: c4fe 8bbd 5ba3 363d fa28 91bc b58a 75bd
000003c0: a425 3e3d 16c1 253d ba34 36bd d569 363d
000003d0: d876 76bd 66d8 3fbd 3413 bf3d 98dc 43bc
000003e0: 0ad4 8a3b 076c 583c fb1e 7ebd 303f 04bd
000003f0: b814 a73d 80ea 883a 5355 16bd c474 96bc
-0.05403495 -0.103277296 -0.0432695 0.079099074 -0.037682544 0.014003482 -0.04991625 0.024271894
-0.093389325 -0.0046784338 0.027729465 -0.113736525 -0.0032710563 -0.07620476 -0.03615566 0.04584831
0.01095367 -0.06587733 -0.06791947 -0.04637344 0.041016813 -0.0483761 0.023039414 0.13150999
-0.008470376 0.014971406 0.04368653 0.039462775 -0.019945739 -0.11237796 -0.0045971563 -0.023860037
0.032728747 -0.01534454 0.070884734 0.053905655 -0.06520032 -0.015519795 -0.0006508755 -0.009609851
0.0006775423 -0.003719919 0.12759352 0.034830883 0.031878434 -0.10081489 -0.014293896 -0.031595737
-0.022461016 0.0071031717 -0.026920479 0.036373336 -0.030798163 0.024479097 -0.06489688 0.036237855
-0.0810593 0.002882937 0.0046282792 -0.06862748 -0.0016108779 0.019561676 -0.035882372 0.062142607
-0.071886696 -0.042280078 0.12855466 -0.08833583 -0.12442665 0.08024426 0.08802415 0.086557455
0.08636207 -0.08519973 -0.08175688 -0.04687026 0.0109147895 -0.09478473 0.04713483 -0.0039940276
0.041831795 0.025557367 -0.04621371 -0.081864096 -0.023922531 -0.032965474 0.015316398 -0.047963735
0.06476285 0.045259766 -0.018806191 -0.023030888 0.049832344 -0.10430143 -0.057351064 -0.116478495
-0.023356972 -0.03899044 -0.006555877 -0.106813215 0.015150752 0.044760935 -0.03570394 -0.031299546
-0.03892214 -0.083230466 -0.07418824 -0.003974748 0.014980567 0.1146983 0.034350824 -0.095647335
-0.022977598 0.14776918 0.029114742 -0.0069020037 -0.014858313 0.023532799 0.050204176 0.02145573
0.012431657 0.059149213 -0.051931195 0.0010632393 -0.054763738 -0.036806647 -0.008524947 -0.073420726
0.09695399 0.036485985 -0.10340321 0.05131065 0.012684226 -0.024433056 0.12312559 -0.058697246
-0.017384779 0.02891593 0.090672225 -0.08597723 -0.042275146 0.0070797205 -0.002948761 -0.010510359
-0.04370956 -0.0058087115 -0.12121803 0.013162479 -0.07547038 0.0680079 0.017364273 -0.014185064
-0.032630485 0.055035558 0.08667711 -0.003337529 -0.049725156 -0.06747524 -0.043386653 0.016824748
0.02485098 0.07635874 -0.015277937 0.04197432 -0.046149023 -0.049737297 0.143846 0.14996146
0.0193709 -0.13843544 -0.11716386 -0.007459145 0.040088557 -0.07736697 -0.011229306 0.018329991
-0.08402793 -0.1292482 0.11921185 0.068539016 -0.09829172 0.013439089 0.0030272733 -0.018152881
-0.0881524 0.06944294 0.036177922 0.06826917 -0.043136485 0.090350896 0.03616434 -0.035612352
0.09683562 0.05099337 0.013836924 -0.04935074 -0.044195604 -0.03780471 0.077399775 0.015386026
-0.014299185 0.014801937 -0.0732993 0.03931259 0.03635632 -0.071832485 0.04023809 -0.059267104
0.01950156 0.05387013 -0.13337216 -0.0211799 0.017406909 -0.084071584 -0.10985823 -0.0067409594
0.07666495 0.03438665 0.050186135 -0.06234614 -0.12209625 -0.108295046 -0.02287551 -0.031668477
-0.03154101 -0.07567329 0.0038343351 -0.0777686 0.06857613 -0.043780174 -0.10916681 0.046495143
-0.03774434 -0.007508867 -0.02520109 0.008230662 -0.06835702 0.04458938 -0.017719734 -0.059946734
0.046422616 0.040467344 -0.044483878 0.044534523 -0.060171932 -0.046837233 0.093298346 -0.011954449
0.004236703 0.0132093495 -0.062041264 -0.032286823 0.08158249 0.0010445863 -0.036702465 -0.018366225

lstm.bias_ih_l0 f4 [256]
00000000: 0000 0000 0000 0000 0000 0000 0000 0000
00000010: 0000 0000 0000 0000 0000 0000 0000 0000
00000020: 0000 0000 0000 0000 0000 0000 0000 0000
00000030: 0000 0000 0000 0000 0000 0000 0000 0000
00000040: 67fb c33b 0000 0000 0000 0000 0000 0000
00000050: 0000 0000 0000 0000 0000 0000 0000 0000
00000060: 0000 0000 0000 0000 0000 0000 0000 0000
00000070: 0000 0000 0000 0000 0000 0000 0000 0000
00000080: 0000 0000 0000 0000 0000 0000 0000 0000
00000090: 0000 0000 0000 0000 0000 0000 0000 0000
000000a0: 0000 0000 0000 0000 0000 0000 0000 0000
000000b0: 0000 0000 0000 0000 0000 0000 0000 0000
000000c0: 0000 0000 0000 0000 0000 0000 0000 0000
000000d0: 0000 0000 0000 0000 0000 0000 0000 0000
000000e0: 0000 0000 0000 0000 0000 0000 0000 0000
000000f0: 0000 0000 0000 0000 0000 0000 0000 0000
00000100: 0000 0000 0000 0000 0000 0000 0000 0000
00000110: 0000 0000 0000 0000 0000 0000 0000 0000
00000120: 0000 0000 0000 0000 0000 0000 0000 0000
00000130: 0000 0000 0000 0000 0000 0000 0000 0000
00000140: 0000 0000 0000 0000 0000 0000 0000 0000
00000150: 0000 0000 0000 0000 0000 0000 0000 0000
00000160: 0000 0000 0000 0000 0000 0000 0000 0000
00000170: 0000 0000 0000 0000 0000 0000 0000 0000
00000180: 0000 0000 0000 0000 0000 0000 0000 0000
00000190: 0000 0000 0000 0000 0000 0000 0000 0000
000001a0: 0000 0000 0000 0000 0000 0000 0000 0000
000001b0: 0000 0000 0000 0000 0000 0000 0000 0000
000001c0: 0000 0000 0000 0000 0000 0000 0000 0000
000001d0: 0000 0000 0000 0000 0000 0000 0000 0000
000001e0: 0000 0000 0000 0000 0000 0000 0000 0000
000001f0: 0000 0000 0000 0000 0000 0000 0000 0000
00000200: 0000 0000 0000 0000 0000 0000 0000 0000
00000210: 0000 0000 0000 0000 0000 0000 0000 0000
00000220: 0000 0000 0000 0000 0000 0000 0000 0000
00000230: 0000 0000 0000 0000 0000 0000 0000 0000
00000240: 0000 0000 0000 0000 0000 0000 0000 0000
00000250: 0000 0000 0000 0000 0000 0000 0000 0000
00000260: 0000 0000 0000 0000 0000 0000 0000 0000
00000270: 0000 0000 0000 0000 0000 0000 0000 0000
00000280: 0000 0000 0000 0000 0000 0000 0000 0000
00000290: 0000 0000 0000 0000 0000 0000 0000 0000
000002a0: 0000 0000 0000 0000 0000 0000 0000 0000
000002b0: 0000 0000 0000 0000 0000 0000 0000 0000
000002c0: 0000 0000 0000 0000 0000 0000 0000 0000
000002d0: 0000 0000 0000 0000 0000 0000 0000 0000
000002e0: 0000 0000 0000 0000 0000 0000 0000 0000
000002f0: 0000 0000 0000 0000 0000 0000 0000 0000
00000300: 0000 0000 0000 0000 0000 0000 0000 0000
00000310: 0000 0000 0000 0000 0000 0000 0000 0000
00000320: 0000 0000 0000 0000 0000 0000 0000 0000
00000330: 0000 0000 0000 0000 0000 0000 0000 0000
00000340: 0000 0000 0000 0000 0000 0000 0000 0000
00000350: 0000 0000 0000 0000 0000 0000 0000 0000
00000360: 0000 0000 0000 0000 0000 0000 0000 0000
00000370: 0000 0000 0000 0000 0000 0000 0000 0000
00000380: 0000 0000 0000 0000 0000 0000 0000 0000
00000390: 0000 0000 0000 0000 0000 0000 0000 0000
000003a0: 0000 0000 0000 0000 0000 0000 0000 0000
000003b0: 0000 0000 0000 0000 0000 0000 0000 0000
000003c0: 0000 0000 0000 0000 0000 0000 0000 0000
000003d0: 0000 0000 0000 0000 0000 0000 0000 0000
000003e0: 0000 0000 0000 0000 0000 0000 0000 0000
000003f0: 0000 0000 0000 0000 0000 0000 0000 0000
0.0 0.0 0.0 0.0 0.0 0.0 0.0 0.0
0.0 0.0 0.0 0.0 0.0 0.0 0.0 0.0
0.005980897 0.0 0.0 0.0 0.0 0.0 0.0 0.0
0.0 0.0 0.0 0.0 0.0 0.0 0.0 0.0
0.0 0.0 0.0 0.0 0.0 0.0 0.0 0.0
0.0 0.0 0.0 0.0 0.0 0.0 0.0 0.0
0.0 0.0 0.0 0.0 0.0 0.0 0.0 0.0
0.0 0.0 0.0 0.0 0.0 0.0 0.0 0.0
0.0 0.0 0.0 0.0 0.0 0.0 0.0 0.0
0.0 0.0 0.0 0.0 0.0 0.0 0.0 0.0
0.0 0.0 0.0 0.0 0.0 0.0 0.0 0.0
0.0 0.0 0.0 0.0 0.0 0.0 0.0 0.0
0.0 0.0 0.0 0.0 0.0 0.0 0.0 0.0
0.0 0.0 0.0 0.0 0.0 0.0 0.0 0.0
0.0 0.0 0.0 0.0 0.0 0.0 0.0 0.0
0.0 0.0 0.0 0.0 0.0 0.0 0.0 0.0
0.0 0.0 0.0 0.0 0.0 0.0 0.0 0.0
0.0 0.0 0.0 0.0 0.0 0.0 0.0 0.0
0.0 0.0 0.0 0.0 0.0 0.0 0.0 0.0
0.0 0.0 0.0 0.0 0.0 0.0 0.0 0.0
0.0 0.0 0.0 0.0 0.0 0.0 0.0 0.0
0.0 0.0 0.0 0.0 0.0 0.0 0.0 0.0
0.0 0.0 0.0 0.0 0.0 0.0 0.0 0.0
0.0 0.0 0.0 0.0 0.0 0.0 0.0 0.0
0.0 0.0 0.0 0.0 0.0 0.0 0.0 0.0
0.0 0.0 0.0 0.0 0.0 0.0 0.0 0.0
0.0 0.0 0.0 0.0 0.0 0.0 0.0 0.0
0.0 0.0 0.0 0.0 0.0 0.0 0.0 0.0
0.0 0.0 0.0 0.0 0.0 0.0 0.0 0.0
0.0 0.0 0.0 0.0 0.0 0.0 0.0 0.0
0.0 0.0 0.0 0.0 0.0 0.0 0.0 0.0
0.0 0.0 0.0 0.0 0.0 0.0 0.0 0.0

lstm.bias_hh_l0 f4 [256]
00000000: 0000 0000 0000 0000 0000 0000 0000 0000
00000010: 0000 0000 0000 0000 0000 0000 0000 0000
00000020: 0000 0000 0000 0000 0000 0000 0000 0000
00000030: 0000 0000 0000 0000 0000 0000 0000 0000
00000040: 67fb c33b 0000 0000 0000 0000 0000 0000
00000050: 0000 0000 0000 0000 0000 0000 0000 0000
00000060: 0000 0000 0000 0000 0000 0000 0000 0000
00000070: 0000 0000 0000 0000 0000 0000 0000 0000
00000080: 0000 0000 0000 0000 0000 0000 0000 0000
00000090: 0000 0000 0000 0000 0000 0000 0000 0000
000000a0: 0000 0000 0000 0000 0000 0000 0000 0000
000000b0: 0000 0000 0000 0000 0000 0000 0000 0000
000000c0: 0000 0000 0000 0000 0000 0000 0000 0000
000000d0: 0000 0000 0000 0000 0000 0000 0000 0000
000000e0: 0000 0000 0000 0000 0000 0000 0000 0000
000000f0: 0000 0000 0000 0000 0000 0000 0000 0000
00000100: 0000 0000 0000 0000 0000 0000 0000 0000
00000110: 0000 0000 0000 0000 0000 0000 0000 0000
00000120: 0000 0000 0000 0000 0000 0000 0000 0000
00000130: 0000 0000 0000 0000 0000 0000 0000 0000
00000140: 0000 0000 0000 0000 0000 0000 0000 0000
00000150: 0000 0000 0000 0000 0000 0000 0000 0000
00000160: 0000 0000 0000 0000 0000 0000 0000 0000
00000170: 0000 0000 0000 0000 0000 0000 0000 0000
00000180: 0000 0000 0000 0000 0000 0000 0000 0000
00000190: 0000 0000 0000 0000 0000 0000 0000 0000
000001a0: 0000 0000 0000 0000 0000 0000 0000 0000
000001b0: 0000 0000 0000 0000 0000 0000 0000 0000
000001c0: 0000 0000 0000 0000 0000 0000 0000 0000
000001d0: 0000 0000 0000 0000 0000 0000 0000 0000
000001e0: 0000 0000 0000 0000 0000 0000 0000 0000
000001f0: 0000 0000 0000 0000 0000 0000 0000 0000
00000200: 0000 0000 0000 0000 0000 0000 0000 0000
00000210: 0000 0000 0000 0000 0000 0000 0000 0000
00000220: 0000 0000 0000 0000 0000 0000 0000 0000
00000230: 0000 0000 0000 0000 0000 0000 0000 0000
00000240: 0000 0000 0000 0000 0000 0000 0000 0000
00000250: 0000 0000 0000 0000 0000 0000 0000 0000
00000260: 0000 0000 0000 0000 0000 0000 0000 0000
00000270: 0000 0000 0000 0000 0000 0000 0000 0000
00000280: 0000 0000 0000 0000 0000 0000 0000 0000
00000290: 0000 0000 0000 0000 0000 0000 0000 0000
000002a0: 0000 0000 0000 0000 0000 0000 0000 0000
000002b0: 0000 0000 0000 0000 0000 0000 0000 0000
000002c0: 0000 0000 0000 0000 0000 0000 0000 0000
000002d0: 0000 0000 0000 0000 0000 0000 0000 0000
000002e0: 0000 0000 0000 0000 0000 0000 0000 0000
000002f0: 0000 0000 0000 0000 0000 0000 0000 0000
00000300: 0000 0000 0000 0000 0000 0000 0000 0000
00000310: 0000 0000 0000 0000 0000 0000 0000 0000
00000320: 0000 0000 0000 0000 0000 0000 0000 0000
00000330: 0000 0000 0000 0000 0000 0000 0000 0000
00000340: 0000 0000 0000 0000 0000 0000 0000 0000
00000350: 0000 0000 0000 0000 0000 0000 0000 0000
00000360: 0000 0000 0000 0000 0000 0000 0000 0000
00000370: 0000 0000 0000 0000 0000 0000 0000 0000
00000380: 0000 0000 0000 0000 0000 0000 0000 0000
00000390: 0000 0000 0000 0000 0000 0000 0000 0000
000003a0: 0000 0000 0000 0000 0000 0000 0000 0000
000003b0: 0000 0000 0000 0000 0000 0000 0000 0000
000003c0: 0000 0000 0000 0000 0000 0000 0000 0000
000003d0: 0000 0000 0000 0000 0000 0000 0000 0000
000003e0: 0000 0000 0000 0000 0000 0000 0000 0000
000003f0: 0000 0000 0000 0000 0000 0000 0000 0000
0.0 0.0 0.0 0.0 0.0 0.0 0.0 0.0
0.0 0.0 0.0 0.0 0.0 0.0 0.0 0.0
0.005980897 0.0 0.0 0.0 0.0 0.0 0.0 0.0
0.0 0.0 0.0 0.0 0.0 0.0 0.0 0.0
0.0 0.0 0.0 0.0 0.0 0.0 0.0 0.0
0.0 0.0 0.0 0.0 0.0 0.0 0.0 0.0
0.0 0.0 0.0 0.0 0.0 0.0 0.0 0.0
0.0 0.0 0.0 0.0 0.0 0.0 0.0 0.0
0.0 0.0 0.0 0.0 0.0 0.0 0.0 0.0
0.0 0.0 0.0 0.0 0.0 0.0 0.0 0.0
0.0 0.0 0.0 0.0 0.0 0.0 0.0 0.0
0.0 0.0 0.0 0.0 0.0 0.0 0.0 0.0
0.0 0.0 0.0 0.0 0.0 0.0 0.0 0.0
0.0 0.0 0.0 0.0 0.0 0.0 0.0 0.0
0.0 0.0 0.0 0.0 0.0 0.0 0.0 0.0
0.0 0.0 0.0 0.0 0.0 0.0 0.0 0.0
0.0 0.0 0.0 0.0 0.0 0.0 0.0 0.0
0.0 0.0 0.0 0.0 0.0 0.0 0.0 0.0
0.0 0.0 0.0 0.0 0.0 0.0 0.0 0.0
0.0 0.0 0.0 0.0 0.0 0.0 0.0 0.0
0.0 0.0 0.0 0.0 0.0 0.0 0.0 0.0
0.0 0.0 0.0 0.0 0.0 0.0 0.0 0.0
0.0 0.0 0.0 0.0 0.0 0.0 0.0 0.0
0.0 0.0 0.0 0.0 0.0 0.0 0.0 0.0
0.0 0.0 0.0 0.0 0.0 0.0 0.0 0.0
0.0 0.0 0.0 0.0 0.0 0.0 0.0 0.0
0.0 0.0 0.0 0.0 0.0 0.0 0.0 0.0
0.0 0.0 0.0 0.0 0.0 0.0 0.0 0.0
0.0 0.0 0.0 0.0 0.0 0.0 0.0 0.0
0.0 0.0 0.0 0.0 0.0 0.0 0.0 0.0
0.0 0.0 0.0 0.0 0.0 0.0 0.0 0.0
0.0 0.0 0.0 0.0 0.0 0.0 0.0 0.0

lstm.weight_ih_l1 f4 [256, 64]
00000000: 09d3 acbd f0c8 5d3d be9e 663d f8d5 993d
00000010: b71b 75bb 3338 d33d 860d f2bd b83d a33d
00000020: 520e 89bd be44 293d cb81 053e 65c9 4bbd
00000030: b708 97bd eb37 e63d 1cce 0bbd aff2 d53d
00000040: bdfc a6bc 6ee9 e93d 1bdb eebd 65e0 023d
00000050: 5d87 f0bc 637b 9b3d fa07 abbc e901 073d
00000060: 3d90 d03d 9125 2ebd 1ddf 09be 0f99 9e3d
00000070: 8418 b8bb f12b 32bd 797b 58bc 6f81 a73d
00000080: fb47 fdbc 62ca 823c a3ef 0b3d 73c8 ae3c
00000090: 32ff 3e3d 51cd a93c b7de d03d 3229 e83d
000000a0: 7dc7 7e3d 0425 9a3d 3aa3 213d 4dfc 79bd
000000b0: 8dc6 c33d b539 45bd 1505 0abe ff14 d93c
000000c0: 6cb9 17bd 64b3 5fbd d6af 54bd 9fea e6bb
000000d0: fa9b 8abd 29e1 85bc b371 023d 1e99 f33d
000000e0: 71ae 3ebd 2a37 693d d3f8 9ebd 777b 8cba
000000f0: 0b6c a1bd ea90 09be 6c2f 2fbd 9464 dc3d
00000100: 2dbc eabd ba7e a7bd 798b 42bd 323a d23d
00000110: 6ad3 7f3d fc98 a63d ea03 a0bd ee6a babc
00000120: 5c78 e43d cbf9 fcbc 3a64 df3c 474a 863d
00000130: 0fec e5bc d102 b1bd d928 ffbc 1617 a6bc
00000140: 0b93 acbd d4cc 043e 02bb f23d 3f47 42bd
00000150: 22c1 08bc bbd2 c8bd f50b 87bc a8d8 cdbd
00000160: ea78 253d c2d9 e53d 030a fa3c f453 18bd
00000170: 56e3 f8bd 2154 ad3d e8c2 c1bd d772 033e
00000180: d440 aabd 2269 08be e203 87bd 25bd 813c
00000190: 2834 ad3a 4503 923d 89c0 b53d 6027 d93d
000001a0: f030 893d ce80 cbbd d5e2 d6bd 2fb7 fbbc
000001b0: 3ca0 05be 1c2b a3bc 5b35 c739 7414 e13d
000001c0: ef3e 0f3d 1319 91bd d2f4 3e3d a56a 92bd
000001d0: f2bd e03d e78f 0abe 8871 e43d 03f9 493a
000001e0: f4dc d23d 8ace 023e 5f78 72bc 7482 c53d
000001f0: 51d9 ff3c c466 28bd 526b 983d 9f72 c43d
00000200: f2f0 80bd 3e38 55bd a42c 5abb fde1 dd3d
00000210: ff5d bbbd 02ce 90bd 9ad9 d9bd cd2d a73d
00000220: c42c 3abd 0557 ca3d 63cb 5dbc 36b2 f73d
00000230: 8a9e 03be 6577 c13d 0722 a83c a217 63bd
00000240: dcd7 c03d 40a3 11be 4686 68bd 5154 0d3c
00000250: c3ae 873c c66d 803d 7fab f3bd 28fd 913d
00000260: e955 c7bc d32e 0e3d 4a2a 05be f12e 99bd
00000270: 5cff 843c 608d 2fbd ac74 febc bb13 203d
00000280: 3a28 0a3c 91f3 c5bd abc8 c93d 3c66 acbd
00000290: 1350 e7bd 3daa e5bb 372d 83bd 6aa2 d2bd
000002a0: 7065 bebd 9f1a 0c3d 8bc3 06be 40f3 dfbc
000002b0: 3cbe 0abd 54f8 163e 779a 92bd f038 8bbd
000002c0: 8ec3 43bd 716e 8e3c 27b1 543d c669 86bd
000002d0: 5a60 f9bd 2a13 f0bc a5f1 923d aae9 1c3d
000002e0: 7983 b6bd d9e1 cebd 9300 963d f1df d53d
000002f0: da6f cebd e262 9dbb 57b5 1cbd 1cc3 bfbc
00000300: 38c6 053d b6d6 9d3c 4ad2 d3bd 9a01 45bd
00000310: faf9 143e 3680 dc3d 647b a6bd 5d01 5dbd
00000320: 710b 66bd ab88 3ebe 0ba5 93bd 8932 e83d
00000330: 77df 20be 38a3 d3bd f5c6 f83d 455f b03d
00000340: fb1b 07be 4567 2fbd 894c f8bd 253f ae3d
00000350: b7cf 3bbe 7353 10bd f935 d03d 13d0 043e
00000360: 72f9 6abd 5fcf eb3d 0000 6ebc a48d b23d
00000370: ff39 64bd f4ff 4abd 252f 743c c958 75bd
00000380: 6013 28bc af8e 303d 43a0 a3bc e920 fb3d
00000390: c76c a6bd e10e 423d 1da8 bebd 4607 0b3e
000003a0: 8e8f bd3d f4f1 bebd 7b90 de3d 1976 20bc
000003b0: 961e 08be 310c 89bd 0ccd 87bb 7cc2 853d
000003c0: 312a 993c 232f 2a3d edec 82bc 527e 2bbc
000003d0: 1d72 c0bd e9f6 edbd f6e8 19be 069a ee39
000003e0: 2e30 bbbd ed36 bf3c 9f05 04be 5db8 f4bd
000003f0: 87fd 9bbd b1f8 42bd c964 643d 41a6 f23d
-0.08438689 0.054146707 0.056303732 0.075115144 -0.0037400553 0.103134535 -0.11818986 0.07970756
-0.066921845 0.041325323 0.13037793 -0.04975261 -0.07374709 0.11241134 -0.034132108 0.10446679
-0.020384187 0.11421476 -0.11662885 0.03195228 -0.029361421 0.075918935 -0.020877827 0.032960806
0.10183761 -0.042516295 -0.13464017 0.07744037 -0.005618157 -0.043498937 -0.013213032 0.081789844
-0.030918112 0.015965644 0.034164082 0.021335816 0.046630092 0.020727785 0.101987295 0.113359824
0.062201966 0.075265914 0.039462306 -0.06103163 0.09559355 -0.048150737 -0.13478501 0.02649927
-0.037042066 -0.05461444 -0.051925503 -0.007047012 -0.067680314 -0.016342716 0.031846713 0.11894439
-0.04655308 0.056937374 -0.07762303 -0.0010717948 -0.07881936 -0.13434187 -0.042769834 0.10761371
-0.11461673 -0.08178468 -0.047496293 0.10265006 0.06245748 0.08134648 -0.078132465 -0.022756066
0.11155769 -0.03088083 0.027269471 0.06557136 -0.028066663 -0.08643115 -0.031147407 -0.02027468
-0.08426484 0.1296876 0.11852075 -0.047431227 -0.008346828 -0.09805819 -0.016485194 -0.100510895
0.040398516 0.11223175 0.030522352 -0.03718944 -0.12152736 0.08463312 -0.094610035 0.12836777
-0.08313146 -0.13321355 -0.065925375 0.015837261 0.0013214396 0.0712953 0.08874614 0.10603213
0.06698787 -0.09936677 -0.104924835 -0.030726997 -0.13049406 -0.019918017 0.0003799599 0.10990229
0.034972128 -0.07084861 0.046620198 -0.07149247 0.10973729 -0.13531457 0.11154467 0.0007704647
0.1029605 0.12774101 -0.0147992065 0.096440226 0.031231554 -0.04111363 0.07442345 0.09592175
-0.06295957 -0.05205559 -0.0033290768 0.108341195 -0.09148788 -0.07070543 -0.10637207 0.08163033
-0.045452848 0.09879879 -0.013537261 0.12094538 -0.12853447 0.09446601 0.020524038 -0.05544246
0.09416172 -0.14222431 -0.056768678 0.00862606 0.016562825 0.062709376 -0.11897945 0.07128364
-0.024332957 0.034712624 -0.13004413 -0.074796565 0.016235046 -0.042859435 -0.031061493 0.039081316
0.008432442 -0.09665597 0.098527275 -0.08417937 -0.1129457 -0.0070088194 -0.064051084 -0.10284884
-0.092966914 0.034205075 -0.13160531 -0.02733767 -0.033872828 0.14743167 -0.07158368 -0.06797969
-0.047793917 0.017386647 0.05192676 -0.065631434 -0.12176581 -0.029306013 0.07174996 0.038308777
-0.08911795 -0.10101671 0.07324328 0.10443104 -0.10079928 -0.0048030475 -0.038258877 -0.023408465
0.03265974 0.019267421 -0.10342844 -0.04809723 0.14548483 0.10766642 -0.08129004 -0.05395638
-0.056163255 -0.18606822 -0.07209214 0.11337764 -0.15710245 -0.10333866 0.12147323 0.08611921
-0.13194267 -0.042823095 -0.12123973 0.085081376 -0.18340956 -0.035235833 0.101665445 0.12969999
-0.057366796 0.11514162 -0.014526367 0.08718422 -0.055719372 -0.049560502 0.014903818 -0.059899125
-0.010258526 0.043104824 -0.01997388 0.122621365 -0.081262164 0.04737747 -0.09309409 0.13576993
0.092558965 -0.09323493 0.10867401 -0.009793782 -0.13292918 -0.066917785 -0.0041443165 0.065312356
0.018696876 0.04154886 -0.015982116 -0.010467129 -0.093967654 -0.1161936 -0.15030274 0.00045509654
-0.09140049 0.02334162 -0.1289277 -0.11949227 -0.07616716 -0.04760045 0.05576018 0.11848117

lstm.weight_hh_l1 f4 [256, 64]
00000000: cfaf fe3d 7e14 a7bd 7d19 c43d c235 a23c
00000010: f38f 9dbd 052e 923b d699 153b 2f18 aabd
00000020: 3555 61bd f7e3 76bd 2857 3f3d 9246 24bd
00000030: c0e3 f13b 9c93 093d fbd6 bc3d 70cd 813c
00000040: 4fcd 033e ea1e 363d 6e95 07bb 6161 d03d
00000050: f273 4bbc 3503 e0bd 36f1 1c3d 06aa 743c
00000060: f447 973d 5583 60bd c2fd 5fbc 02bc 9dbc
00000070: 734d cd3c 490e 333b 4ca0 a0bb aaa1 dd3d
00000080: d59f ef3d 86fe a03d cb59 aebc c990 8e3d
00000090: 7cf2 6b3d c2d8 26bd 1c50 b53d a9fe a23d
000000a0: 8d4c 163d bcdf 1a3c c3d8 5f3d a401 983d
000000b0: f825 253d ee24 97bc 5758 a6bc 1bd2 803d
000000c0: 7120 82bc 6909 a6bc 736a 0bbd 8279 853c
000000d0: 78a6 d0bd 5d82 9dbd f9d8 58bd aa0d 873d
000000e0: ecf9 dd3d 8be4 8d3d 1e2a 6ebd 1458 e33c
000000f0: f1d7 193d 5594 32bd a725 443d 43be 003e
00000100: 19f2 ef3d cc46 98bd 3bc1 e23d 5fbb 87bb
00000110: ed5e d3bc 9b70 c93d 2546 813d e52b 643d
00000120: 45b5 c53a 15b4 86bb 0858 f1bd b92d 6bbd
00000130: d66f 24be 5922 c03c 3383 babd acc6 c23a
00000140: 7a36 46bd 45cf c4bb 39e8 c33d d895 c53c
00000150: 24fa e9bd 5374 cc3c 3086 a7bc bf29 863d
00000160: dd0f ed3d 0ccf 963d 93d3 ff3d 12f5 0fbd
00000170: 5a51 823d e521 8f3d 4796 ec3d d3b7 dbbc
00000180: 2720 a03d 840f 1dbc 7afe d3bd 3614 973d
00000190: bfe9 423e f909 a63c 0ef4 5b3c 8fbe 1fbd
000001a0: f91b c63d f327 b43c 0d04 b93d 4b3a 4d3b
000001b0: 7a52 e33c 7a80 cabd d4fa 2abd f057 163e
000001c0: befe 8a3d e1b3 a9bd fd0e e33c 6bdb 7fbd
000001d0: 5f57 03be 7b45 bd3d daa8 ab3d 4584 113b
000001e0: df9b 8d3d 6e2b e93d d8fe 9bbd 4ce9 0cbe
000001f0: 0360 633d 77ee 273c d156 2e3d 8e1b d83c
00000200: 65b2 daba eb8d eb3c d59a 64bd 5356 72bd
00000210: 551f eb3c eb6e aabc 047d b93d 7b9d ea3d
00000220: fb6f 7e3d 0aac 4a3d 2668 1fbd 62c2 ecbd
00000230: 6c2c c8bd 7071 11be 512a 483c c246 e8bd
00000240: 0b00 af3d ed58 353d 4a22 d13d bd4b 923d
00000250: 4938 d8bc 67f6 d8bd d77a 733d 400f 033e
00000260: 7cd7 993b 7d0e 083d b03f df3c f472 1ebd
00000270: 064c 64bd b005 833c 7ba3 093c 52f1 4c3d
00000280: 162f 9d3d dc49 d7bd b2ec 5ebd 55eb 0a3e
00000290: a72e 3abd 9bf9 a23b 6aac 8f3d 6f2c a0bd
000002a0: c13e e2bd 1d28 c2bd e041 103e 57a9 0b3d
000002b0: d68f a1bc bb93 84bd 59c3 f03c a050 ac3d
000002c0: 3a08 8f3c d4f5 96ba 2fd6 343e 4ea8 b8bd
000002d0: 6b50 22be 04fd 17bd 4c98 843d 5694 f83c
000002e0: 11cd d83d 5d1d 1d3d 5410 1f3d 0c12 ad3c
000002f0: f1e1 1bbd 5dd1 27bd a72f a43d 7b9e 753c
00000300: 0f9e b33d fbe0 89bd e7ad 863d d841 31be
00000310: 440a 393e c555 10bd bbf0 d23d 6383 cc3c
00000320: 33b6 383d 1dde 793d fcf0 85bd 36a4 0f3d
00000330: 4f5e 3abe 3989 eb3d 062a 933b f772 e7bd
00000340: bf50 fe3d c5b0 7d3c 8fcf 013e 57b4 5d3d
00000350: 1b94 09bd e2ba 5fbd 63e8 8cbd dca0 a43c
00000360: 6969 563d 4a49 df3c e550 e63c 6396 be3b
00000370: 2124 233c 8b59 b03d 4680 823c a43f c43b
00000380: 5086 45bc bf5c 1abe 169e 0aba ddc9 b13d
00000390: 9dbb 963d a4a4 e23c d1fa ce3d 8f3f 08bd
000003a0: a6c3 073e 5c25 8abd 4621 b13d da75 0dbd
000003b0: b1f3 91bd bb1b 32be 6ae1 46bc cb3f cebc
000003c0: 6b36 573d 30ee 4ebd c547 aa3d ffed bdbc
000003d0: c05b bcbd 012a f5bd 9c89 273d 6957 113e
000003e0: c06a b73d a992 61bb 5f61 3a3d 4bdd 23bd
000003f0: 72fa 723d 0fda c2bd 1b44 1c3e a1ab e03d
0.124358766 -0.081582054 0.09575174 0.019801024 -0.07693472 0.0044610524 0.002282729 -0.08305394
-0.0550129 -0.060275998 0.046713978 -0.040106364 0.0073818862 0.033588037 0.09220692 0.01584503
0.12871288 0.044463076 -0.0020688432 0.101748236 -0.01241778 -0.10938112 0.038315974 0.014933115
0.07386771 -0.054812748 -0.01367134 -0.019254688 0.025061345 0.0027321747 -0.0049019214 0.108218506
0.117004074 0.078610465 -0.021283051 0.06961209 0.057604298 -0.04073406 0.0885317 0.07958729
0.0366941 0.0094527565 0.05465008 0.07422188 0.040319413 -0.018450227 -0.020305796 0.062900744
-0.01588461 -0.020268159 -0.034037065 0.016293291 -0.101880014 -0.076908804 -0.052941296 0.06594403
0.108386844 0.06928357 -0.058145635 0.02775196 0.037559453 -0.04359849 0.04788747 0.12572579
0.11716098 -0.074353784 0.11072012 -0.0041422094 -0.0258021 0.09835931 0.06312207 0.055705924
0.001508393 -0.004110823 -0.11784369 -0.05741665 -0.16058287 0.023453878 -0.091070555 0.0014860234
-0.048391797 -0.0060061538 0.09565777 0.024119303 -0.11424664 0.024957811 -0.020449728 0.06550931
0.11575291 0.0736371 0.124915265 -0.035145827 0.06363173 0.06988887 0.11552101 -0.026821053
0.078186326 -0.009586219 -0.10351272 0.07376902 0.1903448 0.020268427 0.013424886 -0.03900009
0.09673304 0.021991706 0.09033976 0.0031315263 0.027749289 -0.09887786 -0.041743115 0.14681983
0.067868695 -0.08286262 0.027717108 -0.062465113 -0.12826298 0.09241768 0.08381815 0.0022204083
0.06914496 0.11385237 -0.07616967 -0.1376087 0.055511486 0.010249726 0.042563263 0.026380327
-0.0016685246 0.028754195 -0.05581172 -0.059164356 0.028701464 -0.020804843 0.09057048 0.11455818
0.06211851 0.049480475 -0.038917683 -0.11560513 -0.09774098 -0.14203429 0.01221712 -0.11341621
0.0854493 0.04427426 0.10211618 0.07143352 -0.026394026 -0.105938725 0.05944332 0.12798786
0.004694877 0.033216942 0.027252048 -0.038683847 -0.055736564 0.015993923 0.008400793 0.05003483
0.076749966 -0.105121344 -0.05442495 0.13566335 -0.045454647 0.004973603 0.07015307 -0.07820975
-0.110471256 -0.09480307 0.1408763 0.034097042 -0.019721907 -0.0647349 0.029390024 0.084138155
0.017459977 -0.0011517354 0.1765983 -0.090164766 -0.1585099 -0.03710653 0.06474361 0.03034417
0.10585988 0.03835808 0.03883393 0.02112677 -0.03805727 -0.04097115 0.080169015 0.014991398
0.08770382 -0.06732365 0.06576138 -0.17310274 0.18070322 -0.035238046 0.10299822 0.024964994
0.045095634 0.06100284 -0.06540105 0.035068713 -0.18200038 0.115007825 0.0044910936 -0.11301225
0.12417745 0.01548404 0.12676834 0.054127064 -0.03358851 -0.054621585 -0.06880262 0.020096235
0.05234662 0.027256627 0.028114745 0.0058162673 0.009957344 0.08610829 0.015930306 0.005989032
-0.012055948 -0.15074442 -0.0005287839 0.086810805 0.07360003 0.027666397 0.10106433 -0.03326374
0.13258228 -0.06745407 0.086489245 -0.03453622 -0.071265586 -0.17393391 -0.012138704 -0.025176903
0.05254213 -0.050520122 0.0831447 -0.023184774 -0.091971874 -0.11970902 0.04090272 0.141935
0.08955908 -0.0034419692 0.045503017 -0.040005963 0.059320875 -0.095142476 0.15260355 0.109702356

lstm.bias_ih_l1 f4 [256]
00000000: 6969 e63b 666c 0ebb 2099 5abc 8b05 03bd
00000010: 56e3 073d fe9d b23b 990e 31bc c58d c4bc
00000020: ac7d 253c 9d03 ed3c a23d a1bc 9c3b 5b3c
00000030: 2d0d 74bc fe69 1d3b b4f5 203d 3a77 08bb
00000040: 7f05 fabb 0597 5cbb 7366 18bd 62e5 fabc
00000050: 64ea be3c b0f0 83bc 0aaf b1bd 607a 68bc
00000060: 6b8f 8ebc 2c65 153d f00d d7bb e05d 953c
00000070: d9d3 803d 9869 f13c 0d10 8f3c f5ef a33c
00000080: 0d00 bdbc c201 b53c c368 803a 55fd e538
00000090: e7ef e03c 0b4f 24bc d038 afbc 6b4f 1e3d
000000a0: 631c 8c3c 23ef b63c 3fb9 9ebc 9a9a 96bc
000000b0: d73d a1bd c602 03bd 0c18 c7bc db8d c2bd
000000c0: e362 7ebd d2f6 00bc 28bf bd38 114d 513c
000000d0: 829f aabb 3946 bebd 6f66 2c3c c746 09ba
000000e0: f9cc 803a 9da8 33bd 6022 de3b 121b 34bb
000000f0: de46 3abc 0fce 3fbc d58d bb3c 6eb9 22bc
00000100: 8bc0 e2bc 3f66 cabc f0ee 38bd d26d f5bc
00000110: 1eeb 093d a41c ccbc a66b 0cbd 6fad b7bc
00000120: 826c 18bd 944a dd3b 9da0 54bd 0b33 b1bb
00000130: d907 0abd 0302 45bb 4713 273d 4204 bbbc
00000140: d4e1 aebd 2908 90bc ccef 2abd 88b5 c3bc
00000150: b690 01bc db18 2abd 09d3 36bd 55aa 8cbc
00000160: 7583 90bd 0b3c a2bc 092e c3bc af0c a5bc
00000170: a722 7d3d 4df8 15bc ae3f 66bc 13a8 90bc
00000180: 6e67 01bd 35ce b4bc d197 7dbd d0c4 e4bc
00000190: 7622 0abd b1c3 96bc 6cfa e3bc c4a6 793c
000001a0: 0590 a6bc ecf2 35bc dadf c3bc fa21 1cbd
000001b0: e1b4 2cbd 3759 3fbd 9132 14bd fdfc 88bd
000001c0: cda0 82bd bc3c 9fbc 39db 59bd 9160 54bc
000001d0: b2f3 94bc 408c ccbc 21f1 0ebc f177 03bd
000001e0: 1914 6fbc 4271 81bd 5bae 9e3b 76c8 f0bc
000001f0: 6946 7cbc c023 21bd 1cf3 08bb ad30 11bd
00000200: 9929 5ebd f1db 1f3d dfcc 66bd 9b70 2d3d
00000210: 4134 dfbc 62e9 243d a2d2 80bd 2a37 17bd
00000220: e167 6bbd 4f59 1cbd 732d 6c3d b2c1 463d
00000230: 3295 573d 6c7d 3f3d c003 10bd 63de 043d
00000240: 6104 69bd 1e1d 35bd 0e30 0abd d1d2 babc
00000250: 4f9a a33d 74bd 1b3d cb20 96bc d3d4 87bd
00000260: 5057 1ebd 5bd3 73bd 8192 0fbd b63a 0b3d
00000270: b066 46bd f0cf 48bd 53f3 7abd 6768 4cbd
00000280: 450e 30bd 1dff 0c3d bd46 213d cce1 f8bc
00000290: e84f 8abd a4f7 123d b80f 6fbd 0ca9 a03d
000002a0: 668a 8fbd 6002 253d 3ab7 34bd e37b 363d
000002b0: 3787 59bc f040 9b3d 0141 a0bd cf2f 98bc
000002c0: 8791 ffbc 76c5 0a3d fb44 7dbd 9e81 1d3d
000002d0: 2e48 053d 101f 2cbc f8c4 4cbd 326b 17bd
000002e0: 23bc 09bd a159 2cbd 728c 7e3d 4a90 673d
000002f0: e66d 08bd f950 3a3d 9eda 46bd 8b9e 04bd
00000300: 156c 8fbc 2068 a3bc 0bbc cbbc f386 1cbd
00000310: 5919 32bd b161 c1bc a15b 0fbd ab2d eebc
00000320: aed1 2fbc 5bb6 0dbd 88f7 1ebd 8058 f53a
00000330: 26ba 5bbd c08a 623a 093c debc b2de 62bc
00000340: 9efd 07bd 48bf 8dbc fec9 36bd 4f0d 07bd
00000350: 87b9 d6bb fc28 59bc 718e a0bd 3be3 46bc
00000360: 3d87 65bd 1c6a c7bc 024c 02bd 174a 69bc
00000370: e0ee 95b9 0a95 a5bc f7a9 dfbc b1c1 9ebb
00000380: b90f fabc 3dc5 c5bb d668 c3bc bba9 66bc
00000390: 8d58 bcbc 6438 1ebc 04a8 f4bc e2a0 dfbc
000003a0: c08f a9bc 082c e6bc 60e6 ddbc ee66 aabc
000003b0: 769f 90bd 6f1d fabc dcd0 5fbd c739 b9bd
000003c0: 54db 53bd 15f1 00bd 1751 05bc 24f8 5cbb
000003d0: 60d8 a1bc 39eb b7bd 98d6 37bc 415e d0bc
000003e0: bb5a 02bd 1e75 44bd 4627 80bd 86f2 a9bc
000003f0: f0f2 dcbc 41bf 83bc bedf b8bb 82c0 87bc
0.007031609 -0.002173209 -0.013342172 -0.031987708 0.03317579 0.005450963 -0.010806703 -0.023993382
0.010100763 0.028932387 -0.01968271 0.013380911 -0.0148957195 0.0024019475 0.03929682 -0.0020823018
-0.0076300497 -0.003365935 -0.03720708 -0.030626956 0.023305126 -0.01610598 -0.08675964 -0.014189333
-0.017402371 0.03647344 -0.006562941 0.01823324 0.06290407 0.029469296 0.017463708 0.020011881
-0.023071313 0.022095565 0.0009796846 0.00010966758 0.027458144 -0.010028611 -0.021389395 0.038649958
0.01710338 0.022330826 -0.019375442 -0.018384267 -0.07873123 -0.031985067 -0.024303459 -0.09499713
-0.062106024 -0.007871347 9.047828e-05 0.012774722 -0.005207003 -0.09290738 0.010522469 -0.0005236682
0.0009826712 -0.043861974 0.006779 -0.0027481955 -0.011369435 -0.011706843 0.02289478 -0.009931905
-0.027679702 -0.024706958 -0.045149744 -0.029959593 0.03367149 -0.024916 -0.03428235 -0.022421567
-0.037212856 0.006753275 -0.051910985 -0.005407696 -0.03369889 -0.0030061014 0.04078987 -0.022829179
-0.08539167 -0.017582016 -0.041732594 -0.023890272 -0.007908037 -0.04152761 -0.044634853 -0.017171064
-0.070563234 -0.019804021 -0.023825662 -0.02014765 0.061800625 -0.009153438 -0.014053268 -0.017658269
-0.03159278 -0.022070983 -0.06191236 -0.027925879 -0.03372427 -0.01840386 -0.027829371 0.015237514
-0.020332346 -0.01110528 -0.023910452 -0.03811834 -0.042164687 -0.04671594 -0.036181036 -0.06688879
-0.063783266 -0.01943814 -0.053187583 -0.012962476 -0.01818261 -0.02496922 -0.008724482 -0.032096807
-0.014592194 -0.0632043 0.004842562 -0.029392462 -0.015397646 -0.039340734 -0.0020896858 -0.03544681
-0.05423889 0.03902811 -0.056347724 0.042343717 -0.027246596 0.040261634 -0.06290175 -0.036917843
-0.057472114 -0.03817111 0.05766053 0.048524566 0.052632518 0.04675047 -0.035159826 0.032438647
-0.05688894 -0.04421722 -0.033737235 -0.022805603 0.079884164 0.038022473 -0.018326184 -0.0663239
-0.038657486 -0.059527736 -0.035051826 0.033991538 -0.048437774 -0.04902643 -0.06126721 -0.049904253
-0.04298236 0.034422982 0.039374102 -0.030381106 -0.06753522 0.0358807 -0.0583646 0.07844743
-0.07008819 0.040285468 -0.04412005 0.04455174 -0.013276867 0.07580745 -0.078248985 -0.018577484
-0.031197323 0.03387972 -0.061833363 0.03845369 0.03253954 -0.010505453 -0.04999253 -0.036967464
-0.033626687 -0.042077664 0.062145658 0.05653409 -0.033307932 0.045487378 -0.048548333 -0.03237776
-0.017507592 -0.019947112 -0.02486994 -0.038214635 -0.043481205 -0.023606153 -0.034999494 -0.02907451
-0.010731144 -0.034597736 -0.038810283 0.0018718392 -0.05364432 0.0008641891 -0.027128236 -0.01384704
-0.033200853 -0.017303124 -0.04462623 -0.032971676 -0.0065528783 -0.0132544 -0.078396685 -0.012139137
-0.056037176 -0.02434259 -0.031810768 -0.014238856 -0.0002859747 -0.020212669 -0.027302725 -0.004844867
-0.030525075 -0.0060354755 -0.0238537 -0.014078553 -0.022991443 -0.009656999 -0.029865272 -0.027298395
-0.020698428 -0.028097168 -0.02708739 -0.020801034 -0.07061665 -0.030531613 -0.054642543 -0.09044223
-0.05172284 -0.031479914 -0.008137009 -0.003371724 -0.019756496 -0.08980412 -0.011220597 -0.025435569
-0.03182481 -0.047963254 -0.06257491 -0.020745527 -0.02697131 -0.016082408 -0.0056419065 -0.016571287

lstm.bias_hh_l1 f4 [256]
00000000: 6969 e63b 666c 0ebb 2099 5abc 8b05 03bd
00000010: 56e3 073d fe9d b23b 990e 31bc c58d c4bc
00000020: ac7d 253c 9d03 ed3c a23d a1bc 9c3b 5b3c
00000030: 2d0d 74bc fe69 1d3b b4f5 203d 3a77 08bb
00000040: 7f05 fabb 0597 5cbb 7366 18bd 62e5 fabc
00000050: 64ea be3c b0f0 83bc 0aaf b1bd 607a 68bc
00000060: 6b8f 8ebc 2c65 153d f00d d7bb e05d 953c
00000070: d9d3 803d 9869 f13c 0d10 8f3c f5ef a33c
00000080: 0d00 bdbc c201 b53c c368 803a 55fd e538
00000090: e7ef e03c 0b4f 24bc d038 afbc 6b4f 1e3d
000000a0: 631c 8c3c 23ef b63c 3fb9 9ebc 9a9a 96bc
000000b0: d73d a1bd c602 03bd 0c18 c7bc db8d c2bd
000000c0: e362 7ebd d2f6 00bc 28bf bd38 114d 513c
000000d0: 829f aabb 3946 bebd 6f66 2c3c c746 09ba
000000e0: f9cc 803a 9da8 33bd 6022 de3b 121b 34bb
000000f0: de46 3abc 0fce 3fbc d58d bb3c 6eb9 22bc
00000100: 8bc0 e2bc 3f66 cabc f0ee 38bd d26d f5bc
00000110: 1eeb 093d a41c ccbc a66b 0cbd 6fad b7bc
00000120: 826c 18bd 944a dd3b 9da0 54bd 0b33 b1bb
00000130: d907 0abd 0302 45bb 4713 273d 4204 bbbc
00000140: d4e1 aebd 2908 90bc ccef 2abd 88b5 c3bc
00000150: b690 01bc db18 2abd 09d3 36bd 55aa 8cbc
00000160: 7583 90bd 0b3c a2bc 092e c3bc af0c a5bc
00000170: a722 7d3d 4df8 15bc ae3f 66bc 13a8 90bc
00000180: 6e67 01bd 35ce b4bc d197 7dbd d0c4 e4bc
00000190: 7622 0abd b1c3 96bc 6cfa e3bc c4a6 793c
000001a0: 0590 a6bc ecf2 35bc dadf c3bc fa21 1cbd
000001b0: e1b4 2cbd 3759 3fbd 9132 14bd fdfc 88bd
000001c0: cda0 82bd bc3c 9fbc 39db 59bd 9160 54bc
000001d0: b2f3 94bc 408c ccbc 21f1 0ebc f177 03bd
000001e0: 1914 6fbc 4271 81bd 5bae 9e3b 76c8 f0bc
000001f0: 6946 7cbc c023 21bd 1cf3 08bb ad30 11bd
00000200: 9929 5ebd f1db 1f3d dfcc 66bd 9b70 2d3d
00000210: 4134 dfbc 62e9 243d a2d2 80bd 2a37 17bd
00000220: e167 6bbd 4f59 1cbd 732d 6c3d b2c1 463d
00000230: 3295 573d 6c7d 3f3d c003 10bd 63de 043d
00000240: 6104 69bd 1e1d 35bd 0e30 0abd d1d2 babc
00000250: 4f9a a33d 74bd 1b3d cb20 96bc d3d4 87bd
00000260: 5057 1ebd 5bd3 73bd 8192 0fbd b63a 0b3d
00000270: b066 46bd f0cf 48bd 53f3 7abd 6768 4cbd
00000280: 450e 30bd 1dff 0c3d bd46 213d cce1 f8bc
00000290: e84f 8abd a4f7 123d b80f 6fbd 0ca9 a03d
000002a0: 668a 8fbd 6002 253d 3ab7 34bd e37b 363d
000002b0: 3787 59bc f040 9b3d 0141 a0bd cf2f 98bc
000002c0: 8791 ffbc 76c5 0a3d fb44 7dbd 9e81 1d3d
000002d0: 2e48 053d 101f 2cbc f8c4 4cbd 326b 17bd
000002e0: 23bc 09bd a159 2cbd 728c 7e3d 4a90 673d
000002f0: e66d 08bd f950 3a3d 9eda 46bd 8b9e 04bd
00000300: 156c 8fbc 2068 a3bc 0bbc cbbc f386 1cbd
00000310: 5919 32bd b161 c1bc a15b 0fbd ab2d eebc
00000320: aed1 2fbc 5bb6 0dbd 88f7 1ebd 8058 f53a
00000330: 26ba 5bbd c08a 623a 093c debc b2de 62bc
00000340: 9efd 07bd 48bf 8dbc fec9 36bd 4f0d 07bd
00000350: 87b9 d6bb fc28 59bc 718e a0bd 3be3 46bc
00000360: 3d87 65bd 1c6a c7bc 024c 02bd 174a 69bc
00000370: e0ee 95b9 0a95 a5bc f7a9 dfbc b1c1 9ebb
00000380: b90f fabc 3dc5 c5bb d668 c3bc bba9 66bc
00000390: 8d58 bcbc 6438 1ebc 04a8 f4bc e2a0 dfbc
000003a0: c08f a9bc 082c e6bc 60e6 ddbc ee66 aabc
000003b0: 769f 90bd 6f1d fabc dcd0 5fbd c739 b9bd
000003c0: 54db 53bd 15f1 00bd 1751 05bc 24f8 5cbb
000003d0: 60d8 a1bc 39eb b7bd 98d6 37bc 415e d0bc
000003e0: bb5a 02bd 1e75 44bd 4627 80bd 86f2 a9bc
000003f0: f0f2 dcbc 41bf 83bc bedf b8bb 82c0 87bc
0.007031609 -0.002173209 -0.013342172 -0.031987708 0.03317579 0.005450963 -0.010806703 -0.023993382
0.010100763 0.028932387 -0.01968271 0.013380911 -0.0148957195 0.0024019475 0.03929682 -0.0020823018
-0.0076300497 -0.003365935 -0.03720708 -0.030626956 0.023305126 -0.01610598 -0.08675964 -0.014189333
-0.017402371 0.03647344 -0.006562941 0.01823324 0.06290407 0.029469296 0.017463708 0.020011881
-0.023071313 0.022095565 0.0009796846 0.00010966758 0.027458144 -0.010028611 -0.021389395 0.038649958
0.01710338 0.022330826 -0.019375442 -0.018384267 -0.07873123 -0.031985067 -0.024303459 -0.09499713
-0.062106024 -0.007871347 9.047828e-05 0.012774722 -0.005207003 -0.09290738 0.010522469 -0.0005236682
0.0009826712 -0.043861974 0.006779 -0.0027481955 -0.011369435 -0.011706843 0.02289478 -0.009931905
-0.027679702 -0.024706958 -0.045149744 -0.029959593 0.03367149 -0.024916 -0.03428235 -0.022421567
-0.037212856 0.006753275 -0.051910985 -0.005407696 -0.03369889 -0.0030061014 0.04078987 -0.022829179
-0.08539167 -0.017582016 -0.041732594 -0.023890272 -0.007908037 -0.04152761 -0.044634853 -0.017171064
-0.070563234 -0.019804021 -0.023825662 -0.02014765 0.061800625 -0.009153438 -0.014053268 -0.017658269
-0.03159278 -0.022070983 -0.06191236 -0.027925879 -0.03372427 -0.01840386 -0.027829371 0.015237514
-0.020332346 -0.01110528 -0.023910452 -0.03811834 -0.042164687 -0.04671594 -0.036181036 -0.06688879
-0.063783266 -0.01943814 -0.053187583 -0.012962476 -0.01818261 -0.02496922 -0.008724482 -0.032096807
-0.014592194 -0.0632043 0.004842562 -0.029392462 -0.015397646 -0.039340734 -0.0020896858 -0.03544681
-0.05423889 0.03902811 -0.056347724 0.042343717 -0.027246596 0.040261634 -0.06290175 -0.036917843
-0.057472114 -0.03817111 0.05766053 0.048524566 0.052632518 0.04675047 -0.035159826 0.032438647
-0.05688894 -0.04421722 -0.033737235 -0.022805603 0.079884164 0.038022473 -0.018326184 -0.0663239
-0.038657486 -0.059527736 -0.035051826 0.033991538 -0.048437774 -0.04902643 -0.06126721 -0.049904253
-0.04298236 0.034422982 0.039374102 -0.030381106 -0.06753522 0.0358807 -0.0583646 0.07844743
-0.07008819 0.040285468 -0.04412005 0.04455174 -0.013276867 0.07580745 -0.078248985 -0.018577484
-0.031197323 0.03387972 -0.061833363 0.03845369 0.03253954 -0.010505453 -0.04999253 -0.036967464
-0.033626687 -0.042077664 0.062145658 0.05653409 -0.033307932 0.045487378 -0.048548333 -0.03237776
-0.017507592 -0.019947112 -0.02486994 -0.038214635 -0.043481205 -0.023606153 -0.034999494 -0.02907451
-0.010731144 -0.034597736 -0.038810283 0.0018718392 -0.05364432 0.0008641891 -0.027128236 -0.01384704
-0.033200853 -0.017303124 -0.04462623 -0.032971676 -0.0065528783 -0.0132544 -0.078396685 -0.012139137
-0.056037176 -0.02434259 -0.031810768 -0.014238856 -0.0002859747 -0.020212669 -0.027302725 -0.004844867
-0.030525075 -0.0060354755 -0.0238537 -0.014078553 -0.022991443 -0.009656999 -0.029865272 -0.027298395
-0.020698428 -0.028097168 -0.02708739 -0.020801034 -0.07061665 -0.030531613 -0.054642543 -0.09044223
-0.05172284 -0.031479914 -0.008137009 -0.003371724 -0.019756496 -0.08980412 -0.011220597 -0.025435569
-0.03182481 -0.047963254 -0.06257491 -0.020745527 -0.02697131 -0.016082408 -0.0056419065 -0.016571287

fc.weight f4 [1, 64]
00000000: 2a5d 94bd 3433 893d 9e47 ddbd 3806 c33d
00000010: 31a5 7ebd 7849 933d 2687 9ebd 2053 ecbc
00000020: 2968 63bd 21c3 eebc a9a2 493d ee4d 553d
00000030: d7e1 1a3d bd4e 4b3d 72c7 f8bc ec1c c93d
00000040: 7ff3 6ebd f28d 5abd ed97 76bd 197d 70bd
00000050: 121b b33d b269 973d 8f1e ed3a ea4c bcbd
00000060: a3a5 15bd 27a2 44bd 74fc 4ebd b57e 4d3d
00000070: c8e2 39bd 65b4 50bd 2406 8cbd e120 6dbd
00000080: f866 c2bd eba8 1a3d 8091 583d 08cc 48bd
00000090: b22d e2bd 3433 833d 5927 88bd 70cd 643d
000000a0: 6bc6 8bbd eeee 933d 8581 d0bd bc25 723d
000000b0: 0613 1a3a 1273 3d3d 6db6 34bd bb82 57bc
000000c0: 1751 3abd eee2 cd3d 9e1d 71bd fb27 293d
000000d0: ba65 803d 6a39 703b 4b21 4ebd b616 4abd
000000e0: 1bc0 b4bd ddab 03bd eb84 273d eb43 a13d
000000f0: 0e54 b9bd 5dcb ac3d 611a 2dbd d01a 3dbd
-0.07244332 0.06699219 -0.108046755 0.095226705 -0.062169258 0.071917474 -0.07740621 -0.02884823
-0.055519257 -0.02914578 0.04922739 0.052076273 0.037813034 0.049635638 -0.03036854 0.098199695
-0.058337685 -0.053358026 -0.06020348 -0.058713052 0.087453976 0.07393207 0.0018090772 -0.09194358
-0.036534917 -0.048006203 -0.050533727 0.050169665 -0.04538229 -0.050953288 -0.06837109 -0.057892684
-0.09492296 0.03775875 0.052873135 -0.049022704 -0.11043872 0.064062506 -0.0664813 0.055859983
-0.068249546 0.072233066 -0.10180954 0.059118018 0.00058774685 0.046252318 -0.044119287 -0.013153727
-0.04548749 0.10053049 -0.058866136 0.041297894 0.06269403 0.0036655315 -0.05032472 -0.049338065
-0.08825704 -0.032146323 0.040898245 0.078742824 -0.09049235 0.08437226 -0.042261485 -0.04616815
