ML/models/BTC/4h/lstm_model.pth (torch, 223932 bytes, 9 tensors)

lstm.weight_ih_l0 f4 [256, 19]
000000 8d 54 0f bd 76 b8 8d 3d 8d b7 17 bd ff 84 68 bd
       -0.034992743 0.06919949 -0.037040282 -0.05676746
000010 f9 94 36 3d 34 b5 45 3c ec 04 ae bd a5 3a b8 3d
       0.044575665 0.012067128 -0.084970325 0.089955606
000020 e3 29 28 bd ff 28 b7 3a 73 83 a3 3d 78 d3 80 3d
       -0.04105557 0.001397401 0.07984056 0.062903345
000030 77 db bb bd 14 98 0f be d2 6e be 3d c7 58 10 bd
       -0.09172719 -0.14022857 0.09298481 -0.035240915
000040 90 47 0d be 68 96 68 bc 1d 7f 08 3c 4e 23 02 3e
       -0.1379683 -0.014196016 0.008331087 0.1270878
000050 69 94 89 3d 1f 32 50 bc c7 40 38 3d fd ef 03 3e
       0.0671776 -0.012707262 0.04498365 0.12884517
000060 82 18 dd 3c e5 cc 13 3c 87 31 12 3e 0a c1 c2 3c
       0.026989225 0.009021019 0.14276706 0.023773689
000070 c3 bf b7 bd 5d e9 1c 3d 16 8b 9c bd 7b ca b5 3d
       -0.089721225 0.03830849 -0.07643716 0.08876511
000080 0c 0a ac 3d 22 9e 2c bd 88 92 03 3e 0a 9e 08 be
       0.08400354 -0.042142995 0.12848866 -0.13341537
000090 98 1c 77 3d 8a d1 f5 3c 71 60 e1 bd db b0 03 3d
       0.060330003 0.030007143 -0.11004723 0.032151084
0000a0 cf 42 0d be 98 06 e1 3c a7 ca f8 3d 23 01 c2 bd
       -0.13795017 0.027468964 0.12148028 -0.09472873
0000b0 42 65 03 be 7d bf 05 be 92 0c 92 bd a0 43 87 3d
       -0.12831596 -0.13061328 -0.07131304 0.06604695
0000c0 a5 16 c3 bd 18 30 4e bc c8 e2 9b bd 95 fa f9 3d
       -0.095258035 -0.012584709 -0.076116145 0.12205998
0000d0 b7 c5 de bd 8c 7f 9e 3d 19 1a 31 3d 14 91 da bd
       -0.10877555 0.077391714 0.04323778 -0.10672203
0000e0 18 4a c2 bd e3 da 86 bd 3e 63 01 be 60 a4 75 bd
       -0.094867885 -0.06584718 -0.12635514 -0.059971213
0000f0 4d 99 b2 3d b3 33 1d bd b6 4c 91 3d c3 bf 45 3d
       0.08720646 -0.038379382 0.070947096 0.04827858
000100 62 e1 8e bd 00 2d 83 3d 07 e1 09 3c f2 9e fe bd
       -0.06976582 0.064050674 0.008415467 -0.1243266
000110 b1 16 c7 3d da e3 2e 3d 83 b5 4d 3d d0 6b fa 3d
       0.09721125 0.042697765 0.05022193 0.12227595
000120 b7 66 bf 3d 4b 3f d8 bd 61 8f c3 bd f2 2e 7c bd
       0.09345763 -0.10558947 -0.09548832 -0.061568208
000130 2d c4 11 3e a3 03 46 bc 6d c2 39 3c bb 09 e7 3d
       0.14234991 -0.012085828 0.011337859 0.11281153
000140 53 e8 96 bd 6d 57 0b 3e 28 c8 fe bd a0 78 be bd
       -0.07368531 0.13607569 -0.124405205 -0.09300351
000150 cc 01 33 3d 03 77 d0 3d ce 2a f4 bd 4d ec 94 bd
       0.043702886 0.1017895 -0.11922227 -0.07271633
000160 2a be 11 3d bc 25 f6 3d c3 dd 50 3d eb fb 0d be
       0.035581745 0.12018916 0.05099274 -0.1386563
000170 c9 fb 09 3e 38 bd aa 3d 7f 0d db bd 26 25 6a bc
       0.13474955 0.08336872 -0.106959336 -0.014291083
000180 a4 cc b6 3d 52 5a ba 3d bc e9 fb bd c3 02 fd bd
       0.08925751 0.090992585 -0.12300441 -0.123540424
000190 30 b9 f4 3d ef 7d 77 bd dd e5 0d 3d 17 8d d9 3a
       0.11949384 -0.060422834 0.034643043 0.0016597834
0001a0 a9 55 0e be 51 01 61 3d c7 a3 dd bd fe 5d 80 3d
       -0.13899864 0.054932896 -0.10822254 0.062679276
0001b0 18 f7 cc 3c 72 21 0d bc f9 53 1c 3d e9 9a 02 3e
       0.025020167 -0.008613931 0.03816602 0.12754406
0001c0 38 b0 d6 3d 46 a3 c7 bd c1 ef b9 bd c0 c3 0d 3e
       0.1048283 -0.09747939 -0.090789326 0.13844204
0001d0 91 d5 9f 3d 45 f0 95 bd 15 e2 e4 3d d3 c9 48 3b
       0.078044064 -0.073212184 0.11175934 0.0030637875
0001e0 44 a5 8c 3d 66 fa ba 3d 11 9c f9 bd 03 6e 81 3d
       0.068674594 0.09129791 -0.121879704 0.06319811
0001f0 b1 4f 0f 3e d1 9e 56 3d 09 5d 08 3e 95 57 8d 3d
       0.13995244 0.052397553 0.1331674 0.069014706
000200 b0 81 a2 3d 12 32 b5 bd 01 7b 1e bc 1c ba 23 3d
       0.07934892 -0.08847441 -0.009672881 0.03997241
000210 91 a6 dd bd 1e a6 e9 bd 4b c2 b2 bd 98 73 f6 3d
       -0.10822786 -0.114086375 -0.08728465 0.120337665
000220 c5 9d b1 bd 00 6e 2d 3d 2b 23 01 3d 79 95 05 3d
       -0.0867267 0.042341232 0.03152768 0.03261325
000230 d6 45 b9 3d 98 0c c3 bc a7 8d 9b bd da 98 89 bd
       0.09046523 -0.023809716 -0.075953774 -0.06718607
000240 f1 e3 d7 bc 7b c5 f6 bd b2 74 09 3e 71 94 f7 bd
       -0.026353808 -0.12049385 0.13423422 -0.1208886
000250 97 42 8a 3c 51 06 41 3c 51 80 ac bc 9f 4a 9a bd
       0.016877456 0.011781291 -0.02105728 -0.07533764
000260 a6 84 14 3d db c0 66 3d 51 ab c3 3d 7c a0 0b 3e
       0.036259316 0.056336265 0.095541604 0.13635439
000270 45 ab be 3d c8 7f 79 bb 2a d6 15 3e ab 4e 16 3e
       0.09310011 -0.0038070548 0.14632478 0.14678447
000280 3f 38 f2 3d 86 0b 93 3d bd 03 fa 3d 25 f3 f2 bd
       0.11827134 0.07179932 0.12207744 -0.118627824
000290 62 e4 f2 bd df f2 1c bd bd 4f e6 3d e0 57 5e bd
       -0.11859967 -0.038317557 0.112456776 -0.054283023
0002a0 d1 35 96 3d 57 1f 36 bc a1 6a 0d 3e b5 6d 01 3d
       0.073344834 -0.01111587 0.13810207 0.031598765
0002b0 e2 af 00 be 87 87 14 3e 09 7b 02 bd 29 00 80 bc
       -0.12567094 0.14504825 -0.031855617 -0.015625076
0002c0 4e 39 4d 3d 0a 28 9b 3d 38 d9 75 bd 39 c2 18 bd
       0.050103478 0.07575996 -0.06002161 -0.0372946
0002d0 5a bd 8b 3c d5 a0 a6 bd 40 83 86 bc e3 a9 19 3d
       0.017058063 -0.08136145 -0.016420007 0.037515532
0002e0 6c 3d 29 3d 05 79 08 bd 1e 9f 0b 3e 3f cb f1 bd
       0.041318342 -0.03331854 0.13634917 -0.11806344
0002f0 dd 09 b9 bd 07 61 fa bd a0 69 52 b8 b8 73 fe 3c
       -0.090350844 -0.12225538 -5.0166273e-05 0.031061038
000300 9a c7 b1 bb 18 1a f5 3d ca a6 b7 3d d0 42 f9 3d
       -0.0054254057 0.119678676 0.08967359 0.121709466
000310 98 95 0f be d4 79 0c be b5 69 97 3b c8 19 04 3e
       -0.14021909 -0.13718349 0.0046207556 0.1290046
000320 e8 78 b9 3d 44 84 d5 bc 2d 5b 3f 3d 63 d5 65 bd
       0.09056264 -0.026064046 0.04671781 -0.056111705
000330 97 d4 b2 3d 30 21 b1 bd 71 22 36 bc 2a 3d 4c bd
       0.087319545 -0.08648908 -0.01111661 -0.049863018
000340 c2 4a b2 bd e5 53 f3 3d b2 ef 9d bd 2b a3 df 3d
       -0.08705665 0.11881236 -0.07711734 0.10919794
000350 23 34 10 3e 3d 1d c0 bd 44 7d 5a 3d c9 d9 b4 bc
       0.14082389 -0.09380577 0.05334212 -0.022076504
000360 67 e8 1e bd 03 c5 0a be 76 a8 13 be 35 4b 13 be
       -0.038795855 -0.13551717 -0.14419731 -0.14384158
000370 ed f4 f1 bd f6 fd 0b 3e c7 86 11 3e 45 64 06 bc
       -0.11814294 0.13671097 0.1421157 -0.008202617
000380 e1 22 40 3d 04 c0 02 3e cf 7c f8 bd c0 12 57 bd
       0.046908263 0.1276856 -0.1213318 -0.052508116
000390 36 29 85 3d 6b 7b ff 3d d3 6a 98 bd dc 38 ea bd
       0.06502001 0.12474712 -0.0744225 -0.11436626
0003a0 f2 90 07 be eb ab 9a 3d 90 92 9d 3d 75 6f 0f be
       -0.13238886 0.07552322 0.0769397 -0.14007361
0003b0 e8 8e 91 3d 5d 93 e3 bc 99 78 2e bd 4b e1 c4 3d
       0.07107335 -0.02778023 -0.04259548 0.09613284
0003c0 6f d9 15 be fb 10 bc 3d fd 48 0b 3e 1f f5 b2 bd
       -0.14633726 0.09182926 0.13602062 -0.087381594
0003d0 4f 63 e5 3d 8a d7 13 be 33 ef 99 3b 75 d1 a6 3d
       0.11200582 -0.1443769 0.004697704 0.081454195
0003e0 42 88 72 3c ba f4 d8 bd 25 0a 5a bd 79 22 af 3d
       0.014802994 -0.10593553 -0.05323233 0.08551497
0003f0 f4 c7 07 bc 98 1f 67 3d 60 00 dc bc 32 b3 0e be
       -0.008287419 0.056426615 -0.026855648 -0.13935545

lstm.weight_hh_l0 f4 [256, 64]
000000 80 a6 c2 3c 38 d7 83 3d 0c bf 92 bc 30 81 db 3d
       0.023761034 0.06437534 -0.017913364 0.10718
000010 6e 8e 9c bd 3f 64 a1 3c e9 f4 ae bc bc cc c3 bd
       -0.07644354 0.019701121 -0.021357017 -0.09560534
000020 20 ba 37 bb 10 55 50 3b 94 a3 8b 3d 35 34 a6 3d
       -0.0028034523 0.0031788982 0.068183094 0.081154265
000030 52 46 a1 3c cc 2c 3b bd 80 fa 1d bc 58 53 0a 3e
       0.019686852 -0.04569702 -0.009642243 0.13508356
000040 b0 c9 9c bd 02 f3 b5 bd 9a bb 8c bd b5 95 9d bd
       -0.07655656 -0.08884241 -0.0687172 -0.0769457
000050 1f 86 e3 3b d9 6a 04 3d 68 25 92 bc 7c f6 5b 3d
       0.0069434787 0.03232846 -0.017840102 0.053701863
000060 b8 5a b0 3d 44 4d b9 3d 47 35 39 3c b6 a3 44 3d
       0.08611053 0.090479404 0.011304206 0.04800769
000070 a0 b8 0c 3a ee cc 9f bc 89 7e 92 bc 33 60 ab 3d
       0.00053680874 -0.019506898 -0.017882602 0.08367958
000080 1d 3a ab bd a0 c6 02 3a f0 b4 52 3d ae 7a e1 3c
       -0.083606936 0.0004988704 0.051442087 0.027524319
000090 c2 66 ed 3d a8 71 28 3d 83 a8 53 bb 90 01 58 bd
       0.11591865 0.041124016 -0.0032296486 -0.052735865
0000a0 ab 33 99 bc 0f 10 d6 bc 00 e3 29 38 7b a0 89 be
       -0.018701395 -0.026130704 4.050415e-05 -0.2688025
0000b0 60 fe 50 bd c8 d2 76 3d ea e6 7e bd 06 b1 f4 3c
       -0.05102384 0.06025961 -0.062231936 0.029869568
0000c0 0c 97 70 bd 83 ab a8 3d 42 28 c9 3c e4 bb 8f 3d
       -0.0587378 0.08235838 0.02455533 0.07018259
0000d0 6b 4f 0c bd f6 2c 9d 3c c4 87 9f bc 89 a4 43 bd
       -0.034255426 0.019186478 -0.019473918 -0.047764335
0000e0 ce 27 ad 3c cd b8 03 bd 69 3c 7f 3d a6 3c b5 3c
       0.021137144 -0.03215866 0.06231347 0.022123646
0000f0 30 ff e3 bc 16 4c 58 3d 70 e2 da bc 37 e0 d9 3b
       -0.027831644 0.052806936 -0.026719302 0.006649043
000100 64 2d 9a 3d 00 24 d5 3d a7 8e db 3c 5c 4f 87 3d
       0.07528189 0.10407257 0.02680142 0.066069335
000110 9c d7 fe bc 03 0b ea 3c dc 78 36 bd 08 2a 82 3c
       -0.03110867 0.028569704 -0.044548854 0.015889183
000120 17 0e cc 3d fe c1 82 bb 96 0a e4 bc 5f d6 98 3d
       0.09963625 -0.003990411 -0.027837079 0.07462763
000130 bc 5e be bd ae d5 4b 3d c4 00 b4 3d 42 08 9d 3c
       -0.09295413 0.049764328 0.087892085 0.019168977
000140 9e 63 5f 3c 96 09 45 3d 53 5b 93 bd ba 7c e7 3d
       0.01363459 0.048104845 -0.07195153 0.113030866
000150 fa cf d6 bd 4a 68 47 bd 2a 2c 30 bd e1 76 72 bc
       -0.10488887 -0.048683442 -0.043010868 -0.014798851
000160 67 cc ff bd 62 95 7a bd 23 72 0a 3c b0 b6 b2 3c
       -0.124901585 -0.06117762 0.008450064 0.021815628
000170 a0 7a f5 b5 ac 9c 55 bc 08 22 c9 bc f7 88 cd bd
       -1.8289611e-06 -0.013037842 -0.02455236 -0.100358896
000180 74 f9 1f 3d da 6a a3 bc 5b 9f f2 bd 22 ae 97 3b
       0.039056256 -0.019948412 -0.11846801 0.0046289125
000190 ae fe 13 3e a6 0f 91 3d 50 2e 5f bd c6 fc a4 3c
       0.14452621 0.07083063 -0.054487526 0.020140063
0001a0 9b 21 1f be 9c 7f 37 bd 68 13 b8 bb 92 af 50 bd
       -0.15540163 -0.044799432 -0.005617548 -0.050948687
0001b0 16 c9 88 bd 59 d6 87 3d a7 7e 44 3d 28 58 c4 3a
       -0.06678979 0.066326804 0.047972348 0.0014979886
0001c0 7f 80 9d 3d d0 9e a8 bd 4e 0c 42 3c 80 72 a6 b9
       0.07690524 -0.08233416 0.011843754 -0.00031747296
0001d0 da d5 53 3d 0f bd d3 3c b3 e4 8a bd 38 df 94 3d
       0.051717617 0.025846986 -0.06781902 0.07269138
0001e0 ec 23 0a bd ad cf ff 3c 8d b0 dc bb 49 2d d6 3b
       -0.033725664 0.031226957 -0.0067349137 0.00653616
0001f0 ed e0 04 3d c8 ac 0a 3d e6 fe 00 bc 7c 62 ad 3d
       0.03244107 0.033856183 -0.0078732725 0.0846605
000200 80 2a 6a bd e6 06 19 bd 00 90 57 3d e3 7c 9e bb
       -0.057169437 -0.037360094 0.052627563 -0.004836665
000210 c3 6a cc 3c 52 db 62 3d 41 81 fe bc f4 5c 90 3d
       0.024953252 0.05538494 -0.031067492 0.070489794
000220 ce 36 35 3d df 38 5e 3c 17 be 25 3d a6 9e 82 bd
       0.04424172 0.013563364 0.040464487 -0.06377916
000230 36 14 21 3c eb 96 8b bc aa 7c 81 bd 80 03 83 3d
       0.009831479 -0.017039737 -0.06322606 0.06397152
000240 a0 64 01 3d 7e d6 b7 bd 62 4a b2 3d 19 0f ba bc
       0.031590104 -0.08976458 0.08705594 -0.022712277
000250 d7 4f 95 3c ad 08 86 3d 5c 21 1a 3d 9a 19 3a bb
       0.018226547 0.065446235 0.03762947 -0.0028396607
000260 fc 5e 11 be ee fc 16 3d e4 01 76 bd 3b 43 18 be
       -0.1419639 0.036862306 -0.060060397 -0.14869396
000270 30 31 5e 3d aa 9b 1b bc e4 db 27 bd a5 23 5a 3d
       0.054246128 -0.009497562 -0.04098119 0.05325665
000280 0e 4a e9 bd c4 a2 85 3d d4 43 22 3e 51 0a 93 bd
       -0.11391078 0.06525186 0.15846187 -0.07179702
000290 e1 0e c9 3b 6a df 06 3d b3 a2 20 3d 94 c6 54 3d
       0.006135807 0.032927908 0.039217662 0.05194719
0002a0 04 08 44 bd f6 86 eb bb 4c 95 01 bc ee 88 91 bd
       -0.047859207 -0.0071877195 -0.00790913 -0.071061954
0002b0 12 da a3 bd 5c d7 14 ba 9d 12 74 3d 0a c9 25 3d
       -0.08000578 -0.0005677843 0.059588064 0.04047493
0002c0 07 03 77 bd 61 f6 cb 3d bf 4a 78 3d e5 38 2a bc
       -0.06030562 0.099591024 0.06061816 -0.010389541
0002d0 b6 c7 77 3c ca 6a 6c 3d c2 88 fe 3d 81 2c 80 3c
       0.015123298 0.05771903 0.12428428 0.015646221
0002e0 ec d3 fd bd 4e bc 67 3b 24 35 2c 3d d7 29 47 bd
       -0.123939365 0.003536004 0.042042866 -0.048623886
0002f0 2b 2a 55 3d 23 de ec 3d ea f0 cc 3d 18 9b 88 3d
       0.052042168 0.11565807 0.10006888 0.06670207
000300 94 6d 2a bd f8 f7 9d 3b 04 84 d5 3d 60 d8 3c 3d
       -0.041608408 0.00482082 0.104255706 0.04610479
000310 60 76 2b 3c 5e 54 c4 3d fc 8f b6 bd 7f d4 78 bd
       0.0104652345 0.09586404 -0.089141816 -0.060749527
000320 ca 43 ea 3d 62 f1 40 bd ae b4 df bc cd 26 a6 3d
       0.11438711 -0.0471052 -0.027307834 0.081128694
000330 a0 11 c1 b7 66 ea fc bd fa 63 99 bd a2 c4 3f 3d
       -2.30156e-05 -0.123493955 -0.07489772 0.046818383
000340 0c e8 03 3c 97 e9 23 3d c3 25 06 bc 67 cf b7 bc
       0.00805093 0.04001769 -0.008187714 -0.022437764
000350 76 fe 47 bc 7b 5f a3 3c ca b7 29 bc 8a f3 3a bd
       -0.012206664 0.01994299 -0.01035876 -0.045642413
000360 db c2 8a 3d 23 5c 2b 3d 56 58 0d 3e 80 d0 76 bc
       0.06775447 0.041835915 0.13803229 -0.015064359
000370 cc af a2 bd 3f f9 2e 3d e6 50 11 3d 3d ee 00 be
       -0.07943687 0.04271817 0.03547754 -0.1259088
000380 35 e5 30 bd 30 78 78 3d 59 2e 9d 3d 7e 23 50 bd
       -0.04318734 0.060661495 0.07674856 -0.050815098
000390 97 7f 99 bc 8c ca 8a 3d 55 72 f9 bd e5 cc 19 bd
       -0.018737597 0.06776914 -0.1218001 -0.03754892
0003a0 27 e3 82 bc 07 46 4e bc ae eb 4b 3d de 92 9a 3d
       -0.015977455 -0.012589938 0.04978531 0.07547544
0003b0 f6 15 10 bd fc f5 91 3d 8e 8d d9 3c 7a be a9 3d
       -0.035177194 0.07126996 0.026556756 0.08288284
0003c0 e2 3a ca 3d 39 3f c0 3b 0c 6c 17 bb ed 29 38 3d
       0.09874512 0.0058669117 -0.0023105172 0.04496186
0003d0 f4 8f 32 3e 95 7f fd bc f2 00 08 3d 5d 27 60 bd
       0.17437726 -0.030944625 0.033204027 -0.05472504
0003e0 ee 43 f3 3c 47 e2 5f bc 62 2e 25 bd 59 76 c0 bc
       0.029695477 -0.013664789 -0.040327437 -0.023493933
0003f0 0b 56 33 bd 5e 8d ea 3c 3e 2d 63 bd 7f d6 ef 39
       -0.04378323 0.028631862 -0.05546307 0.00045745444

lstm.bias_ih_l0 f4 [256]
000000 00 00 00 00 00 00 00 00 00 00 00 00 00 00 00 00
       0.0 0.0 0.0 0.0
000010 00 00 00 00 00 00 00 00 00 00 00 00 00 00 00 00
       0.0 0.0 0.0 0.0
000020 00 00 00 00 00 00 00 00 00 00 00 00 00 00 00 00
       0.0 0.0 0.0 0.0
000030 00 00 00 00 00 00 00 00 00 00 00 00 00 00 00 00
       0.0 0.0 0.0 0.0
000040 00 00 00 00 00 00 00 00 00 00 00 00 00 00 00 00
       0.0 0.0 0.0 0.0
000050 00 00 00 00 00 00 00 00 00 00 00 00 00 00 00 00
       0.0 0.0 0.0 0.0
000060 00 00 00 00 00 00 00 00 00 00 00 00 00 00 00 00
       0.0 0.0 0.0 0.0
000070 00 00 00 00 00 00 00 00 00 00 00 00 00 00 00 00
       0.0 0.0 0.0 0.0
000080 00 00 00 00 00 00 00 00 00 00 00 00 00 00 00 00
       0.0 0.0 0.0 0.0
000090 00 00 00 00 00 00 00 00 00 00 00 00 00 00 00 00
       0.0 0.0 0.0 0.0
0000a0 00 00 00 00 00 00 00 00 00 00 00 00 00 00 00 00
       0.0 0.0 0.0 0.0
0000b0 00 00 00 00 00 00 00 00 00 00 00 00 00 00 00 00
       0.0 0.0 0.0 0.0
0000c0 00 00 00 00 00 00 00 00 00 00 00 00 00 00 00 00
       0.0 0.0 0.0 0.0
0000d0 00 00 00 00 00 00 00 00 00 00 00 00 00 00 00 00
       0.0 0.0 0.0 0.0
0000e0 00 00 00 00 00 00 00 00 00 00 00 00 00 00 00 00
       0.0 0.0 0.0 0.0
0000f0 00 00 00 00 00 00 00 00 00 00 00 00 00 00 00 00
       0.0 0.0 0.0 0.0
000100 00 00 00 00 00 00 00 00 00 00 00 00 00 00 00 00
       0.0 0.0 0.0 0.0
000110 00 00 00 00 00 00 00 00 00 00 00 00 00 00 00 00
       0.0 0.0 0.0 0.0
000120 00 00 00 00 00 00 00 00 00 00 00 00 00 00 00 00
       0.0 0.0 0.0 0.0
000130 00 00 00 00 00 00 00 00 00 00 00 00 00 00 00 00
       0.0 0.0 0.0 0.0
000140 00 00 00 00 00 00 00 00 00 00 00 00 00 00 00 00
       0.0 0.0 0.0 0.0
000150 00 00 00 00 00 00 00 00 00 00 00 00 00 00 00 00
       0.0 0.0 0.0 0.0
000160 00 00 00 00 00 00 00 00 00 00 00 00 00 00 00 00
       0.0 0.0 0.0 0.0
000170 00 00 00 00 00 00 00 00 00 00 00 00 00 00 00 00
       0.0 0.0 0.0 0.0
000180 00 00 00 00 00 00 00 00 00 00 00 00 00 00 00 00
       0.0 0.0 0.0 0.0
000190 00 00 00 00 00 00 00 00 00 00 00 00 00 00 00 00
       0.0 0.0 0.0 0.0
0001a0 00 00 00 00 00 00 00 00 00 00 00 00 00 00 00 00
       0.0 0.0 0.0 0.0
0001b0 00 00 00 00 00 00 00 00 00 00 00 00 00 00 00 00
       0.0 0.0 0.0 0.0
0001c0 00 00 00 00 00 00 00 00 00 00 00 00 00 00 00 00
       0.0 0.0 0.0 0.0
0001d0 00 00 00 00 00 00 00 00 00 00 00 00 00 00 00 00
       0.0 0.0 0.0 0.0
0001e0 00 00 00 00 00 00 00 00 00 00 00 00 00 00 00 00
       0.0 0.0 0.0 0.0
0001f0 00 00 00 00 00 00 00 00 00 00 00 00 00 00 00 00
       0.0 0.0 0.0 0.0
000200 00 00 00 00 00 00 00 00 00 00 00 00 00 00 00 00
       0.0 0.0 0.0 0.0
000210 00 00 00 00 00 00 00 00 00 00 00 00 00 00 00 00
       0.0 0.0 0.0 0.0
000220 00 00 00 00 00 00 00 00 00 00 00 00 00 00 00 00
       0.0 0.0 0.0 0.0
000230 00 00 00 00 00 00 00 00 00 00 00 00 00 00 00 00
       0.0 0.0 0.0 0.0
000240 00 00 00 00 00 00 00 00 00 00 00 00 00 00 00 00
       0.0 0.0 0.0 0.0
000250 00 00 00 00 00 00 00 00 00 00 00 00 00 00 00 00
       0.0 0.0 0.0 0.0
000260 00 00 00 00 00 00 00 00 00 00 00 00 00 00 00 00
       0.0 0.0 0.0 0.0
000270 00 00 00 00 00 00 00 00 00 00 00 00 00 00 00 00
       0.0 0.0 0.0 0.0
000280 00 00 00 00 00 00 00 00 00 00 00 00 00 00 00 00
       0.0 0.0 0.0 0.0
000290 00 00 00 00 00 00 00 00 00 00 00 00 00 00 00 00
       0.0 0.0 0.0 0.0
0002a0 00 00 00 00 00 00 00 00 00 00 00 00 00 00 00 00
       0.0 0.0 0.0 0.0
0002b0 00 00 00 00 00 00 00 00 00 00 00 00 00 00 00 00
       0.0 0.0 0.0 0.0
0002c0 00 00 00 00 00 00 00 00 00 00 00 00 00 00 00 00
       0.0 0.0 0.0 0.0
0002d0 00 00 00 00 00 00 00 00 00 00 00 00 00 00 00 00
       0.0 0.0 0.0 0.0
0002e0 00 00 00 00 00 00 00 00 00 00 00 00 00 00 00 00
       0.0 0.0 0.0 0.0
0002f0 00 00 00 00 00 00 00 00 00 00 00 00 00 00 00 00
       0.0 0.0 0.0 0.0
000300 00 00 00 00 00 00 00 00 00 00 00 00 00 00 00 00
       0.0 0.0 0.0 0.0
000310 00 00 00 00 00 00 00 00 00 00 00 00 00 00 00 00
       0.0 0.0 0.0 0.0
000320 00 00 00 00 00 00 00 00 00 00 00 00 00 00 00 00
       0.0 0.0 0.0 0.0
000330 00 00 00 00 00 00 00 00 00 00 00 00 00 00 00 00
       0.0 0.0 0.0 0.0
000340 00 00 00 00 00 00 00 00 00 00 00 00 00 00 00 00
       0.0 0.0 0.0 0.0
000350 00 00 00 00 00 00 00 00 00 00 00 00 00 00 00 00
       0.0 0.0 0.0 0.0
000360 00 00 00 00 00 00 00 00 00 00 00 00 00 00 00 00
       0.0 0.0 0.0 0.0
000370 00 00 00 00 00 00 00 00 00 00 00 00 00 00 00 00
       0.0 0.0 0.0 0.0
000380 00 00 00 00 00 00 00 00 00 00 00 00 00 00 00 00
       0.0 0.0 0.0 0.0
000390 00 00 00 00 00 00 00 00 00 00 00 00 00 00 00 00
       0.0 0.0 0.0 0.0
0003a0 00 00 00 00 00 00 00 00 00 00 00 00 00 00 00 00
       0.0 0.0 0.0 0.0
0003b0 00 00 00 00 00 00 00 00 00 00 00 00 00 00 00 00
       0.0 0.0 0.0 0.0
0003c0 00 00 00 00 00 00 00 00 00 00 00 00 00 00 00 00
       0.0 0.0 0.0 0.0
0003d0 00 00 00 00 00 00 00 00 00 00 00 00 00 00 00 00
       0.0 0.0 0.0 0.0
0003e0 00 00 00 00 00 00 00 00 00 00 00 00 00 00 00 00
       0.0 0.0 0.0 0.0
0003f0 00 00 00 00 00 00 00 00 00 00 00 00 00 00 00 00
       0.0 0.0 0.0 0.0

lstm.bias_hh_l0 f4 [256]
000000 00 00 00 00 00 00 00 00 00 00 00 00 00 00 00 00
       0.0 0.0 0.0 0.0
000010 00 00 00 00 00 00 00 00 00 00 00 00 00 00 00 00
       0.0 0.0 0.0 0.0
000020 00 00 00 00 00 00 00 00 00 00 00 00 00 00 00 00
       0.0 0.0 0.0 0.0
000030 00 00 00 00 00 00 00 00 00 00 00 00 00 00 00 00
       0.0 0.0 0.0 0.0
000040 00 00 00 00 00 00 00 00 00 00 00 00 00 00 00 00
       0.0 0.0 0.0 0.0
000050 00 00 00 00 00 00 00 00 00 00 00 00 00 00 00 00
       0.0 0.0 0.0 0.0
000060 00 00 00 00 00 00 00 00 00 00 00 00 00 00 00 00
       0.0 0.0 0.0 0.0
000070 00 00 00 00 00 00 00 00 00 00 00 00 00 00 00 00
       0.0 0.0 0.0 0.0
000080 00 00 00 00 00 00 00 00 00 00 00 00 00 00 00 00
       0.0 0.0 0.0 0.0
000090 00 00 00 00 00 00 00 00 00 00 00 00 00 00 00 00
       0.0 0.0 0.0 0.0
0000a0 00 00 00 00 00 00 00 00 00 00 00 00 00 00 00 00
       0.0 0.0 0.0 0.0
0000b0 00 00 00 00 00 00 00 00 00 00 00 00 00 00 00 00
       0.0 0.0 0.0 0.0
0000c0 00 00 00 00 00 00 00 00 00 00 00 00 00 00 00 00
       0.0 0.0 0.0 0.0
0000d0 00 00 00 00 00 00 00 00 00 00 00 00 00 00 00 00
       0.0 0.0 0.0 0.0
0000e0 00 00 00 00 00 00 00 00 00 00 00 00 00 00 00 00
       0.0 0.0 0.0 0.0
0000f0 00 00 00 00 00 00 00 00 00 00 00 00 00 00 00 00
       0.0 0.0 0.0 0.0
000100 00 00 00 00 00 00 00 00 00 00 00 00 00 00 00 00
       0.0 0.0 0.0 0.0
000110 00 00 00 00 00 00 00 00 00 00 00 00 00 00 00 00
       0.0 0.0 0.0 0.0
000120 00 00 00 00 00 00 00 00 00 00 00 00 00 00 00 00
       0.0 0.0 0.0 0.0
000130 00 00 00 00 00 00 00 00 00 00 00 00 00 00 00 00
       0.0 0.0 0.0 0.0
000140 00 00 00 00 00 00 00 00 00 00 00 00 00 00 00 00
       0.0 0.0 0.0 0.0
000150 00 00 00 00 00 00 00 00 00 00 00 00 00 00 00 00
       0.0 0.0 0.0 0.0
000160 00 00 00 00 00 00 00 00 00 00 00 00 00 00 00 00
       0.0 0.0 0.0 0.0
000170 00 00 00 00 00 00 00 00 00 00 00 00 00 00 00 00
       0.0 0.0 0.0 0.0
000180 00 00 00 00 00 00 00 00 00 00 00 00 00 00 00 00
       0.0 0.0 0.0 0.0
000190 00 00 00 00 00 00 00 00 00 00 00 00 00 00 00 00
       0.0 0.0 0.0 0.0
0001a0 00 00 00 00 00 00 00 00 00 00 00 00 00 00 00 00
       0.0 0.0 0.0 0.0
0001b0 00 00 00 00 00 00 00 00 00 00 00 00 00 00 00 00
       0.0 0.0 0.0 0.0
0001c0 00 00 00 00 00 00 00 00 00 00 00 00 00 00 00 00
       0.0 0.0 0.0 0.0
0001d0 00 00 00 00 00 00 00 00 00 00 00 00 00 00 00 00
       0.0 0.0 0.0 0.0
0001e0 00 00 00 00 00 00 00 00 00 00 00 00 00 00 00 00
       0.0 0.0 0.0 0.0
0001f0 00 00 00 00 00 00 00 00 00 00 00 00 00 00 00 00
       0.0 0.0 0.0 0.0
000200 00 00 00 00 00 00 00 00 00 00 00 00 00 00 00 00
       0.0 0.0 0.0 0.0
000210 00 00 00 00 00 00 00 00 00 00 00 00 00 00 00 00
       0.0 0.0 0.0 0.0
000220 00 00 00 00 00 00 00 00 00 00 00 00 00 00 00 00
       0.0 0.0 0.0 0.0
000230 00 00 00 00 00 00 00 00 00 00 00 00 00 00 00 00
       0.0 0.0 0.0 0.0
000240 00 00 00 00 00 00 00 00 00 00 00 00 00 00 00 00
       0.0 0.0 0.0 0.0
000250 00 00 00 00 00 00 00 00 00 00 00 00 00 00 00 00
       0.0 0.0 0.0 0.0
000260 00 00 00 00 00 00 00 00 00 00 00 00 00 00 00 00
       0.0 0.0 0.0 0.0
000270 00 00 00 00 00 00 00 00 00 00 00 00 00 00 00 00
       0.0 0.0 0.0 0.0
000280 00 00 00 00 00 00 00 00 00 00 00 00 00 00 00 00
       0.0 0.0 0.0 0.0
000290 00 00 00 00 00 00 00 00 00 00 00 00 00 00 00 00
       0.0 0.0 0.0 0.0
0002a0 00 00 00 00 00 00 00 00 00 00 00 00 00 00 00 00
       0.0 0.0 0.0 0.0
0002b0 00 00 00 00 00 00 00 00 00 00 00 00 00 00 00 00
       0.0 0.0 0.0 0.0
0002c0 00 00 00 00 00 00 00 00 00 00 00 00 00 00 00 00
       0.0 0.0 0.0 0.0
0002d0 00 00 00 00 00 00 00 00 00 00 00 00 00 00 00 00
       0.0 0.0 0.0 0.0
0002e0 00 00 00 00 00 00 00 00 00 00 00 00 00 00 00 00
       0.0 0.0 0.0 0.0
0002f0 00 00 00 00 00 00 00 00 00 00 00 00 00 00 00 00
       0.0 0.0 0.0 0.0
000300 00 00 00 00 00 00 00 00 00 00 00 00 00 00 00 00
       0.0 0.0 0.0 0.0
000310 00 00 00 00 00 00 00 00 00 00 00 00 00 00 00 00
       0.0 0.0 0.0 0.0
000320 00 00 00 00 00 00 00 00 00 00 00 00 00 00 00 00
       0.0 0.0 0.0 0.0
000330 00 00 00 00 00 00 00 00 00 00 00 00 00 00 00 00
       0.0 0.0 0.0 0.0
000340 00 00 00 00 00 00 00 00 00 00 00 00 00 00 00 00
       0.0 0.0 0.0 0.0
000350 00 00 00 00 00 00 00 00 00 00 00 00 00 00 00 00
       0.0 0.0 0.0 0.0
000360 00 00 00 00 00 00 00 00 00 00 00 00 00 00 00 00
       0.0 0.0 0.0 0.0
000370 00 00 00 00 00 00 00 00 00 00 00 00 00 00 00 00
       0.0 0.0 0.0 0.0
000380 00 00 00 00 00 00 00 00 00 00 00 00 00 00 00 00
       0.0 0.0 0.0 0.0
000390 00 00 00 00 00 00 00 00 00 00 00 00 00 00 00 00
       0.0 0.0 0.0 0.0
0003a0 00 00 00 00 00 00 00 00 00 00 00 00 00 00 00 00
       0.0 0.0 0.0 0.0
0003b0 00 00 00 00 00 00 00 00 00 00 00 00 00 00 00 00
       0.0 0.0 0.0 0.0
0003c0 00 00 00 00 00 00 00 00 00 00 00 00 00 00 00 00
       0.0 0.0 0.0 0.0
0003d0 00 00 00 00 00 00 00 00 00 00 00 00 00 00 00 00
       0.0 0.0 0.0 0.0
0003e0 00 00 00 00 00 00 00 00 00 00 00 00 00 00 00 00
       0.0 0.0 0.0 0.0
0003f0 00 00 00 00 00 00 00 00 00 00 00 00 00 00 00 00
       0.0 0.0 0.0 0.0

lstm.weight_ih_l1 f4 [256, 64]
000000 ae 01 c4 bd 7c 6f e4 bc 72 15 2c 3d 7b d7 47 3d
       -0.09570633 -0.027885191 0.04201264 0.048789483
000010 51 46 73 3d ce 38 b3 bb 93 d5 a8 bd 72 93 8f 3d
       0.05939323 -0.005469418 -0.08243861 0.07010545
000020 2f a3 e3 3d 07 85 47 39 0e ab d9 3d 69 45 f5 bc
       0.11115109 0.00019027675 0.10628329 -0.029940324
000030 4a 8d 03 3d cc f3 bc 3d 76 07 d2 bc c0 f9 cf 3d
       0.032117166 0.09226188 -0.025638323 0.10155058
000040 d3 ef ee bd 0d a8 ae 3d b0 f7 22 bd ad 7b f1 bd
       -0.116668366 0.08528147 -0.039786994 -0.117911674
000050 1e 82 4c 3d 5c 5d 0c be 42 e0 08 be 4a 24 1c be
       0.049928777 -0.13707489 -0.13366798 -0.15248218
000060 6c a4 32 bd 0d 53 db 3d 05 43 9c bc 06 1a 03 be
       -0.043613836 0.107092 -0.019074926 -0.12802896
000070 c5 05 34 3d fd ef 06 3e 39 13 9c bd 31 5e 81 bd
       0.043950815 0.13177486 -0.07620854 -0.06316794
000080 29 d1 59 bd cc 5c c0 3d e1 29 78 3d 74 55 6c bd
       -0.053177986 0.093926996 0.060586814 -0.057698682
000090 b0 a5 f3 bc fc 83 c4 3d 76 48 14 3b b2 53 b8 3d
       -0.029742092 0.095954865 0.0022626198 0.090003386
0000a0 4f 56 3e bd f8 21 ef 3d 19 8e e4 bd 80 c7 70 3d
       -0.04646903 0.11676401 -0.111599155 0.058784008
0000b0 bd 46 24 bd 7d c4 eb bd 1f 07 0c be 35 1a 99 bd
       -0.040106524 -0.115120865 -0.13674591 -0.07475702
0000c0 62 7d 23 3d 5a 69 98 3d b1 85 02 3e ed d2 c9 3d
       0.039914496 0.07441969 0.12746312 0.09854684
0000d0 12 91 d9 bd df 6a 8a 3d d8 8c e2 3d 8c 9e 3b bc
       -0.10623373 0.06758665 0.1106202 -0.011451375
0000e0 48 77 7c 3d ef 1e 79 3d 50 1b 87 bd 8f cd 46 bc
       0.061637193 0.060820516 -0.06597006 -0.01213397
0000f0 1a f0 bc bd aa 47 d6 3d 6d fb de 3d 0e 13 fa 3d
       -0.09225483 0.104628876 0.108877994 0.12210666
000100 07 c7 02 3d be 58 5d bd 42 37 ea bc 0c 0b 96 3d
       0.03192809 -0.05403971 -0.028590802 0.07326326
000110 01 af 43 bd 93 c3 de bd 2e 7b ae 3d a1 6e 90 3c
       -0.04777432 -0.108771466 0.085195884 0.017630877
000120 42 49 a8 bd b4 78 7f 3d ce 72 e7 3d 94 01 c9 bd
       -0.08217098 0.06237097 0.11301194 -0.09814754
000130 60 68 9b 3d 1e ae 2b 3d 32 f5 09 be 9c dd 34 bd
       0.07588267 0.041914098 -0.13472441 -0.044156656
000140 46 a5 fb 3d f1 65 0f bd f7 22 d0 bd 0d 84 01 be
       0.12287383 -0.03500933 -0.10162919 -0.1264803
000150 d9 a8 34 3d bf 25 10 3e 74 8c ab bd 3d 50 68 3d
       0.04410634 0.14076899 -0.08376399 0.056717146
000160 4d fb 98 3d 64 45 82 3d 4d 95 72 3d 43 79 aa 3d
       0.07469807 0.063608915 0.059224416 0.0832391
000170 59 c2 d7 3d 93 1f 2c 3d 07 04 ba bc 95 67 9d 3d
       0.10535116 0.0420223 -0.022706999 0.07685772
000180 1b ff 75 3d cb 65 ed 3d fa b7 db bd c0 df cc bc
       0.06005774 0.11591681 -0.1072845 -0.025009036
000190 11 8a ce bd 26 1d 3b bd 6f ba af bd 4d dc fa bd
       -0.10084928 -0.045682095 -0.08580481 -0.1224905
0001a0 e1 5c cd 3c 78 bf e7 bd 5d 41 cf bd e6 9f 80 bd
       0.025068702 -0.11315817 -0.10119889 -0.06280498
0001b0 ea 8e da bd 9b 7d c4 bc 8f 98 19 3d be e0 05 3e
       -0.1067179 -0.023985675 0.037499007 0.13074014
0001c0 b2 85 85 bd 6d 95 ac 3d 2b 82 d0 3d 36 e1 f2 3d
       -0.06519641 0.08426938 0.101810776 0.11859362
0001d0 d9 14 d6 bc a2 2e d7 bd f5 3c f3 3d 2a 62 32 bc
       -0.026132988 -0.105069414 0.11876861 -0.010887662
0001e0 bb d3 d6 b9 c5 61 da 3d 72 92 a6 bd 32 bd d3 bc
       -0.00040975012 0.10663179 -0.08133401 -0.025847051
0001f0 32 2b 9a 3d bb 50 ac 3d 88 75 33 3c 5a 0e ec bd
       0.0752777 0.084138356 0.010953315 -0.11526175
000200 cf df ce 3d 6b 55 fe bd 51 f2 ea 3d 2d d4 c9 3c
       0.10101282 -0.12418636 0.114719994 0.024637306
000210 a0 18 c3 bd 08 79 6d bd c8 93 bb bd dd d0 00 be
       -0.09526181 -0.057976753 -0.091590464 -0.12579675
000220 6c 26 a2 3d 98 56 32 3d 9a 72 bf 3d 8b e3 93 bd
       0.07917485 0.043539613 0.093480304 -0.07221135
000230 29 4c 15 be 91 7a f9 bd 97 47 70 3d c3 fd c9 bd
       -0.14579834 -0.12181581 0.058662023 -0.09862854
000240 87 75 d4 bd 14 79 a1 3d f4 9e 61 3d ae 76 a3 bd
       -0.10373979 0.07884422 0.05508323 -0.07981621
000250 ad 7c 71 3d 2f 6a 08 3e ad 2a ee 3d 99 c0 42 bd
       0.05895679 0.13321756 0.116292335 -0.047546957
000260 45 0a d5 3d d8 02 9f 3d be f4 5f 3d c7 73 c5 bc
       0.104023494 0.07764214 0.054676764 -0.024103059
000270 e8 16 8a bd eb 14 51 bd a7 3c 44 3d d6 34 04 3e
       -0.0674265 -0.05104534 0.047909405 0.1291078
000280 bd 88 fd 3d fa 1c 54 bd 51 5c e9 bd 2a 08 d9 bd
       0.123795964 -0.051785447 -0.11394561 -0.1059726
000290 0b 3a 85 3d ce 62 1a 3d 35 20 cb bd 55 9a 59 3d
       0.065052114 0.037691884 -0.099182524 0.053125698
0002a0 68 b9 47 3d 90 f6 83 3d 6d 9e 24 bd ba 2d 05 3d
       0.0487608 0.064435124 -0.04019015 0.03251431
0002b0 01 02 2e 3d a4 31 5e bb b2 c4 8d 3d 74 7e a9 3d
       0.04248238 -0.00339041 0.06922282 0.08276072
0002c0 13 40 be 3d 16 09 f6 3d 66 68 a1 bd b7 63 8b bc
       0.09289565 0.12013452 -0.078812405 -0.017015321
0002d0 f8 49 31 bd b9 5c 8c bd e1 56 0e bd 36 a7 0b 3e
       -0.043283433 -0.06853623 -0.034750823 0.13638005
0002e0 13 b5 0a be 87 6f e5 3d 74 28 4f 3d c2 ea fd bb
       -0.13545637 0.11202913 0.05057569 -0.0077489326
0002f0 d6 40 91 bd 0a 4c bc 3d a3 f4 05 3d b0 0e c9 bc
       -0.070924446 0.09194191 0.032704007 -0.024543136
000300 93 79 91 bb fc 2d da bd a4 06 41 bc bb dd fe 3d
       -0.0044395416 -0.10653302 -0.011781368 0.124446355
000310 8b de c9 3d 49 77 00 3e 75 67 ce bd ec 1f c0 3d
       0.098569 0.12545504 -0.100783266 0.093810886
000320 70 85 92 3d 37 24 ac 3d 8b 39 63 3d 3b 94 b4 bc
       0.071543574 0.08405345 0.0554748 -0.022043338
000330 44 b5 89 bd 63 8e d2 bd ae 8e d2 bd f1 8e 32 3c
       -0.06724027 -0.10281064 -0.1028112 0.010898338
000340 4d 89 f1 bd 9e c3 a1 3d 64 a4 fb ba 04 64 1f bd
       -0.11793766 0.07898639 -0.0019198772 -0.03891374
000350 22 27 de 3d 7e 03 a5 bd c3 c8 24 bd bb ed ea bd
       0.10847308 -0.08057307 -0.040230524 -0.11471125
000360 bb b8 d9 bc 08 52 eb bd 4b 2a ed bd 26 8d 94 3d
       -0.026577344 -0.114902556 -0.11580332 0.072534844
000370 65 76 5e 3d 02 91 28 bc 86 82 ef 3d a3 00 c9 3d
       0.05431213 -0.010288479 0.11694817 0.098145746
000380 e4 16 a4 bc 82 54 08 3d 1d 15 18 bd d9 19 79 3d
       -0.020030446 0.033283718 -0.03712951 0.060815666
000390 19 4e 9e bd 55 5c 66 3c 17 20 f6 bb 29 af d9 3d
       -0.0772974 0.0140601 -0.0075111496 0.10629112
0003a0 1f 89 c4 3d 28 80 3a bc a9 2c 2e be f3 b4 fb 3d
       0.09596466 -0.011383094 -0.17009224 0.12290373
0003b0 78 36 e2 bc 06 0a dd bd 2f 3e 08 be 56 bf 55 bd
       -0.027613863 -0.107929274 -0.13304971 -0.052184425
0003c0 69 fd e2 3d 60 ae a0 3c 3b 35 06 3e 12 7b 0a 3d
       0.110834904 0.019614398 0.13106243 0.033808775
0003d0 39 76 00 3c 5d 5a ce 3d 19 b3 6e bd bc cb a6 bd
       0.0078406865 0.10075829 -0.05827627 -0.08144328
0003e0 e5 83 a5 bd 26 7d b3 bd 73 26 b8 3d e3 05 26 bd
       -0.080817975 -0.087641045 0.089917086 -0.040532958
0003f0 34 27 6c 3d 0c cc 60 bd 23 7c 96 bd c1 78 91 bb
       0.057654575 -0.054882094 -0.07347896 -0.004439444

lstm.weight_hh_l1 f4 [256, 64]
000000 af 2a 41 3e 23 fd 2f 3e d5 7d fd bd 1d f2 00 3d
       0.18863939 0.17186408 -0.12377516 0.031480897
000010 d4 df de bc 21 5d 37 bd 1b 10 18 bb 50 97 4e bd
       -0.027206339 -0.04476655 -0.002320296 -0.05043727
000020 c2 7a 96 38 1f 62 e3 bd 17 6f 39 3d 09 fe 3c bc
       7.175423e-05 -0.111026995 0.04527196 -0.011535176
000030 4b b8 09 bd 11 9d a7 3d 87 da 14 bd 97 e6 41 bd
       -0.03362302 0.08184255 -0.036341216 -0.04733905
000040 26 9f c8 3d 49 36 09 bd 5b 2c f2 3c d3 2c cd bd
       0.0979598 -0.033499036 0.029562166 -0.10018315
000050 d7 3e 73 bd e4 d7 03 bd 36 27 fb 3d 72 47 9f 3c
       -0.0593861 -0.03218831 0.12263338 0.019443247
000060 7f 56 3b bc 57 d9 35 3d da c9 ee 3d 7f b0 2b 3d
       -0.0114341965 0.044396725 0.11659594 0.041916367
000070 b8 82 08 3d 53 0e db 3d b3 5e b4 3d e6 33 5a 3d
       0.033327788 0.106960915 0.08807125 0.05327215
000080 04 dd 80 bc e7 14 3e bd 02 a0 0c 3e de 36 ce 3a
       -0.015730388 -0.046406653 0.13732913 0.0015732904
000090 fc 6b 82 bd 80 91 ad 3d 6c 5e ce 3d ef 6e b8 bd
       -0.06368253 0.084750175 0.10076603 -0.09005534
0000a0 a1 42 6d 3d d6 a8 b5 bd 83 38 82 bd 3e 81 17 3e
       0.05792487 -0.088700935 -0.06358435 0.14795396
0000b0 ad 90 9c bd d4 4d 5d bd 31 c1 be bd 1e ad 94 3d
       -0.07644782 -0.0540293 -0.09314192 0.07259582
0000c0 22 27 aa bc 49 00 14 3c 5d 74 86 be 06 a5 e9 bd
       -0.020770613 0.009033271 -0.26260653 -0.11408429
0000d0 f8 23 ba bd 0d db 41 3c 4c d0 ae 3d 62 b3 09 bc
       -0.09088892 0.011832011 0.08535823 -0.008404585
0000e0 ad 75 da bd 9b d8 02 3e 60 5a f7 bb 67 1d 55 3d
       -0.10666976 0.12777941 -0.0075486153 0.052029993
0000f0 5c 05 ed bd a4 f2 e5 bc 28 a4 96 3d 2b 98 58 bd
       -0.11573288 -0.028069802 0.07355529 -0.052879494
000100 54 ad 27 bd cc be 73 3d 86 65 44 bd ab 7e 05 3e
       -0.040936783 0.05950813 -0.047948383 0.13036601
000110 a0 79 89 bd a6 64 45 3d 30 d0 8d 3d c0 94 56 3d
       -0.06712651 0.04819169 0.06924474 0.052387953
000120 c9 03 1c bd e4 39 5e 3d cb c4 a7 3d fd d0 91 3d
       -0.038089547 0.054254428 0.08191832 0.071199395
000130 c9 0d 8f bc 27 8e f0 3d ed e4 0c 3d 9c 88 2d be
       -0.017462628 0.117458634 0.03439801 -0.16946644
000140 65 bc 76 bd 66 fd f6 39 94 c0 17 3d 6b 59 00 be
       -0.06023826 0.00047109573 0.03704889 -0.1253411
000150 cf 53 b3 3d 6a 27 95 39 fc b7 f9 3d 19 81 4c bd
       0.087562196 0.0002844886 0.12193295 -0.049927805
000160 46 2b b0 3c 6c 47 4a 3d ef c0 a8 bc 90 08 6e 3d
       0.02150501 0.04938452 -0.02059981 0.058113635
000170 82 8a 4d 3d cc 1a c8 3d a0 2a c9 bd 4c 8e 44 3d
       0.05018092 0.09770736 -0.09822583 0.047987267
000180 8e 2a c0 3c 77 8e 4a bd 20 8d a3 3d bb 42 69 3a
       0.023457792 -0.04945227 0.07985902 0.0008898188
000190 52 0a 9b 3d b3 6b 14 bd f0 35 27 3d 38 a7 8a bc
       0.07570328 -0.036235522 0.040822923 -0.01692544
0001a0 ac 29 ae bc 41 d6 ea bd 1f d8 8a bd ff d9 aa 3d
       -0.021260105 -0.11466647 -0.06779503 0.08342361
0001b0 a2 08 50 3c f5 28 cb 3d e1 a5 7f 3d 8c cc 05 ba
       0.012697371 0.09919921 0.062414054 -0.0005104027
0001c0 b6 70 db 3d 70 44 bc 3d 02 57 11 be 93 b0 c0 bb
       0.10714857 0.09192741 -0.14193347 -0.0058804243
0001d0 39 f5 5e 3c 29 95 33 3e cb c9 e0 3d 6d 45 c7 bd
       0.01360827 0.17537369 0.10975989 -0.09730039
0001e0 ba a3 07 bd 32 b0 9d bd ea fd 4d bd ee 1d 99 3d
       -0.033115126 -0.07699622 -0.05029098 0.07476412
0001f0 2e 11 ce 3b 42 47 6c 3c c5 f8 3f 3c a3 89 24 3e
       0.006288669 0.014421286 0.011717026 0.16068129
000200 21 a7 95 3c f2 4d f1 bc 08 1e 9e bd 85 ad d2 bb
       0.01826817 -0.029456113 -0.07720572 -0.0064293765
000210 69 21 13 3c 6a 7b 3f bc 3d f5 24 3e 47 fb ae bd
       0.008980134 -0.011687139 0.16109176 -0.08544021
000220 82 08 2b 3d 87 64 26 3b 7f cc 6c 3c 6c 62 03 be
       0.04175616 0.0025389509 0.014453053 -0.12830514
000230 28 03 c7 3d 4b 78 0a 3d c0 62 95 bd fc 64 0a bd
       0.09717399 0.033806127 -0.07294226 -0.033787712
000240 a1 2d 40 3e d6 59 80 bd 9e 50 c6 bd 1e b8 9c bd
       0.18767406 -0.06267135 -0.09683345 -0.07652305
000250 8b 05 d3 3c 3f 70 90 3b 0c 1f 1a 3d 23 44 42 bd
       0.025759479 0.004407912 0.037627265 -0.04742826
000260 21 d6 6b 3d 24 e0 ba 3c 15 a2 3d 3d 44 ac 05 bd
       0.057577256 0.022811957 0.04629715 -0.03263499
000270 60 a8 0d 3d cf 29 16 be a3 9a 3e bd 8f 54 ab 3d
       0.034584403 -0.14664386 -0.04653419 0.08365738
000280 42 73 40 bd c8 09 c3 3c be ac 7d bd 4f 61 0d 3d
       -0.04698492 0.023808375 -0.061932318 0.03451663
000290 3f dc 72 3d e8 39 c8 bc df b5 81 bc e7 4d fd 3b
       0.059292074 -0.024441674 -0.015833793 0.007730234
0002a0 ba 58 6d 3d 0e 84 ce 3b 98 69 91 3c 80 a4 23 3d
       0.057945944 0.0063023632 0.017750546 0.0399518
0002b0 19 67 21 bd 04 26 43 3d d2 0c cd 3d a3 81 05 be
       -0.039404962 0.047643676 0.10012211 -0.13037734
0002c0 ce 86 cb 3b 92 0b 39 bd ed d5 8c bd 03 0f 07 bc
       0.0062111383 -0.04517705 -0.068767406 -0.008243325
0002d0 2a c4 10 bd bf f2 1a 3c 62 6e 35 bd 33 bd 03 bc
       -0.035343327 0.009457289 -0.044294722 -0.008040714
0002e0 f4 ba 67 bd ef 00 ab 3d be 81 a8 3d 37 77 2f bd
       -0.056574777 0.083497874 0.08227871 -0.0428383
0002f0 c8 11 bb 3d 14 06 09 3c fd 29 17 3d a8 a1 a1 3d
       0.09134251 0.008363266 0.036905278 0.078921616
000300 1c bf 54 3d 9b ec 28 3e 5d ce 61 bd 27 7e 9e 3d
       0.05194007 0.16496508 -0.055128444 0.077389054
000310 5f 07 70 bd 08 66 4f bc 1e 04 e5 3c 48 79 c7 bd
       -0.05860078 -0.0126586035 0.027956065 -0.097399294
000320 43 fc a7 bc 65 4a 0d bd b0 9b cd 3c 75 2b e3 bc
       -0.02050603 -0.034494776 0.025098652 -0.027730683
000330 1e eb c9 bd 47 3f c0 3c 76 be 19 bd 50 43 f6 bd
       -0.09859298 0.023467673 -0.037535153 -0.120245576
000340 2a d9 1e bc 85 bf 49 bd ef f2 f6 3a 02 38 ef bb
       -0.009695331 -0.049254913 0.001884071 -0.007300378
000350 14 1f 0f 3e 1b f6 94 bd 39 fd b7 3c 8c 38 b8 3d
       0.13976699 -0.072735034 0.022459613 0.089951605
000360 6b b3 09 3e 15 88 bb 3d 5c 14 5f 3d cc 80 b9 3d
       0.13447349 0.09156815 0.054462776 0.09057769
000370 e3 60 de bc 15 30 aa bd da e5 07 bd 87 a8 da 3c
       -0.027145809 -0.08309952 -0.033178188 0.026691688
000380 6d 7b 98 bd fd 59 82 bd b9 7c 0d 3e 4a 84 f6 bc
       -0.074454166 -0.0636482 0.13817109 -0.030092377
000390 fe b6 d2 3c 82 21 b4 bc d4 33 18 3e 49 e9 eb bd
       0.025722023 -0.021988634 0.14863521 -0.11519105
0003a0 eb 77 5d 3c ae 5c 5c 3c 79 6b d5 3c 76 57 be bc
       0.01351736 0.013449831 0.026052224 -0.023235064
0003b0 c2 66 05 bd b2 5c 91 3d 78 31 c5 bd 33 74 91 bd
       -0.0325687 0.07097758 -0.09628576 -0.07102241
0003c0 31 70 77 bd 3f 1d 92 bd 5f 6e 36 3a cc 3d 01 bd
       -0.06040973 -0.071344845 0.00069591956 -0.031553075
0003d0 05 47 50 bd dc 89 07 3e f1 26 6e 3d 1d 9b 4f bd
       -0.05084898 0.13236183 0.058142606 -0.050685037
0003e0 b2 26 d4 bb 18 6d 2a bd 9d f6 c2 3d a4 61 bf bd
       -0.0064743394 -0.041607946 0.09519694 -0.09344795
0003f0 9d 4a 42 bc c5 b3 88 bd a3 62 16 3e 79 12 44 bc
       -0.0118586095 -0.06674913 0.14686064 -0.011967295

lstm.bias_ih_l1 f4 [256]
000000 43 86 2d bc 65 cc 36 3c d7 3d a3 bb 01 81 cc bc
       -0.0105910925 0.01115713 -0.004981737 -0.024963858
000010 e7 4f 4a bc 41 52 82 bc 25 fd bb ba da 77 95 3c
       -0.012348152 -0.015908362 -0.0014342411 0.018245626
000020 4d 5a a0 3b f6 da 2e bb 81 bb 8d bc 44 c5 42 3d
       0.004893577 -0.0026680804 -0.017301323 0.04755141
000030 c9 1b 8b bb 70 7e 50 bc 45 67 4e 3d 2a 03 2a 3a
       -0.0042452556 -0.012725458 0.050391454 0.0006485457
000040 5f 0b ba bc 82 bd 8c bc 51 f8 9e 3c c3 d5 0e bd
       -0.0227105 -0.017180208 0.019405516 -0.034871828
000050 20 d6 a2 39 be 2a 56 bc df ea dd bb 53 a0 4a 3a
       0.00031058583 -0.013071714 -0.0067723836 0.00077295786
000060 42 23 73 3c f2 03 82 3c 12 6d 4d bc ab bf 21 3d
       0.014839949 0.015871022 -0.012538211 0.03948943
000070 5c cb e8 bb 5b a8 4b 3d cb bf a9 3c f7 82 6e 3a
       -0.0071043205 0.049721103 0.020721337 0.0009098495
000080 8c 5b ed ba 3c 3e e1 3a aa c2 a1 bc b9 88 81 bc
       -0.0018108948 0.0017184685 -0.019746143 -0.015812265
000090 d4 69 f1 bb a4 62 20 3d 65 cd ce bc d5 05 95 3c
       -0.007367352 0.03915657 -0.025244424 0.018191257
0000a0 78 fc 15 3c 6f 9c ac ba 87 9f e0 bc 6f b5 03 bd
       0.0091544315 -0.001316918 -0.027419819 -0.03215545
0000b0 e2 98 65 bd f1 a6 13 3c f2 d7 a1 bc fe ee 7b bd
       -0.056054004 0.00901197 -0.019756291 -0.061507218
0000c0 95 62 89 ba 59 48 e8 3b 3a 4f 50 bc 94 93 a5 3b
       -0.001048165 0.0070887026 -0.012714202 0.005052993
0000d0 bf 25 83 3c 30 9b bb bc 1f e9 c1 bb f3 97 20 bc
       0.01600921 -0.022901148 -0.005917683 -0.0098018525
0000e0 fb 58 ab 3b 92 a7 3f bd a3 8f d3 3b ca dc c4 3b
       0.005229113 -0.046790667 0.006456332 0.0060077654
0000f0 16 dd 44 bd 96 35 ca 3c cc fc 0a bc 31 82 56 3c
       -0.048062406 0.024683755 -0.008483123 0.0130925635
000100 6f e4 32 bc 3b 56 27 bb a8 41 fc bb 71 2a c9 bc
       -0.010918721 -0.0025533575 -0.0076982565 -0.02455637
000110 0c 8d 0c bc 20 97 32 bc ba 07 37 bb 41 c9 14 3c
       -0.00857855 -0.010900289 -0.002792819 0.009081186
000120 c4 f7 30 b9 c2 ae 9a bc c3 2d be bc 2c 3e 35 3d
       -0.00016876968 -0.01888216 -0.02321518 0.044248745
000130 01 88 65 bb d2 cd 07 bd 4b ce 07 3d 3b 35 06 bc
       -0.0035023692 -0.03315527 0.03315572 -0.008191402
000140 0e 10 ea bc e2 c8 a7 bc e0 07 a3 39 6e 97 f0 bc
       -0.028572109 -0.02048153 0.0003109565 -0.029369082
000150 14 a0 e2 ba 56 03 0b bc 0e d8 02 bd a9 2f 9f bc
       -0.0017290139 -0.008484682 -0.031944327 -0.019431906
000160 d4 08 c0 3b 11 b4 99 3b 8d 88 a2 bc 0c 42 df 3c
       0.0058604274 0.004690655 -0.019840503 0.027253173
000170 a6 e2 c7 bb 4e c1 32 3d 07 3b 6a 3c fb 7d ec bb
       -0.0061000166 0.04364138 0.0142963 -0.0072171665
000180 69 b8 c5 bb e9 37 09 ba 26 34 d6 bc e6 dc 3f bc
       -0.0060339463 -0.00052344665 -0.026147913 -0.011710381
000190 fe 45 2c bc 7f 03 19 3d 83 d7 20 bd 54 29 71 3c
       -0.010514734 0.03735685 -0.039268028 0.014719326
0001a0 5b d9 b1 bb 33 68 6a bc 19 f1 f8 bc 82 16 71 bd
       -0.005427522 -0.01430707 -0.030388402 -0.058859356
0001b0 47 74 46 bd ff d4 d7 bb 70 25 fb bc 64 97 47 bd
       -0.048450734 -0.0065866704 -0.0306575 -0.04872836
0001c0 d5 a9 a6 bc 11 b2 4c 3b f1 d3 85 bc a3 98 7f bb
       -0.020344654 0.0031234066 -0.016336413 -0.003900089
0001d0 ef 0a a9 3b b7 13 9c bc 4f 0a 2d bc 82 45 0a bc
       0.005158774 -0.01905237 -0.01056154 -0.0084394235
0001e0 d9 3d 25 bc af 70 20 bd 42 46 28 bb f9 c6 48 3b
       -0.010085546 -0.039169963 -0.0025676643 0.0030636175
0001f0 15 d4 1b bd 83 09 9a 3c 59 66 00 bc 86 b1 29 bb
       -0.038044054 0.018803364 -0.007836902 -0.0025893166
000200 00 9b 0b bd aa 09 44 bd 8e 18 56 3d 94 6f 26 bd
       -0.034083366 -0.04786078 0.05226951 -0.040633753
000210 97 a5 10 3d 96 82 66 3d 10 c3 25 bd 61 68 59 3d
       0.03531417 0.05627688 -0.04046923 0.05307806
000220 8e 66 1c bd 0a f6 1b 3d 67 94 5e bd 84 b7 65 3d
       -0.03818374 0.038076438 -0.054340746 0.056083217
000230 91 84 15 3d f0 3c 49 bd e6 1b 56 3d be bf ff 3c
       0.03650338 -0.04913038 0.0522727 0.03121936
000240 ea ab 6c bd e8 45 31 3d a9 fe 6f bd 7b 0e 85 3d
       -0.057781138 0.04327956 -0.058592472 0.064969026
000250 1e 5c 2b bd eb 23 d3 bc ae da 62 bd d7 34 84 bd
       -0.041835897 -0.025773963 -0.05538433 -0.06455391
000260 07 aa 4c bd af 9c 5a bd 49 9f 17 bd 0a 76 6b bd
       -0.04996684 -0.05337208 -0.03701714 -0.057485618
000270 9e 20 1e bd 34 87 79 3d 3e 0d 75 3d e6 0e 1c bd
       -0.038605325 0.060919955 0.05982708 -0.038100146
000280 90 c8 02 3d 0e ac 13 3d 3e a9 06 bd 00 44 a1 3d
       0.031929553 0.036052756 -0.032876246 0.07874298
000290 3d 8f 55 bd 2a 81 45 3d 1a 96 b3 bc 28 bd 3f 3d
       -0.052138556 0.048218884 -0.02192216 0.046811253
0002a0 ab 4b 7c bd fd 80 ac 3d 3c 01 8f 3d af 8a 15 bd
       -0.0615956 0.0842304 0.06982657 -0.036509212
0002b0 97 bc ab 3c 51 50 be bd 7b 6d b3 3c 80 9c 40 ba
       0.02096395 -0.09292663 0.02190279 -0.0007347539
0002c0 1c 56 8b 3d df 5e 42 3d af 8d 66 3d 8a 81 31 3d
       0.068035334 0.047453757 0.056287464 0.04333643
0002d0 d3 27 26 3d a7 1b a7 bc 8e 1c 9a bd d5 8e e3 3c
       0.040565323 -0.020398928 -0.075249776 0.027778069
0002e0 bf e3 57 3d 2d e0 36 bd db 73 7b bd a5 3a 57 3d
       0.05270743 -0.044647384 -0.061389785 0.052546162
0002f0 86 23 65 3d b3 c2 42 bd 60 91 44 bd bc a8 8d bd
       0.05594208 -0.04754896 -0.047990203 -0.06916949
000300 a6 4f a4 bc f3 cd 9f bb 3c ab a3 bc 37 4d b3 bc
       -0.02005751 -0.004876846 -0.019979112 -0.021887405
000310 6b 46 89 bc 6a a0 56 bc d9 78 35 bc 85 5e 01 3c
       -0.01675721 -0.013099769 -0.011076176 0.00789607
000320 c3 dc 47 bc 8f f1 50 bc 33 e3 90 bc d9 e9 e0 bb
       -0.01219863 -0.012752905 -0.017686462 -0.0068638143
000330 5d 2e a5 bc 9e 89 d4 bc 31 42 23 bb b0 22 22 bc
       -0.02016371 -0.025944527 -0.002491128 -0.009895965
000340 01 0c bc bc aa 84 bd bc 33 44 69 3b aa 8b 08 bd
       -0.022954943 -0.023134548 0.0035593628 -0.03333632
000350 63 e3 cc 3a 43 5b 62 bc d3 9d f9 bc 73 e6 4a bc
       0.0015631731 -0.013815704 -0.030470764 -0.012384045
000360 82 58 29 b9 bf 60 d9 3a 04 2f f4 bb 42 13 a2 ba
       -0.00016150068 0.0016584619 -0.0074518938 -0.0012365358
000370 48 5f 62 bc a9 e2 04 3b 3e 2f 88 bb 40 51 0b bc
       -0.013816662 0.0020276702 -0.0041560223 -0.008503258
000380 38 10 2c bc 52 1a a6 ba 48 4a 9e bc b9 7b 66 bc
       -0.010501914 -0.0012672639 -0.01932253 -0.014067584
000390 48 df 47 bc 6e 8d 41 bc b7 78 be bc 2d 34 31 bc
       -0.0121992305 -0.011813505 -0.02325092 -0.010815662
0003a0 d4 db 72 bc bc 61 86 bc 86 af fe bc 51 9a 08 bd
       -0.014822919 -0.016404025 -0.031089555 -0.033350293
0003b0 39 d8 52 bd d5 16 13 bc 4a ea eb bc a1 ba 70 bd
       -0.051475737 -0.008977612 -0.028798241 -0.058771733
0003c0 8b b4 34 bc 50 a0 6c ba 1f 95 22 bc 3c 4d d5 3a
       -0.011029373 -0.0009026574 -0.009923249 0.0016273628
0003d0 6f e3 d1 bb b6 b7 f0 bc c8 06 18 bc 83 4b 9b bc
       -0.006405286 -0.029384475 -0.0092789605 -0.018956905
0003e0 3f 91 98 bb 42 fe 42 bd fe 6c 70 bc f4 42 87 39
       -0.0046559866 -0.04760576 -0.014674423 0.0002579909
0003f0 1d c8 37 bd de 6e b1 3a a4 60 9d bc cc b5 20 bc
       -0.044868577 0.0013537069 -0.01921112 -0.009808969
