ML/models/ETH/4h/gru_model.pth (torch, 168883 bytes, 9 tensors)

gru.weight_ih_l0 f4 [192, 19]
00000000: ef5e bd3d 411b 16be 17f2 7fbd 2c64 17bd
00000010: 8c5a 1ebd 7797 243e 5d0b 95bd 61ee 013e
00000020: 822f e93c 7248 b53b 49fb 01be b1f9 27be
00000030: 045f 1ebe b0c4 f73d 7aa7 f23c d021 06be
00000040: 5a8e 15be 9447 e03d 5396 2e3c d598 29be
00000050: d113 143c 7521 a0bd 6fbd 003c 5b8a c6bd
00000060: 7271 cabd 6419 223e 634b 643d c6bb 1f3e
00000070: dd44 b53d fee8 643d a491 99bc e898 023e
00000080: 2095 e63c c322 023d 18cd 883d c46c 5c3d
00000090: f21c b23d 91c9 41bd 6b3d 11be 8343 86bd
000000a0: 8f17 30bc ba8c 13be 7b24 1f3d e0d1 7abd
000000b0: b866 823d cb6a 143e 1c68 073e 7f72 10bd
000000c0: bae2 043d 66ad 0abe 1052 e8bd 89de b4bd
000000d0: 797b f93d 6915 07be 6e9b 2b3e 8447 dfbd
000000e0: 709c 81bd 91ae d53d 4beb e5bd 2d36 9f3d
000000f0: c1c0 523d 30ea babd 6a41 17bd d49e a4bd
00000100: 31a5 463c f0a9 0f3e 1ed3 673d 1305 e1bd
00000110: 3fd3 863d 4e1e 31bd 18af f23d b857 d23c
00000120: 2610 ee3d df3e c43b 008a 483c 6fff 14be
00000130: 3057 c6bd e777 25be f230 11bd 0f54 fc3c
00000140: f834 083e 31a4 24be 4457 11be 37e8 9c3c
00000150: aeae e43d 052c b5bd d7bb 1abe 04a8 6cbd
00000160: 0020 9f3d 2be6 52bd d88d c5bd 784a adbd
00000170: 8adb 95bc ccc4 0ebe 0249 03be d512 edbd
00000180: 7c05 cbbc b30d 07be ddce d9bd 3744 22be
00000190: db9e 973d 6c0e 15be a978 0f3e 7052 143e
000001a0: 7bdc 073e e201 3c3d a7cc 353c 6742 fc3d
000001b0: dbc4 5dbd 9e45 9e3c 695f 87bd e15e 26bd
000001c0: 958a d33c 9bb8 5a3c 466c 8abd 741f cdbc
000001d0: 0dcf 04be 9cd1 193e b309 9dbd 1cd8 80bd
000001e0: 4e4c 7ebc bb77 09be 66b6 113e 8bd9 183e
000001f0: 50f9 42bd d8de 37bd 0c02 ca3a 70da 7e3d
00000200: ab9a d43c a19a 283e 9e8c 173e f9dd e8bc
00000210: 8e44 b33d fbe8 c63d 3286 a3bd b6bf 37bc
00000220: 638e 11bc 3393 1c3e 476f 27bd d874 ba3d
00000230: d9bb dfbd fb77 1f3e 2e35 59bd bd4b 823d
00000240: 19e8 29be 809e 163e ed3a f63c 344b 073e
00000250: 8606 1cbe 9356 17be 2e76 1dbe 04b6 a43d
00000260: af39 0b3d bcf1 96bd 8b05 913b 5d6c 353b
00000270: ce91 babd d989 9fbc 5927 ba3d f3d9 293e
00000280: bb59 7d3c ed44 d0bd fcd4 0ebe 1acc bbbd
00000290: fab3 1ebe 776f 143d f709 a0bc 7428 cc3c
000002a0: 2e58 fe3d afc7 9f3d 9e28 e4bd 612e 86bd
000002b0: d6fb e43d bcbb d83d 7548 e4bd 3e2b bf3c
000002c0: 16c6 913d 3dcf 0cbd 2a63 be3d dd0b 903d
000002d0: 1177 0bbc 2423 263a 35e9 0abd a103 24be
000002e0: 6674 8c3d aa2e 17be c7dc aebd e5cf 0fbd
000002f0: f9d4 b23b b504 cdbd 2b6f 003d 2542 213e
00000300: 26b1 e8bd 7973 c43d 278b 213e 83b2 983d
00000310: 65ac 0c3d 9f1a ee3d 243a ba3c 592e a13d
00000320: 62bb 303b 0e5f c8bd a0eb 3d3d 1f61 c1bc
00000330: b362 c9bd 1d7e 933c 75a3 f93d 24b1 fabc
00000340: 16c9 c53c 0de3 9cbd 1ecd a6bc 3cc1 dfbd
00000350: f234 aa3d c574 1abe a19c 443c 41ed 10be
00000360: eb22 b0bd 6388 f33c 55b4 1bbe a90d de3c
00000370: 39ff 123d 3a7a 953d 9dd4 2fbc 9dfd 1fbd
00000380: 0f8b 283e eccc fc3c b352 983d 36e9 aabd
00000390: 1267 1f3c cf4a 913d a8b5 243e eb0d c63d
000003a0: 2bea 70bc f9c3 a8bd e559 123e bf35 1f3e
000003b0: a29e 683d e855 263e 8847 d23c 1fcd 823d
000003c0: 36e1 b4bd b74d fd3d a481 4dbc f4fe 06bd
000003d0: a866 94bd 4db8 16be b9a7 283e 3c40 01be
000003e0: f36e f03d ea00 e1bb d07d d53c bb10 c43d
000003f0: b79c 05be aed1 a53d decf 053e 777b bbbc
0.09246623 -0.14658834 -0.062486734 -0.036960766 -0.03866057 0.16073404 -0.07277558 0.1268859
0.028465036 0.005532318 -0.12693514 -0.16403843 -0.15465933 0.12098062 0.029620875 -0.13098836
-0.14605084 0.109511524 0.010655957 -0.16562207 0.009037928 -0.078188814 0.0078576645 -0.09694358
-0.09884919 0.15829998 0.055735957 0.15598974 0.08851025 0.05588626 -0.018746205 0.12753642
0.02814728 0.031771433 0.066797435 0.053814664 0.08696927 -0.04731137 -0.14183585 -0.065558456
-0.010747804 -0.14409152 0.03885315 -0.06123531 0.06367248 0.14493863 0.13223308 -0.035265442
0.032442786 -0.13542709 -0.11343777 -0.08831508 0.12181754 -0.13191761 0.1675851 -0.109023124
-0.06328666 0.104336865 -0.11226519 0.07774005 0.051453356 -0.09126699 -0.036927618 -0.080381066
0.012124346 0.1402967 0.05659782 -0.10987296 0.06583261 -0.04324179 0.11849803 0.025676593
0.11624174 0.00598894 0.012239933 -0.14550565 -0.096845984 -0.1615902 -0.03544707 0.030801801
0.13301456 -0.16078259 -0.14193445 0.019153697 0.1116613 -0.08846287 -0.15110718 -0.05777742
0.077697754 -0.051489037 -0.09646195 -0.084614694 -0.018293161 -0.1394226 -0.12820819 -0.115758575
-0.024782889 -0.1318882 -0.10635159 -0.15846334 0.07403346 -0.14556283 0.14010872 0.14484572
0.132677 0.045900233 0.011096156 0.12317353 -0.054142814 0.019320305 -0.06609995 -0.040617827
0.025822917 0.013349677 -0.06758933 -0.025039412 -0.12969609 0.15021366 -0.076678656 -0.062912196
-0.015521122 -0.1342458 0.14229736 0.14926736 -0.047601044 -0.044890255 0.0015411987 0.062220037
0.025952658 0.16465236 0.14799735 -0.028426157 0.0875331 0.09712406 -0.0798458 -0.011215141
-0.008884045 0.15290527 -0.040877607 0.091043174 -0.10924501 0.15573113 -0.05302923 0.06362102
-0.16592444 0.147089 0.030057395 0.13212281 -0.15236863 -0.14779119 -0.15377113 0.08042529
0.03399056 -0.07370326 0.0044257096 0.0027682998 -0.09109841 -0.01947491 0.09089536 0.16587047
0.015463288 -0.101693965 -0.13948435 -0.09169789 -0.15498343 0.036239114 -0.019536002 0.024921633
0.12419163 0.078017585 -0.111405596 -0.06551815 0.111808464 0.105826825 -0.111466326 0.02333605
0.0711786 -0.034377325 0.09296258 0.07033513 -0.008512274 0.0006337634 -0.03391381 -0.1601701
0.06858139 -0.14763895 -0.08538204 -0.035110373 0.005457517 -0.100106634 0.031356018 0.15747888
-0.113619134 0.09592337 0.15775739 0.074559234 0.034344096 0.11626171 0.022732802 0.07870168
0.0026967158 -0.09783755 0.046367288 -0.023605881 -0.098332785 0.018004471 0.1218938 -0.030602045
0.024143737 -0.07660494 -0.02036148 -0.109255284 0.0831088 -0.15083607 0.012000234 -0.14153005
-0.0860041 0.02972812 -0.1520551 0.027106123 0.03588793 0.072987035 -0.010731843 -0.039060224
0.16459297 0.030859433 0.074376486 -0.08345263 0.009729164 0.07094347 0.16084921 0.096706234
-0.0147042675 -0.08240504 0.14292105 0.15547846 0.05679191 0.16243708 0.025668874 0.0638678
-0.08832018 0.123683386 -0.012543116 -0.032957986 -0.072461426 -0.14718743 0.16470231 -0.1262216
0.11739912 -0.006866564 0.026060969 0.095735036 -0.13048063 0.08096634 0.13067576 -0.022886021

gru.weight_hh_l0 f4 [192, 64]
00000000: b0e0 db3d e1d3 c8bd 7849 243d 507c 313d
00000010: c393 243e d035 50bc a0e9 7cbc 00ae cabb
00000020: 7260 30be 80b0 e2bd 6f58 d0bd 2219 92bc
00000030: 8033 f8ba d9ac b7bd 25b5 bd3d f206 263d
00000040: eaa8 91bd c5cb 913d dc48 9f3d b39c 04bd
00000050: d50c 1e3e 8c67 a5bc d07d 48be 4249 3c3d
00000060: 4a8f d7bc 74ba 95bd a7c8 383d 862e 983d
00000070: ef30 a73c 132e 0cbd 3ee6 993c 4886 27bc
00000080: 8e30 533c 8e3a 75bd eaee 5dbd 5fcc ef3c
00000090: 96d8 4f3c 63a7 013d 74c0 223e e5d4 b3bd
000000a0: 77f2 d23b ecd9 75bd cf9f aebd 7b0b 9f3c
000000b0: e634 093e 50ee 39bd e0f3 f8bd 3d16 513d
000000c0: 9f79 d3bd c317 103e 1572 adbd 155c 833d
000000d0: b896 b8bd 3829 41be 004f 8ebd 6054 2ebe
000000e0: 4297 c83c 0077 ad3d 86bb 86bd 3b10 0f3d
000000f0: 1674 1abd 283b 0ebd 57f8 1abd fc0a afbd
00000100: a940 a13d c0c1 c2bc 228d 89bd 26ee 98ba
00000110: f37e efbd 99fe 803c e28b 0ebd a4ba 723c
00000120: 60ff c83d 62d9 6dbc 53ca 17bd ab73 c9bd
00000130: 6859 d3bd 3c68 d4bc b6d9 4b3d 5577 43bd
00000140: edd7 79bd 6404 d63d 51bd 84bd e7da 973d
00000150: a015 2f3d a097 91bb 77e9 fe3d 9454 c5bc
00000160: 2438 a63d e559 18bd b08c 953d 945d 973d
00000170: 3104 5a3d 4606 b53c c6dd 1f3d 8788 9cbd
00000180: c609 183e 8448 6b3d ffca d8bc 2f70 683d
00000190: 98f9 4b3c 3c32 dcbc e0dd e63c dbee 0dbe
000001a0: fa81 81bd 07e7 53bd 2404 0ebe 802b afbc
000001b0: ffbb 34bc e386 13be a923 a9bd e4b6 8dbd
000001c0: 46a5 b23c bc21 c0bc 382b f7bd cc02 08be
000001d0: fb28 01be 013b ad3d 8dbb 973d 1a46 52bd
000001e0: 653a afbd 7f58 c0bd f5a5 1e3d 1dff d13c
000001f0: 88cb 92bc 2f8f 47bd 5ea9 a0bd eeb2 fe3c
00000200: 67c9 cdbd 0f36 bb3d 508e a23d 5170 81bd
00000210: 7a12 bdbb efc3 f23d e953 20bb 6548 e8bc
00000220: 79c5 b4bd 0048 49bc aa3f afbd 34df c73a
00000230: 639b 08bd 1a74 30bd 4613 983d 906e 4b39
00000240: e27f 363e 5663 b83d f575 49be 08df 2eba
00000250: 9e72 c93c 393e 6e3d e48f a83d 3836 693c
00000260: 62e3 6ebc 85ec b8bd fe9e e23c 4ed3 80bd
00000270: be0f 623a ca77 f2bd 3791 abbc e10a 143e
00000280: 656b b13d dfbf 2dbd 49a3 183e 4df0 093d
00000290: e9f9 943c e1ed 05bd 46be 9dbc 103b 8a3d
000002a0: 4325 0abe 5ac1 973b aef8 e9bd 8bf8 05bd
000002b0: 54f4 e83c 6ea6 3dbd 322d bdbc 4150 b8bd
000002c0: 79a1 043e 20bb b23d fe41 81bd f905 6cbd
000002d0: 74e5 df3c 0512 b03d bf93 cf3d 0b10 a23d
000002e0: f69c 8d3b 3996 b7bd fbbc 333d fedb 563d
000002f0: 0c1b 813d e2d8 beba 93e9 a03d 68d0 45bc
00000300: 04d3 a1bc 3403 a23d fb3a e43d 880b 0ebe
00000310: 894d 61bd 187d 0cbe 66ac 8cbc 9d9c 853d
00000320: 6405 2dbd 8bad 333d 1ea3 a33c 1a08 babc
00000330: bbab ac3d f0f0 ff3d 94a6 8e3d 3abf 193c
00000340: 98ad 823d e5aa 253d a928 7c3d 4ca9 c83d
00000350: be01 66bc 71cd b23d 515a 0f3d 0cbf fdbc
00000360: d9a2 fcbd e72f b73d 18dc 8e3d 8034 6b3c
00000370: f9e6 1bbc d9ff 31be 664a 943d c56f dabc
00000380: 459f 0dbc 60f6 723b c206 3ebd 943b 903d
00000390: 693f bebd 19fc 03be 29c3 793d 8782 523d
000003a0: 1bc3 13bc d41b de3c 2db5 223c f717 bc3c
000003b0: ab95 043d 42f8 aa3d d439 d9bc 1503 c43d
000003c0: dfe2 de3d ac5c 03be 260d 4f3b 4e47 19bd
000003d0: 66df 273d 2450 533d d2cf adbc 7ed6 6bbc
000003e0: b359 43bc cad2 d83c 00ae 05be f3e3 013e
000003f0: 13a2 48bd f5d6 c7bd f8b5 2ebe cfd7 98bc
0.10736215 -0.09806038 0.040109128 0.043331444 0.16071992 -0.012708142 -0.01543656 -0.006185293
-0.17224291 -0.11068821 -0.10173117 -0.01783425 -0.0018936247 -0.08968515 0.09263066 0.040533967
-0.07112296 0.07118944 0.07777569 -0.032376003 0.15434583 -0.020190977 -0.19579244 0.0459683
-0.026313443 -0.07310954 0.045113232 0.07430749 0.020409076 -0.034223627 0.018786546 -0.010224886
0.012889994 -0.059870295 -0.054182924 0.029272256 0.012685915 0.031653773 0.15893728 -0.08780841
0.0064375955 -0.06002228 -0.08526575 0.019414654 0.13399085 -0.045393288 -0.121558905 0.0510466
-0.10325932 0.14071564 -0.08469025 0.06414048 -0.09013122 -0.1886338 -0.06948662 -0.17024374
0.024486188 0.08469963 -0.06578736 0.034927588 -0.037708364 -0.034724385 -0.03783449 -0.08547017
0.07873661 -0.023774028 -0.06716372 -0.0011667653 -0.116941355 0.015746402 -0.03480137 0.014815006
0.09814334 -0.01451716 -0.037058186 -0.09836515 -0.10319787 -0.02592861 0.049768172 -0.047721226
-0.06099694 0.10450056 -0.06481422 0.07414799 0.042745233 -0.004443124 0.12446874 -0.024088182
0.08116177 -0.037195105 0.07302225 0.073908955 0.053226653 0.022097718 0.03902986 -0.07643228
0.14847478 0.057442203 -0.026463984 0.05674761 0.0124496445 -0.026879422 0.02818197 -0.13860647
-0.06323619 -0.051733997 -0.13868767 -0.021383047 -0.01103115 -0.14406924 -0.08258755 -0.06919649
0.021807324 -0.023453586 -0.1206879 -0.13282317 -0.12613289 0.0845852 0.07408819 -0.051336385
-0.0855606 -0.09391879 0.038732488 0.025634343 -0.017919317 -0.048720535 -0.07844804 0.03109118
-0.1004818 0.0914117 0.079373 -0.06320251 -0.005770025 0.118537776 -0.0024464077 -0.028354833
-0.088267274 -0.012285233 -0.08557065 0.0015249015 -0.033351313 -0.043079473 0.07425551 0.00019400776
0.17822221 0.09003322 -0.19673903 -0.00066708075 0.024590787 0.05816481 0.0823057 0.014234118
-0.0145805795 -0.090294875 0.027663704 -0.06290303 0.00086235616 -0.11839254 -0.020943267 0.14457275
0.08663062 -0.04241931 0.14906038 0.033676434 0.018185573 -0.032697562 -0.019255769 0.067495465
-0.13490777 0.0046312036 -0.11424385 -0.032707732 0.028436817 -0.046301298 -0.02309284 -0.08999682
0.12952222 0.087270975 -0.06311415 -0.057622883 0.027331091 0.08597187 0.10135602 0.07913216
0.0043216897 -0.089641996 0.043881398 0.052455895 0.06303987 -0.0014560486 0.07857051 -0.012073614
-0.01975394 0.07910767 0.11144062 -0.13871586 -0.055005584 -0.13719594 -0.01717205 0.06524012
-0.04224147 0.043866675 0.019975241 -0.022708941 0.084311925 0.12497127 0.06965366 0.009383971
0.06380767 0.04044618 0.061562214 0.09797916 -0.014038501 0.08730591 0.03499824 -0.030974887
-0.12335748 0.089446835 0.06975573 0.014355779 -0.009515517 -0.17382754 0.07240753 -0.026664624
-0.00864393 0.003707312 -0.046393164 0.070426136 -0.09289438 -0.12889136 0.060977135 0.05139401
-0.009018685 0.027112879 0.009930891 0.022960646 0.032369297 0.08348133 -0.026516832 0.095709
0.10883116 -0.1282832 0.003159353 -0.037421517 0.040984534 0.0515901 -0.02121726 -0.014394401
-0.011923241 0.0264677 -0.13054657 0.12684612 -0.04898269 -0.09757797 -0.17061603 -0.018657593

gru.bias_ih_l0 f4 [192]
00000000: 0000 0000 0000 0000 0000 0000 0000 0000
00000010: 0000 0000 0000 0000 0000 0000 0000 0000
00000020: 0000 0000 0000 0000 0000 0000 0000 0000
00000030: 0000 0000 0000 0000 0000 0000 0000 0000
00000040: 0000 0000 0000 0000 0000 0000 0000 0000
00000050: 0000 0000 0000 0000 0000 0000 0000 0000
00000060: 0000 0000 0000 0000 0000 0000 0000 0000
00000070: 0000 0000 0000 0000 0000 0000 0000 0000
00000080: 0000 0000 0000 0000 0000 0000 0000 0000
00000090: 0000 0000 0000 0000 0000 0000 0000 0000
000000a0: 0000 0000 0000 0000 0000 0000 0000 0000
000000b0: 0000 0000 0000 0000 0000 0000 0000 0000
000000c0: 0000 0000 0000 0000 0000 0000 0000 0000
000000d0: 0000 0000 0000 0000 0000 0000 0000 0000
000000e0: 0000 0000 0000 0000 0000 0000 0000 0000
000000f0: 0000 0000 0000 0000 0000 0000 0000 0000
00000100: 0000 0000 0000 0000 0000 0000 0000 0000
00000110: 0000 0000 0000 0000 0000 0000 0000 0000
00000120: 0000 0000 0000 0000 0000 0000 0000 0000
00000130: 0000 0000 0000 0000 0000 0000 0000 0000
00000140: 0000 0000 0000 0000 0000 0000 0000 0000
00000150: 0000 0000 0000 0000 0000 0000 0000 0000
00000160: 0000 0000 0000 0000 0000 0000 0000 0000
00000170: 0000 0000 0000 0000 0000 0000 0000 0000
00000180: 0000 0000 0000 0000 0000 0000 0000 0000
00000190: 0000 0000 0000 0000 0000 0000 0000 0000
000001a0: 0000 0000 0000 0000 0000 0000 0000 0000
000001b0: 0000 0000 0000 0000 0000 0000 0000 0000
000001c0: 0000 0000 0000 0000 0000 0000 0000 0000
000001d0: 0000 0000 0000 0000 0000 0000 0000 0000
000001e0: 0000 0000 0000 0000 0000 0000 0000 0000
000001f0: 0000 0000 0000 0000 0000 0000 0000 0000
00000200: 0000 0000 0000 0000 0000 0000 0000 0000
00000210: 0000 0000 0000 0000 0000 0000 0000 0000
00000220: 0000 0000 0000 0000 0000 0000 0000 0000
00000230: 0000 0000 0000 0000 0000 0000 0000 0000
00000240: 0000 0000 0000 0000 0000 0000 0000 0000
00000250: 0000 0000 0000 0000 0000 0000 0000 0000
00000260: 0000 0000 0000 0000 0000 0000 0000 0000
00000270: 0000 0000 0000 0000 0000 0000 0000 0000
00000280: 0000 0000 0000 0000 0000 0000 0000 0000
00000290: 0000 0000 0000 0000 0000 0000 0000 0000
000002a0: 0000 0000 0000 0000 0000 0000 0000 0000
000002b0: 0000 0000 0000 0000 0000 0000 0000 0000
000002c0: 0000 0000 0000 0000 0000 0000 0000 0000
000002d0: 0000 0000 0000 0000 0000 0000 0000 0000
000002e0: 0000 0000 0000 0000 0000 0000 0000 0000
000002f0: 0000 0000 0000 0000 0000 0000 0000 0000
0.0 0.0 0.0 0.0 0.0 0.0 0.0 0.0
0.0 0.0 0.0 0.0 0.0 0.0 0.0 0.0
0.0 0.0 0.0 0.0 0.0 0.0 0.0 0.0
0.0 0.0 0.0 0.0 0.0 0.0 0.0 0.0
0.0 0.0 0.0 0.0 0.0 0.0 0.0 0.0
0.0 0.0 0.0 0.0 0.0 0.0 0.0 0.0
0.0 0.0 0.0 0.0 0.0 0.0 0.0 0.0
0.0 0.0 0.0 0.0 0.0 0.0 0.0 0.0
0.0 0.0 0.0 0.0 0.0 0.0 0.0 0.0
0.0 0.0 0.0 0.0 0.0 0.0 0.0 0.0
0.0 0.0 0.0 0.0 0.0 0.0 0.0 0.0
0.0 0.0 0.0 0.0 0.0 0.0 0.0 0.0
0.0 0.0 0.0 0.0 0.0 0.0 0.0 0.0
0.0 0.0 0.0 0.0 0.0 0.0 0.0 0.0
0.0 0.0 0.0 0.0 0.0 0.0 0.0 0.0
0.0 0.0 0.0 0.0 0.0 0.0 0.0 0.0
0.0 0.0 0.0 0.0 0.0 0.0 0.0 0.0
0.0 0.0 0.0 0.0 0.0 0.0 0.0 0.0
0.0 0.0 0.0 0.0 0.0 0.0 0.0 0.0
0.0 0.0 0.0 0.0 0.0 0.0 0.0 0.0
0.0 0.0 0.0 0.0 0.0 0.0 0.0 0.0
0.0 0.0 0.0 0.0 0.0 0.0 0.0 0.0
0.0 0.0 0.0 0.0 0.0 0.0 0.0 0.0
0.0 0.0 0.0 0.0 0.0 0.0 0.0 0.0

gru.bias_hh_l0 f4 [192]
00000000: 0000 0000 0000 0000 0000 0000 0000 0000
00000010: 0000 0000 0000 0000 0000 0000 0000 0000
00000020: 0000 0000 0000 0000 0000 0000 0000 0000
00000030: 0000 0000 0000 0000 0000 0000 0000 0000
00000040: 0000 0000 0000 0000 0000 0000 0000 0000
00000050: 0000 0000 0000 0000 0000 0000 0000 0000
00000060: 0000 0000 0000 0000 0000 0000 0000 0000
00000070: 0000 0000 0000 0000 0000 0000 0000 0000
00000080: 0000 0000 0000 0000 0000 0000 0000 0000
00000090: 0000 0000 0000 0000 0000 0000 0000 0000
000000a0: 0000 0000 0000 0000 0000 0000 0000 0000
000000b0: 0000 0000 0000 0000 0000 0000 0000 0000
000000c0: 0000 0000 0000 0000 0000 0000 0000 0000
000000d0: 0000 0000 0000 0000 0000 0000 0000 0000
000000e0: 0000 0000 0000 0000 0000 0000 0000 0000
000000f0: 0000 0000 0000 0000 0000 0000 0000 0000
00000100: 0000 0000 0000 0000 0000 0000 0000 0000
00000110: 0000 0000 0000 0000 0000 0000 0000 0000
00000120: 0000 0000 0000 0000 0000 0000 0000 0000
00000130: 0000 0000 0000 0000 0000 0000 0000 0000
00000140: 0000 0000 0000 0000 0000 0000 0000 0000
00000150: 0000 0000 0000 0000 0000 0000 0000 0000
00000160: 0000 0000 0000 0000 0000 0000 0000 0000
00000170: 0000 0000 0000 0000 0000 0000 0000 0000
00000180: 0000 0000 0000 0000 0000 0000 0000 0000
00000190: 0000 0000 0000 0000 0000 0000 0000 0000
000001a0: 0000 0000 0000 0000 0000 0000 0000 0000
000001b0: 0000 0000 0000 0000 0000 0000 0000 0000
000001c0: 0000 0000 0000 0000 0000 0000 0000 0000
000001d0: 0000 0000 0000 0000 0000 0000 0000 0000
000001e0: 0000 0000 0000 0000 0000 0000 0000 0000
000001f0: 0000 0000 0000 0000 0000 0000 0000 0000
00000200: 0000 0000 0000 0000 0000 0000 0000 0000
00000210: 0000 0000 0000 0000 0000 0000 0000 0000
00000220: 0000 0000 0000 0000 0000 0000 0000 0000
00000230: 0000 0000 0000 0000 0000 0000 0000 0000
00000240: 0000 0000 0000 0000 0000 0000 0000 0000
00000250: 0000 0000 0000 0000 0000 0000 0000 0000
00000260: 0000 0000 0000 0000 0000 0000 0000 0000
00000270: 0000 0000 0000 0000 0000 0000 0000 0000
00000280: 0000 0000 0000 0000 0000 0000 0000 0000
00000290: 0000 0000 0000 0000 0000 0000 0000 0000
000002a0: 0000 0000 0000 0000 0000 0000 0000 0000
000002b0: 0000 0000 0000 0000 0000 0000 0000 0000
000002c0: 0000 0000 0000 0000 0000 0000 0000 0000
000002d0: 0000 0000 0000 0000 0000 0000 0000 0000
000002e0: 0000 0000 0000 0000 0000 0000 0000 0000
000002f0: 0000 0000 0000 0000 0000 0000 0000 0000
0.0 0.0 0.0 0.0 0.0 0.0 0.0 0.0
0.0 0.0 0.0 0.0 0.0 0.0 0.0 0.0
0.0 0.0 0.0 0.0 0.0 0.0 0.0 0.0
0.0 0.0 0.0 0.0 0.0 0.0 0.0 0.0
0.0 0.0 0.0 0.0 0.0 0.0 0.0 0.0
0.0 0.0 0.0 0.0 0.0 0.0 0.0 0.0
0.0 0.0 0.0 0.0 0.0 0.0 0.0 0.0
0.0 0.0 0.0 0.0 0.0 0.0 0.0 0.0
0.0 0.0 0.0 0.0 0.0 0.0 0.0 0.0
0.0 0.0 0.0 0.0 0.0 0.0 0.0 0.0
0.0 0.0 0.0 0.0 0.0 0.0 0.0 0.0
0.0 0.0 0.0 0.0 0.0 0.0 0.0 0.0
0.0 0.0 0.0 0.0 0.0 0.0 0.0 0.0
0.0 0.0 0.0 0.0 0.0 0.0 0.0 0.0
0.0 0.0 0.0 0.0 0.0 0.0 0.0 0.0
0.0 0.0 0.0 0.0 0.0 0.0 0.0 0.0
0.0 0.0 0.0 0.0 0.0 0.0 0.0 0.0
0.0 0.0 0.0 0.0 0.0 0.0 0.0 0.0
0.0 0.0 0.0 0.0 0.0 0.0 0.0 0.0
0.0 0.0 0.0 0.0 0.0 0.0 0.0 0.0
0.0 0.0 0.0 0.0 0.0 0.0 0.0 0.0
0.0 0.0 0.0 0.0 0.0 0.0 0.0 0.0
0.0 0.0 0.0 0.0 0.0 0.0 0.0 0.0
0.0 0.0 0.0 0.0 0.0 0.0 0.0 0.0

gru.weight_ih_l1 f4 [192, 64]
00000000: 6ccf 92bd 5c21 46be b690 8ebd 7b3b 393d
00000010: 6b17 4b3d 5879 6e3d de01 e3bd 4495 123b
00000020: 42a7 b13d de6d 003e ef6f 69bd 5a59 45be
00000030: ffbb 683d 44e7 5c3c 2ffb d5bd 5775 b9bd
00000040: eb94 a5bc 9240 1cbe 7803 e7bd b4f5 3fbd
00000050: 7a42 b43c e1b6 8fbc 2563 a73d 3e9a b9bc
00000060: eb60 2abc 52b4 8b3d 040f 453e 3afc 35bd
00000070: 3bc2 82bd 0300 52bd 5476 a1bd 10c6 f43c
00000080: aafa 963d 944f 90bd e963 8e3d b3cd ee3d
00000090: 425f 053e 4c41 95bd 20f5 ffbd 5c9f cd3c
000000a0: 6587 ad3d e1db 01be 17a9 133e 5eaf c53d
000000b0: f5ff 843d af0d c2bc f459 c7bd 5923 b33d
000000c0: c711 7cbd cbe1 873c 0a79 2dbd 3210 19be
000000d0: 5cec bd3d d27d 19be d1eb f93d 4c58 e03d
000000e0: 6d72 3bbd 4fd9 4a3e 431a d23d 4825 1cbe
000000f0: 6589 46be 34e9 6e3d 9f85 aabc d826 b6bd
00000100: 6aa8 1c3e bf24 8fbb c7ac 343d aa23 06be
00000110: b2d5 d13d 6a06 9e3d 6507 0cbe 2e24 afbd
00000120: b144 04be c8df 08bd af30 dcbd 61a2 a53d
00000130: bb1d 1dbe fb8a 49bd 8420 01be 1325 213e
00000140: fc25 05be abf8 ee3d ef75 103e 219a 9abc
00000150: cea5 d2bd adb0 07bd 6b84 19bd 78fd f83c
00000160: 75ac 1abe 6457 03bd f514 0cbe 1ea3 06be
00000170: bce9 00be bce7 e8bd c530 8dbd 5acd 96bd
00000180: 9bd7 97bd 8fa1 8fbd aecb ddbd 5693 073e
00000190: 010a ac3d 77de b0bd cd1f d33d 38a7 113e
000001a0: dca0 85bc 0763 d1bc 12ab aa3d bdfe f43d
000001b0: 24da f8bd 8fe0 6f3c ac30 5cbd 50b7 84bd
000001c0: a6cd 0ebd 8ee9 143c 0d43 36bd b49e 953d
000001d0: 4e8b ab3d 9eec ca3d f3ff 273d a6d9 173e
000001e0: 5ce2 453d b203 b13c 04f5 58bd 8099 d4bd
000001f0: 875f 843d 0204 de3d d606 b63d 14f8 00be
00000200: 2bd8 59bd a6a7 aa3c 66b8 c1bd b750 53bd
00000210: 4b01 013e e37b ed3d 0882 0fbd d524 1c3e
00000220: 8d99 8abc ac07 bd3d 1a04 bb3d 8885 063e
00000230: 4296 87bd 2f4a 013e cc34 dabd 28c4 d23d
00000240: 3fe5 133d 62ce 493d 6097 2cbe 9925 883c
00000250: 3615 dbbd 05de 82bd 289b e63a 0914 b5bc
00000260: 37e9 a3bd 972a ee3c 289a 0f3e 05ac a73d
00000270: f519 8a3d a294 78bd 1517 e33c 9325 acbd
00000280: 126d 0abe 3e7f 19be e1f0 203c 5e19 333d
00000290: 915a e3bd 0b2e debd 1451 efbd 4656 a53d
000002a0: c4ca 213e 5178 10be 8dfa 9fbc b5b6 91bd
000002b0: b505 02be 877c 12be 0922 dcbc 0ef3 de3d
000002c0: a103 2bbd 7822 ed3d febd 653d e8d6 083e
000002d0: 1b9c 403d e0d9 b73b 8eb6 63bd 05c2 dc3d
000002e0: c45f bb3d 2da1 09be 2150 c9bd 62af 88bc
000002f0: da00 5fbd ccd0 2c3e 77e4 cabd 241b e4bd
00000300: 7855 fb3d 83f8 883d a3fa 043e 2a24 103e
00000310: f572 4a3d 5b8c c2bd d48b 6a3c c4e1 963d
00000320: 8c6f 943c cc9f a2bd ff54 acbc 6f7d 0bbc
00000330: 8571 b3bd 48ca c9bd fd87 873d b31a f53d
00000340: 447a cb3d fe20 783d 121d b9bc da5f 553c
00000350: 52bf c8bd 650f 073d fc1a c4bd 516b 293c
00000360: 567e ea3d 6383 b93c 62ce 9a3d a622 abbd
00000370: fc5f 7bbd e04c 07be 5560 5fbe ace3 4ebd
00000380: ef82 96bb 86d4 e23c a96a ca3d 373f c53d
00000390: aeb6 f73d ed1d 8abd 95e1 74bd 10c0 383e
000003a0: 4c20 90bb 63c9 0e3e 1fd1 bc3c 7b32 a53d
000003b0: 7ac1 b3bd e1ee 86bd 3abd e2bd bb7b af3d
000003c0: 8831 bd3c b04d 8c3d 8ea8 1abe ad0d e3bd
000003d0: a067 0ebd 08a6 1a3e 654e b1bd ad0c 293c
000003e0: 6785 903d d0bc 3d3c f457 e23d 4c1a df3c
000003f0: 7aa3 0fbc 5306 493c 4eb2 c23d 04da e13d
-0.07168469 -0.19348663 -0.06961195 0.04522274 0.04958288 0.05822119 -0.110843405 0.0022366801
0.0867448 0.12541911 -0.056991514 -0.19272366 0.056819912 0.013482872 -0.104483 -0.09055584
-0.020212611 -0.15259007 -0.112799585 -0.04686518 0.022004355 -0.017543258 0.08173207 -0.022656556
-0.010399084 0.06821503 0.1924401 -0.044429995 -0.06384703 -0.051269542 -0.078838974 0.0298796
0.07372029 -0.07046428 0.0695265 0.11660328 0.13024619 -0.07287845 -0.12497926 0.025100403
0.0847309 -0.12681533 0.14419971 0.09652589 0.064941324 -0.023688165 -0.09733954 0.087469764
-0.06154039 0.016587159 -0.04235176 -0.14947584 0.092735976 -0.14989403 0.122031815 0.10954341
-0.04576342 0.19809459 0.10258915 -0.15248597 -0.1938835 0.05832787 -0.020815669 -0.088941276
0.1529862 -0.004368394 0.044110086 -0.13099542 0.10245837 0.07716067 -0.13674696 -0.085518226
-0.12916829 -0.03341654 -0.10751473 0.08087612 -0.15343373 -0.049204808 -0.1261006 0.15736799
-0.13002771 0.116685234 0.14107488 -0.018872323 -0.10285531 -0.033127476 -0.0374798 0.0303943
-0.1510485 -0.032065764 -0.1367987 -0.13148162 -0.12589163 -0.11372325 -0.06894068 -0.073633865
-0.0741417 -0.07013237 -0.108298644 0.13239798 0.084003456 -0.08636182 0.103088 0.14223945
-0.016312055 -0.025559915 0.0833341 0.1196265 -0.12150982 0.014640941 -0.053757355 -0.064802766
-0.03486409 0.009088887 -0.04449754 0.07305661 0.0837618 0.099084124 0.041015577 0.1482912
0.048311576 0.021608207 -0.05296804 -0.1038084 0.06463533 0.10840608 0.088880226 -0.12594634
-0.05318467 0.020831894 -0.09458999 -0.051590648 0.1259815 0.11595895 -0.035036117 0.15248425
-0.016918922 0.09229979 0.09131642 0.13136876 -0.06620456 0.12625955 -0.106546015 0.1029132
0.036107298 0.049269088 -0.1685462 0.01661949 -0.10697405 -0.06390003 0.0017593848 -0.02210428
-0.080034666 0.029073043 0.1402365 0.08187107 0.06743232 -0.060688622 0.027720967 -0.08405604
-0.1351817 -0.14989945 0.009823055 0.043725364 -0.111012585 -0.10848626 -0.11685386 0.08073096
0.15800005 -0.14108397 -0.019528652 -0.07114927 -0.1269749 -0.14305316 -0.026871698 0.10886203
-0.041751508 0.1157884 0.056089394 0.1336323 0.047023874 0.0056106895 -0.05559402 0.10779194
0.09149125 -0.1344039 -0.098297365 -0.016685192 -0.05444417 0.16876525 -0.099068575 -0.11137989
0.12272161 0.06688025 0.12986235 0.14076295 0.049426038 -0.09499427 0.014315564 0.0736728
0.018119596 -0.07940635 -0.021036623 -0.008513792 -0.087618865 -0.09853035 0.066177346 0.11967983
0.0993543 0.06057834 -0.02259687 0.013023341 -0.098021165 0.032973666 -0.09575459 0.010340528
0.11449878 0.022645658 0.07558896 -0.08356218 -0.061370835 -0.13212919 -0.21814092 -0.050510094
-0.004593245 0.02768923 0.09883625 0.09631198 0.1209539 -0.06743989 -0.059785444 0.18042016
-0.0043983813 0.1394401 0.023048935 0.08066269 -0.08777137 -0.06588531 -0.11071248 0.085685216
0.023094907 0.06850755 -0.15103361 -0.11086593 -0.034766793 0.15102398 -0.08657531 0.010317964
0.070566945 0.011580661 0.11051932 0.027234219 -0.008767003 0.012269574 0.09506665 0.11027911

gru.weight_hh_l1 f4 [192, 64]
00000000: eb95 223d 63b0 8e3c 97c7 f0bd 4837 4ebc
00000010: ce4f fd3d 889e afbb f69b f7bc 570d 70bb
00000020: 0129 e53c f31c e43a 6d44 0e3d 1188 663c
00000030: 80a5 953d 2f6d a1bc 67c9 c73d 23a8 c83c
00000040: 67bf 42bc b6b5 403c 48d6 08be 0852 1dbd
00000050: 018d 3a3e d0e9 a4bd ec50 07be 3890 713d
00000060: acbb 503e c8b7 b0bd 7eed 833d ed70 0bbe
00000070: 4546 4fbd a92e e83d 41b3 56bd f9ed 11be
00000080: 63fd bc3d a778 0f3e 948f f2bc f86a d9bb
00000090: c8d9 41bd 350b 0dbc 21b0 d83c 009e d7bd
000000a0: 8d80 043e 3006 3f3d 9bd1 49bd a073 97bd
000000b0: b4c0 67bd 3dbb 14be 628a 19bc b1f1 21be
000000c0: bfac 77bd 1c24 a6bc 2393 edbd ee85 fb3d
000000d0: 12d0 86bc f66b ac3d f82a 873d 8dc0 093b
000000e0: 3854 083e c21c bb3d 5e8f 393e 3e77 8cb9
000000f0: 0ad8 80be 5daf dabd acb4 1ebe be49 133e
00000100: 4f64 2ebe f64f 133d f7a3 003d 8a9a 923c
00000110: d15e 193c 3036 40bd cfeb 0bbc 2fcd 833d
00000120: cb4b e6bd 6728 283e 6cb2 16bd b749 b9bd
00000130: 9edf 69bd e204 443d dbcc b43d d34f 7ebd
00000140: 4d85 a0bc 7721 803d 9b46 f33d e321 33bc
00000150: 9503 e7bd 41de a53d 19b4 59bd 9394 87bd
00000160: ddef d13d 2673 9ebd 0617 a6bd e896 be3c
00000170: 3de4 70bd 910c 413d 1e82 3c3d dcfc a73d
00000180: 7d35 8a3d 4519 5c3d 75ae 2e3c d35e 92bc
00000190: 3c2a 93bc 484b 2ebd 6371 86bc 937e 3fbb
000001a0: 79ed eabc 106e e33c 2421 09be c8c9 073e
000001b0: 18d1 3ebd 7102 c1bd 0b53 893d 0805 a33d
000001c0: a590 3ebc 8fd0 d03b be8a 5dbd eadd 18be
000001d0: cf0d 2cbe fdf2 11be 9d89 913d 063e a3bd
000001e0: 4905 54bb abc0 b7bc 3fff 0cbc b351 9d3c
000001f0: 807b 613d 0216 77bd 4f19 373d f04d 5d3d
00000200: b86e 8c3d 64a3 3fbc 59e9 72bc ff82 e7bd
00000210: 4fb6 fc3d 6075 513d 922e a6bd cfda 1ebd
00000220: da77 94bd 5ed5 a73b d8c9 23be f0bd 6f3e
00000230: ed2c 423d 5abd f03d 5342 90bb 2ab6 4abc
00000240: de23 f5bc 394b 083e 4f06 39bc f338 fc3b
00000250: 44f5 403e af98 99bd 1f3c 2e3c 286e bfbc
00000260: ac9f 693c 5dd3 dbbb 1a79 e8bc 8d13 f4bd
00000270: 1d3f edbd 8132 653d 92bf 05be 0c24 473d
00000280: ef1e 2abd a8bd a4bd 1369 0bbd d446 103d
00000290: 5730 4cbd 5aa8 2b3d 15fb e83d cd8b 15bd
000002a0: b847 7a3d 61bd 913d 367e 1a3e 48b1 ba3d
000002b0: 9260 123d 2752 d1bd a175 263d 3b41 c6bd
000002c0: e312 eabd 38f5 c63c bd95 bebd 1909 57bc
000002d0: fed1 0bbd 5d6a 003d 1391 55bc 119c c039
000002e0: 26cf 933d c26f d0bc d6a7 a3bc b25b 063d
000002f0: 24dd e0bd 5670 6ebc 25f8 153d fb5f ddbb
00000300: b498 e2bd 5cdc fbbb d8f0 c5bd f5e7 083d
00000310: 6ca2 443d 4588 15bd ec63 223e 087f d33d
00000320: 8147 c0bd df69 8dbb 0490 963d 67bd 6fbd
00000330: e566 843d 188e 8ebc dbae e63d 1d03 143e
00000340: 1c2e b5bd 7ecf 89bd 5657 64bd 2fc8 edbd
00000350: ccf4 e53d d344 56bd 1c05 8a3d 952b e73c
00000360: 1ed8 303d 00a7 26bd 0270 c8bb c60c a3bd
00000370: 9e39 24be 213f e9bd db3e bcbc 89af 133d
00000380: 128b ba3c 30ce f73d 98d9 4abe 0c05 a0bc
00000390: aeb2 00bd 0855 ddbd d508 373e b30f e53c
000003a0: 8a65 053e 27c0 033e b484 21bd 2aba b9bd
000003b0: 608d 023e 6695 05bd e175 9cbd 39e3 76bd
000003c0: 4f6a 26bd baf1 c2b9 adbd 2cbe 27db 5c3d
000003d0: 7b21 6a3d f496 543d b93e 863d 9618 243e
000003e0: d69a 893d 5958 b7bd c63a 213e 4cc0 cfbc
000003f0: fae6 14be b714 e23c f6fa c7bd 4a3c d5bc
0.039693754 0.017418092 -0.11756819 -0.012586422 0.12368737 -0.0053594746 -0.030225735 -0.0036629045
0.027973654 0.0017403647 0.034733225 0.014070527 0.07306957 -0.019705383 0.09755211 0.024494236
-0.011886454 0.011762073 -0.13362992 -0.03840831 0.18217851 -0.08052409 -0.13214463 0.05897543
0.20384091 -0.086288035 0.064417824 -0.13617297 -0.050604124 0.11337025 -0.052417044 -0.14250936
0.09228017 0.14010869 -0.029609479 -0.006635066 -0.047326833 -0.008608629 0.026451172 -0.10528183
0.12939663 0.04663676 -0.04927216 -0.073951006 -0.05658026 -0.1452455 -0.009371372 -0.15814854
-0.060467478 -0.02028089 -0.1160033 0.122814044 -0.016456638 0.084190294 0.065999925 0.002101931
0.13313377 0.091363445 0.18121096 -0.00026791723 -0.25164825 -0.10677979 -0.15498608 0.14383599
-0.17030452 0.03596493 0.03140637 0.017895956 0.009360985 -0.046926677 -0.008540108 0.0643562
-0.11244925 0.16421662 -0.03679125 -0.09047263 -0.057098024 0.04785622 0.088281356 -0.062087845
-0.019594813 0.06256383 0.11878701 -0.010933372 -0.1127998 0.08099032 -0.05315027 -0.06620135
0.102508284 -0.077368066 -0.0810986 0.023265317 -0.058811415 0.047131125 0.046022527 0.08202526
0.06748483 0.053735036 0.010661711 -0.017867481 -0.017964475 -0.042552263 -0.016411489 -0.0029219731
-0.028677689 0.027762443 -0.13391548 0.13260567 -0.046586126 -0.09424294 0.06705292 0.07959944
-0.011631166 0.0063725184 -0.054087393 -0.14928403 -0.16802143 -0.14252849 0.07106326 -0.079708144
-0.0032351783 -0.022430738 -0.008605777 0.019203996 0.05504942 -0.060323723 0.04470187 0.054029405
0.068570554 -0.01169667 -0.014826142 -0.113042824 0.1233946 0.05113733 -0.08114351 -0.03878289
-0.07249422 0.005121871 -0.15994966 0.23412299 0.047406126 0.11754866 -0.0044024377 -0.012372533
-0.02992433 0.13309945 -0.011293008 0.0076972186 0.18843561 -0.07499825 0.010634451 -0.023367956
0.01425926 -0.006708546 -0.028378058 -0.119177915 -0.115843035 0.055956367 -0.1306136 0.04861836
-0.041533407 -0.080439866 -0.034035753 0.035223797 -0.049850788 0.0419086 0.11376015 -0.036510278
0.061103553 0.07116199 0.15087208 0.09115845 0.035736628 -0.102207474 0.040639523 -0.096804105
-0.114293836 0.024286851 -0.09305904 -0.013124728 -0.03413581 0.031351436 -0.013035077 0.00036737372
0.07217245 -0.025443915 -0.019977491 0.03280229 -0.10979679 -0.01455315 0.036613602 -0.0067558265
-0.11064282 -0.007686181 -0.09665078 0.033424336 0.04800646 -0.03650691 0.1585843 0.10326964
-0.09388638 -0.0043155993 0.073516876 -0.058530238 0.06464938 -0.01740174 0.1126382 0.14454313
-0.08846685 -0.06729029 -0.055747353 -0.116104476 0.11228332 -0.05231173 0.06739256 0.028219024
0.043174855 -0.040686607 -0.006116868 -0.07961421 -0.16037604 -0.11388994 -0.02297919 0.036056075
0.022771392 0.12099874 -0.19809568 -0.019533657 -0.031420402 -0.10807234 0.17874463 0.027961588
0.13027015 0.12866269 -0.039433196 -0.09068711 0.12749243 -0.03261318 -0.07639671 -0.06027529
-0.040628728 -0.00037182664 -0.1686923 0.053919937 0.057160836 0.051901773 0.06554932 0.16025004
0.06718986 -0.08952398 0.15745077 -0.025360249 -0.14541236 0.027597768 -0.09764664 -0.026029725

gru.bias_ih_l1 f4 [192]
00000000: b1f0 4abd 219b 5dbc 078f 38bc 2066 92bd
00000010: da73 28bd ed9b 3ebd 67ab 8abd 1569 d2bc
00000020: 5120 27bd 960b 84bd 0fe5 5dbd f7b2 85bd
00000030: 7bc1 93bd 2e99 6c3d 248e 06bc d0f9 3bbd
00000040: 14aa 84bd 5649 0dbd ec90 b9bc 50ea 91bd
00000050: f243 ae3c a73d 13bd 8c4c c2bc 52ad 74bd
00000060: ff2f 33bd 1fe6 87bd 45b2 7bbd 8d34 78bd
00000070: af77 48bc 8978 c8bc 6457 59bd 5f49 8abd
00000080: 063e adba 7567 56bd 6f05 88bc 4841 02bd
00000090: d1db 53bd 11a2 4bbd 0f2a 09bd 1a25 d03c
000000a0: 7076 31bd 21ec e4bc 76ad 37bd 352c b13b
000000b0: a6ec 0dbc a230 dcbc 1c43 ffbc 0d18 44bd
000000c0: 023c dcbc c234 a4bc c192 3c3c 91cd c6bc
000000d0: fa33 3abd 3292 79bd 676c 31bd b8e3 cdbb
000000e0: 0b86 3fbd e096 0fbd 3007 4dbd ba17 09bc
000000f0: c794 8fbd 7842 57bd 199c 23bd e1cc 38bd
00000100: df52 913d 92c8 933d 3b51 973c 7e35 853d
00000110: 0c74 603d d9c8 153d bad9 953d 1f1d 703d
00000120: 26da 693d 6ed8 663d 5b1a a43d 4c8e 813d
00000130: 80ba 563d 19cd 54ba 0a89 cdbc 422e d43d
00000140: f351 cf3d e366 bf3d 76c8 8d3d bdd2 463d
00000150: 109f 0b3d 39c1 8c3d d785 0ebc 5ac8 983d
00000160: 3539 743d e40b b53d 123e ad3c 4a05 ac3d
00000170: e18e e03c 6d36 a53d a2e6 033a 1ef4 583d
00000180: ac8d 063d 29d8 7a3d 3b71 893d bf15 b63c
00000190: 7f5a 153d 6cca d03c a820 703d 0304 313d
000001a0: 795e 8f3c 42b7 493c 1f41 b13d c663 d13c
000001b0: 83e4 263d 35f4 783d 71bc 2f3c 4d52 803d
000001c0: cf29 af3d 4636 463d de50 9c3c 3d0f 99bc
000001d0: ba18 e33d 365b 4f3d 2335 483d 968e f3bb
000001e0: 4294 8a3d be2a 1e3d e13a 583d 3eb6 833d
000001f0: 8add fd3c cb45 9a3c e2ca 6f3d 3ff2 383b
00000200: aa1a ddbc 4b94 863b 247a 953c 9cd7 083c
00000210: 576c 6abd 846e 46bd 28a7 e3bc 6aea ddbc
00000220: d272 ec3c fc31 07bd 3110 d13c a0d7 f2bc
00000230: 0e2d 8bbc 5223 b7bd 9187 27bd 3832 05bc
00000240: ac2c a13c e03e a13c 48aa 393d 4c58 fa3b
00000250: 6867 6fbd 135d 063d 37a2 733d 1481 83bd
00000260: 710e 99bc 4322 dcbc 5902 06bd 0fb0 053d
00000270: a5a2 0d3d 6ac3 77bc 8367 443c 7a60 193d
00000280: 42ef 1cbd 4b0f 52bd 43f8 e63c 2ad7 f6bc
00000290: 7e66 663d 3106 d63b 031b 21bd b2d2 3c3d
000002a0: c24e bcba 1388 9ebc 0f2e b6bc 7ce5 293d
000002b0: 7cb5 65bd fd93 3f3d e7d5 16bc a242 bb3c
000002c0: 4ec7 803c c0b4 08bd ceed 293d 5a58 07bd
000002d0: 4af1 82bc 9751 2dbd c50a aabb a2e3 16bd
000002e0: 2a01 07bd aad1 db3c f0b5 7bba 9552 00bd
000002f0: 2ee5 d53c e61e e9bc 477b 3e3d 2b9c 92bc
-0.049545947 -0.013525755 -0.011264569 -0.07148385 -0.04112611 -0.04653542 -0.06770974 -0.025684873
-0.040802304 -0.06447522 -0.054173525 -0.065282755 -0.07214638 0.05776327 -0.0082126 -0.045892537
-0.06477752 -0.034493767 -0.022652112 -0.0712477 0.021272633 -0.035947468 -0.023718141 -0.059735604
-0.043746945 -0.06635689 -0.061449308 -0.06059699 -0.012235566 -0.024471538 -0.053061858 -0.06752276
-0.0013217337 -0.052344758 -0.016604153 -0.03180054 -0.051723305 -0.049715105 -0.033487376 0.025408316
-0.04332584 -0.027944626 -0.04484316 0.005406881 -0.008662378 -0.026878659 -0.03115993 -0.0478745
-0.026884083 -0.020044688 0.011509598 -0.024267944 -0.045459725 -0.06093044 -0.04331627 -0.0062832497
-0.046758693 -0.035055995 -0.050055683 -0.008367473 -0.07010799 -0.052553624 -0.03994379 -0.045117263
0.070958845 0.0721599 0.01847135 0.065043435 0.05479817 0.036568496 0.07316919 0.058621522
0.05709281 0.056358747 0.080128394 0.06325969 0.052423954 -0.000811772 -0.02508976 0.103603855
0.101230524 0.09345796 0.069230005 0.04854082 0.03408724 0.06872792 -0.008698902 0.07460089
0.05962487 0.088401586 0.021147761 0.08399446 0.02741188 0.080670215 0.00050316204 0.052967183
0.032849953 0.061241303 0.0671105 0.022227166 0.036463257 0.025487147 0.058624893 0.043216716
0.017501103 0.0123117585 0.08654999 0.025560271 0.04074527 0.06077977 0.01072608 0.06265698
0.08552896 0.048391603 0.01908153 -0.018684024 0.110887006 0.050624095 0.0488788 -0.007432769
0.06766559 0.03861498 0.052790526 0.06431244 0.030989427 0.018832108 0.058543094 0.0028220562
-0.026990253 0.0041070334 0.018246718 0.0083521865 -0.057232227 -0.04844524 -0.027789667 -0.027089316
0.028863344 -0.033006653 0.025520416 -0.029643834 -0.016989257 -0.08942284 -0.04090077 -0.008129649
0.019674622 0.019683301 0.04532841 0.0076399203 -0.058448225 0.032803606 0.059480872 -0.06421104
-0.018683644 -0.026871806 -0.032717083 0.032638606 0.034578938 -0.015122274 0.01198757 0.037445523
-0.03831411 -0.051284116 0.028194552 -0.030131895 0.056250088 0.0065315 -0.0393324 0.046099372
-0.0014366733 -0.019351995 -0.02223876 0.04147862 -0.05608128 0.046771992 -0.009206272 0.022858921
0.015720036 -0.0333755 0.041486554 -0.033043243 -0.015984196 -0.04231414 -0.005189272 -0.03683818
-0.032960095 0.026833374 -0.0009602001 -0.031328756 0.026110258 -0.028457116 0.046504285 -0.017896732

gru.bias_hh_l1 f4 [192]
00000000: b1f0 4abd 219b 5dbc 078f 38bc 2066 92bd
00000010: da73 28bd ed9b 3ebd 67ab 8abd 1569 d2bc
00000020: 5120 27bd 960b 84bd 0fe5 5dbd f7b2 85bd
00000030: 7bc1 93bd 2e99 6c3d 248e 06bc d0f9 3bbd
00000040: 14aa 84bd 5649 0dbd ec90 b9bc 50ea 91bd
00000050: f243 ae3c a73d 13bd 8c4c c2bc 52ad 74bd
00000060: ff2f 33bd 1fe6 87bd 45b2 7bbd 8d34 78bd
00000070: af77 48bc 8978 c8bc 6457 59bd 5f49 8abd
00000080: 063e adba 7567 56bd 6f05 88bc 4841 02bd
00000090: d1db 53bd 11a2 4bbd 0f2a 09bd 1a25 d03c
000000a0: 7076 31bd 21ec e4bc 76ad 37bd 352c b13b
000000b0: a6ec 0dbc a230 dcbc 1c43 ffbc 0d18 44bd
000000c0: 023c dcbc c234 a4bc c192 3c3c 91cd c6bc
000000d0: fa33 3abd 3292 79bd 676c 31bd b8e3 cdbb
000000e0: 0b86 3fbd e096 0fbd 3007 4dbd ba17 09bc
000000f0: c794 8fbd 7842 57bd 199c 23bd e1cc 38bd
00000100: df52 913d 92c8 933d 3b51 973c 7e35 853d
00000110: 0c74 603d d9c8 153d bad9 953d 1f1d 703d
00000120: 26da 693d 6ed8 663d 5b1a a43d 4c8e 813d
00000130: 80ba 563d 19cd 54ba 0a89 cdbc 422e d43d
00000140: f351 cf3d e366 bf3d 76c8 8d3d bdd2 463d
00000150: 109f 0b3d 39c1 8c3d d785 0ebc 5ac8 983d
00000160: 3539 743d e40b b53d 123e ad3c 4a05 ac3d
00000170: e18e e03c 6d36 a53d a2e6 033a 1ef4 583d
00000180: ac8d 063d 29d8 7a3d 3b71 893d bf15 b63c
00000190: 7f5a 153d 6cca d03c a820 703d 0304 313d
000001a0: 795e 8f3c 42b7 493c 1f41 b13d c663 d13c
000001b0: 83e4 263d 35f4 783d 71bc 2f3c 4d52 803d
000001c0: cf29 af3d 4636 463d de50 9c3c 3d0f 99bc
000001d0: ba18 e33d 365b 4f3d 2335 483d 968e f3bb
000001e0: 4294 8a3d be2a 1e3d e13a 583d 3eb6 833d
000001f0: 8add fd3c cb45 9a3c e2ca 6f3d 3ff2 383b
00000200: d48a a6bc 627a a73c 443b 823c da3a 8abb
00000210: eeef fbbc 0707 24bd a0ab d8bc e1ac 0fbd
00000220: 39e7 003d cc06 e1bc a721 a43c 3335 28bd
00000230: 9da3 00bd 3378 a2bd 2167 cbbc 92c1 85bc
00000240: 80fb 843c 3f4b 033d 0813 ec3c a76f d23c
00000250: 0a7a 46bd 80ec 2b3d 3a0a 463d 6db0 3dbd
00000260: e624 92bc 4819 04bd fdd4 ddbc ce07 eb3c
00000270: 5caf d83c e9e2 ddbc ef71 033c b57f 6b3c
00000280: 150d f6bc 60e5 54bd 3618 ef3c 8c86 fabc
00000290: a84f 493d 883b 323c ebe2 e7bc a689 023d
000002a0: 96f0 64bc b96d c3bc 2a47 e7bc 33ab f33c
000002b0: 8f55 1abd 8168 273d 8d5c 81bc 3c20 0b3d
000002c0: f5f0 023d 312d c0bc ec75 f83c 67d5 2bbd
000002d0: 096f 4dbc 6241 fbbc 07d9 39bc 4993 e6bc
000002e0: f6df 22bd 9493 933c 75b1 8ebc 0dc4 c9bc
000002f0: 8125 063d f0ea 18bd 639e 983c 2392 5fbb
-0.049545947 -0.013525755 -0.011264569 -0.07148385 -0.04112611 -0.04653542 -0.06770974 -0.025684873
-0.040802304 -0.06447522 -0.054173525 -0.065282755 -0.07214638 0.05776327 -0.0082126 -0.045892537
-0.06477752 -0.034493767 -0.022652112 -0.0712477 0.021272633 -0.035947468 -0.023718141 -0.059735604
-0.043746945 -0.06635689 -0.061449308 -0.06059699 -0.012235566 -0.024471538 -0.053061858 -0.06752276
-0.0013217337 -0.052344758 -0.016604153 -0.03180054 -0.051723305 -0.049715105 -0.033487376 0.025408316
-0.04332584 -0.027944626 -0.04484316 0.005406881 -0.008662378 -0.026878659 -0.03115993 -0.0478745
-0.026884083 -0.020044688 0.011509598 -0.024267944 -0.045459725 -0.06093044 -0.04331627 -0.0062832497
-0.046758693 -0.035055995 -0.050055683 -0.008367473 -0.07010799 -0.052553624 -0.03994379 -0.045117263
0.070958845 0.0721599 0.01847135 0.065043435 0.05479817 0.036568496 0.07316919 0.058621522
0.05709281 0.056358747 0.080128394 0.06325969 0.052423954 -0.000811772 -0.02508976 0.103603855
0.101230524 0.09345796 0.069230005 0.04854082 0.03408724 0.06872792 -0.008698902 0.07460089
0.05962487 0.088401586 0.021147761 0.08399446 0.02741188 0.080670215 0.00050316204 0.052967183
0.032849953 0.061241303 0.0671105 0.022227166 0.036463257 0.025487147 0.058624893 0.043216716
0.017501103 0.0123117585 0.08654999 0.025560271 0.04074527 0.06077977 0.01072608 0.06265698
0.08552896 0.048391603 0.01908153 -0.018684024 0.110887006 0.050624095 0.0488788 -0.007432769
0.06766559 0.03861498 0.052790526 0.06431244 0.030989427 0.018832108 0.058543094 0.0028220562
-0.02032987 0.020444099 0.0158974 -0.0042184414 -0.030754056 -0.040045764 -0.026449025 -0.03507698
0.03147051 -0.027469061 0.020035578 -0.04106636 -0.031406034 -0.079330824 -0.02482945 -0.016327653
0.016233206 0.032054182 0.028817669 0.025688006 -0.04845623 0.04197359 0.048349597 -0.04631083
-0.01783986 -0.032250673 -0.0270791 0.028690245 0.026450805 -0.027085738 0.008022769 0.014373709
-0.030035535 -0.05197656 0.02918635 -0.030581735 0.04914823 0.010878451 -0.028306445 0.031869553
-0.013973376 -0.02385603 -0.028232176 0.02974472 -0.03767925 0.040871147 -0.015791202 0.033966288
0.031968076 -0.023459049 0.030329667 -0.041951563 -0.01253868 -0.030670825 -0.011343247 -0.028146403
-0.039764367 0.018014707 -0.017418602 -0.024629617 0.03275061 -0.03733343 0.018630212 -0.0034114204

fc.weight f4 [1, 64]
00000000: 53b1 d0bb e4fc 543b cb34 053c 44e2 063a
00000010: 7eb0 1ebd a987 2abd e198 a6bc e77e 0ebd
00000020: 512c 853d e318 d6bc 1e08 063d fb45 9fbc
00000030: ce99 1cbd 34ff 07bd 2932 88bc 2efb 5dbd
00000040: f221 773c b928 563d 7a70 1e3d 292c 373c
00000050: 9197 b3bc 219d 083d f97a e33c 77ae 16bd
00000060: 751d 2ebd 09b0 a8bd 5719 04bc 308a f63c
00000070: ddbf cf3c 0a6b adbc f7ff 8e3c b01c ce3c
00000080: 449e acbc 0a88 08bd 7697 833c 60b7 02bc
00000090: 49b8 473d 2735 9b3c 0bce 4ebc c64f 893c
000000a0: 8f23 85bb 0c22 e9bc 0cb1 91bd 6dd9 b63b
000000b0: 3fe7 1cbd 9357 023d 244b 6ebb 8d12 473c
000000c0: ac16 c93c c616 b4bc d344 b13c 1d82 b6bc
000000d0: b2c4 6fbd b035 40bd 69f7 edbb a66c a1bc
000000e0: 7c5a d7bc a15d e83c e66a 5bbb 50c2 37bd
000000f0: 446c ff3c aebc 58bc 40c4 023d 453f 3abb
-0.006368795 0.0032499367 0.008130263 0.00051454105 -0.038742535 -0.04163328 -0.02033657 -0.034788992
0.06502593 -0.026134914 0.032722585 -0.019442549 -0.038232617 -0.033202365 -0.01662548 -0.05419462
0.015083777 0.05228493 0.038681485 0.011179962 -0.021922858 0.033352975 0.027768599 -0.036787476
-0.04250856 -0.08236701 -0.008062682 0.03009519 0.025360042 -0.021169204 0.017456038 0.025160164
-0.02107156 -0.033332862 0.016063433 -0.00797829 0.048759732 0.018946243 -0.012622367 0.016761672
-0.004063077 -0.028458618 -0.07113847 0.0055801184 -0.03830647 0.0318218 -0.0036360705 0.012150419
0.024546944 -0.021983515 0.021639263 -0.02227884 -0.058537193 -0.0469262 -0.0072621596 -0.019705128
-0.026288263 0.028364958 -0.0033480464 -0.044863045 0.031179555 -0.0132285785 0.03192544 -0.002841906
