ML/models/ETH/4h/gru_model.pth (torch, 168883 bytes, 9 tensors)

gru.weight_ih_l0 f4 [192, 19]
0	0x3e0084c6	0.12550649
1	0x3d18f552	0.03734333
2	0xbe13b425	-0.14424188
3	0xbd8463aa	-0.06464322
4	0xbae7fcba	-0.001769922
5	0x3ded9f91	0.116027005
6	0x3b9f5a16	0.004863034
7	0xbe008846	-0.12551984
8	0x3dbf93d8	0.09354371
9	0xbd94c96b	-0.0726498
10	0xbcbbc743	-0.022922164
11	0x3dc8467c	0.09779069
12	0xbd89e473	-0.06733026
13	0xbd7a6f65	-0.06114139
14	0xbdd10efc	-0.10207936
15	0xbd4ff234	-0.050768092
16	0x3d56f0d1	0.052475754
17	0xbd1089fb	-0.03528784
18	0x3e174494	0.14772254
19	0xbe084eee	-0.1331136
20	0x3e24b6c3	0.16085343
21	0x3d4cd61f	0.05000889
22	0x3d8e2729	0.06941063
23	0xbd4ba92e	-0.04972189
24	0xbc43f0cc	-0.011959266
25	0xbd9f451c	-0.077768534
26	0x3c5bf257	0.013424478
27	0x3daa113d	0.08304069
28	0xbe126e93	-0.14299993
29	0x3e274292	0.16333988
30	0xbda4dbe2	-0.08049752
31	0x3d50ae64	0.05094756
32	0x3d7db463	0.06193961
33	0xbdeadefa	-0.11468311
34	0x3b101004	0.0021982202
35	0xbceb8f4a	-0.028754849
36	0xbd25e37b	-0.040500145
37	0x3db1c02e	0.086792335
38	0xbd89ef92	-0.067351475
39	0xbd022a09	-0.03177837
40	0x3befde8d	0.0073202313
41	0xbc23ddf5	-0.010001649
42	0xbdd292ee	-0.10281931
43	0xbe2b4952	-0.16727188
44	0x3caffaae	0.021481838
45	0xbbc21137	-0.0059224623
46	0x3d6bb0d4	0.057541683
47	0x3e02bd84	0.12767607
48	0xbe18d130	-0.14923549
49	0x3e1a48d6	0.15066847
50	0x3d330904	0.04370977
51	0xbe02e963	-0.12784342
52	0xbdb5f2ab	-0.08884176
53	0xbc2fc9bc	-0.01072925
54	0xbe121bda	-0.14268437
55	0xbc54d015	-0.012989064
56	0x3da891de	0.08230947
57	0xbd01af2a	-0.03166119
58	0x3dd6416c	0.10461697
59	0x3df519e7	0.11967831
60	0xbd217ca8	-0.039425522
61	0x3e12866d	0.14309092
62	0x3da74444	0.081673175
63	0xbde8f87e	-0.11375521
64	0xbdc6ecf7	-0.09713166
65	0x3dfebe8f	0.1243869
66	0xbd8a0a52	-0.0674025
67	0xbdf8f937	-0.12156909
68	0x3d9fec8f	0.07808792
69	0xbe0fe19f	-0.14050911
70	0xbe12f903	-0.14352803
71	0xbd48a3e8	-0.04898444
72	0x3d77b765	0.060477633
73	0x3d97b6d2	0.07407917
74	0x3d8426ca	0.06452711
75	0x3e243c60	0.16038656
76	0x3e248bfa	0.16069022
77	0xbdc6c6ba	-0.09705873
78	0xbe1036de	-0.1408343
79	0x3c8c04cc	0.017092131
80	0x3e083f2b	0.13305347
81	0x3e24fa3e	0.16111085
82	0xbe111eaf	-0.14171861
83	0xbde89523	-0.113565706
84	0xbdd1aa43	-0.10237553
85	0x3dc2e459	0.0951621
86	0xbd89599e	-0.06706546
87	0xbbd86afe	-0.0066045513
88	0xbd4942e7	-0.04913607
89	0x3dffc75a	0.12489195
90	0x3de66724	0.11250141
91	0xbd6fc233	-0.058534812
92	0xbd1b2de6	-0.03788557
93	0x3deac1de	0.114627585
94	0xbe152298	-0.14563978
95	0x3bf01021	0.0073261415
96	0x3d9c2488	0.07624155
97	0x3e1daddd	0.15398355
98	0xbe0e6405	-0.13905342
99	0xbb8d4fa7	-0.004312474
100	0xbd025714	-0.031821325
101	0xbdbae7f7	-0.09126275
102	0x3e263b9e	0.1623368
103	0x3db7c0fd	0.089723565
104	0xbdd1be4c	-0.102413744
105	0x3c764fc0	0.015033662
106	0x3d16d4ec	0.036824152
107	0xbd818b85	-0.06325439
108	0x3d14d6dc	0.03633772
109	0x3c869158	0.016426727
110	0x3d954aba	0.072896436
111	0x3d8a04fa	0.067392305
112	0x3deff2f4	0.117162615
113	0xbdb65613	-0.08903136
114	0x3d5493b1	0.051898662
115	0x3df2a505	0.11847881
116	0x3e110343	0.141614
117	0xbdd44bc5	-0.103660144
118	0xbe29a126	-0.1656538
119	0xbe28e615	-0.1649402
120	0xbdfcd702	-0.12345697
121	0xbdf76b58	-0.12081021
122	0xbd356a01	-0.044290546
123	0x3cef1d83	0.029188877
124	0xbdb9a332	-0.0906433
125	0xbc8684de	-0.016420778
126	0xbd57bc40	-0.052669764
127	0xbe1e5d9a	-0.15465394
128	0xbd4bffeb	-0.04980461
129	0x3cdb82a0	0.026795685
130	0x3dd11284	0.1020861
131	0xbe0ff0ff	-0.14056776
132	0x3d674439	0.056461547
133	0xbc93cffc	-0.01804351
134	0xbbff47fc	-0.0077905636
135	0xbda79982	-0.08183576
136	0xbc3d1e77	-0.011542908
137	0x3dbb49a7	0.091449074
138	0x3e010f68	0.12603533
139	0x3b8573e6	0.004072654
140	0x3dcee8a1	0.10102964
141	0xbd21a97d	-0.039468277
142	0xbc962422	-0.018327776
143	0xbd791aa3	-0.06081642
144	0xbbd51f56	-0.0065039797
145	0xbe0a4df9	-0.13506307
146	0x3d56810f	0.052369174
147	0x3cda2dc8	0.026633158
148	0xbdd9c014	-0.10632339
149	0xbcc451ed	-0.023964847
150	0x3e0bb66b	0.13643806
151	0x3e22782c	0.15866154
152	0x3d8cf603	0.068828605
153	0x3ca6a3b8	0.020341739
154	0xbd13fd12	-0.03613002
155	0xbdae83be	-0.085212216
156	0x3e213d40	0.15746021
157	0x3e157ee2	0.14599183
158	0x3de64274	0.11243144
159	0xbe00dca4	-0.12584168
160	0x3e2700d3	0.16308908
161	0xbb1a94b3	-0.0023587167
162	0x3de5279c	0.111891955
163	0xbd5a19a1	-0.053247098
164	0xbdb4b996	-0.0882446
165	0x3dd1e744	0.102491885
166	0x3b72f7c9	0.003707396
167	0xbd934cd3	-0.071923874
168	0xbd88e0fe	-0.06683539
169	0x3d50452b	0.050847214
170	0x3e27594b	0.16342656
171	0xbd889bf6	-0.06670372
172	0x3e12e5de	0.143455
173	0x3ddaad87	0.10677629
174	0xbcc93025	-0.02455909
175	0xbc4af299	-0.012386941
176	0xbd58bc25	-0.052913804
177	0x3dd31705	0.10307125
178	0x3dc7da3a	0.0975842
179	0x3d5c1277	0.053728547
180	0xbcb469c5	-0.022023091
181	0xbddc4d11	-0.10756887
182	0xbdea2c02	-0.11434175
183	0xbd305208	-0.04304698
184	0xbd4bedf0	-0.04978746
185	0x3e28b9a9	0.16477074
186	0xbc969eaf	-0.018386213
187	0xbd14001c	-0.036132917
188	0xbca3991d	-0.019970471
189	0xbd3b1561	-0.045674685
190	0x3e03b4d2	0.12861946
191	0xbca2eab5	-0.019887308
192	0xbd1e7315	-0.03868397
193	0x3d9d4912	0.07679953
194	0xbdc83506	-0.097757384
195	0xbdfe9e4f	-0.12432539
196	0xbe0fb0d2	-0.14032295
197	0xbdaa95a5	-0.08329324
198	0x3e2315e3	0.15926318
199	0xbdc6b6b8	-0.097028196
200	0xbdf853fb	-0.12125393
201	0xbd18b22f	-0.037279304
202	0x3dced15c	0.10098526
203	0x3dbb4119	0.09143276
204	0xbddab701	-0.106794365
205	0x3cafdf72	0.021468852
206	0xbe1984af	-0.14992021
207	0x3d84e2c5	0.06488565
208	0x3c47b993	0.01219024
209	0x3e0eb45f	0.13935994
210	0x3ced1359	0.02893989
211	0xbe152e4c	-0.14568442
212	0xbd5a9aed	-0.053370405
213	0x3e248c45	0.16069134
214	0xbdded9a4	-0.108813554
215	0xbdbb3650	-0.09141219
216	0x3df15aa7	0.11784869
217	0x3dfa432f	0.122198455
218	0xbe249482	-0.16072276
219	0xbcad94e9	-0.02118917
220	0x3d14f69a	0.03636799
221	0x3b606519	0.0034239946
222	0xbdcca76c	-0.09992871
223	0xbc891b54	-0.016736664
224	0xbde41239	-0.11136288
225	0x3c11fe05	0.008910661
226	0x3db29714	0.08720222
227	0xbd22af75	-0.03971811
228	0xbe2254d7	-0.15852676
229	0x3e21e09b	0.15808336
230	0x3dfe5764	0.12419012
231	0xbd84f47a	-0.06491943
232	0xbda1f0ba	-0.07907243
233	0xbd6764d5	-0.056492645
234	0x3e15c2fa	0.14625159
235	0xbd5cde72	-0.053923078
236	0x3e25f70b	0.1620752
237	0xbd945220	-0.072422266
238	0x3dfd89ea	0.12379821
239	0xbd42f827	-0.047599938
240	0xbd002570	-0.031285703
241	0xbd429faf	-0.047515567
242	0xbc43ed2c	-0.011958402
243	0xbdfc1a96	-0.12309758
244	0x3e2969db	0.16544287
245	0x3dd38f97	0.10330122
246	0xbd0d2280	-0.03445673
247	0x3dfa85e0	0.12232566
248	0x3c091ed4	0.008369166
249	0xbdc4688b	-0.095902525
250	0x3d859692	0.0652286
251	0x3e202979	0.1564082
252	0xbdf83b18	-0.12120646
253	0xbd8b37cf	-0.06797754
254	0xbe190776	-0.14944252
255	0x3d947e77	0.07250684

gru.weight_hh_l0 f4 [192, 64]
0	0xbe03c2d0	-0.12867284
1	0x3cb8812a	0.022522528
2	0x3d6fc161	0.05853403
3	0x3deea1ab	0.116519295
4	0x3d0dc284	0.034609333
5	0xbdcdaeb9	-0.10043091
6	0xbd8ba0d8	-0.06817788
7	0xbd321545	-0.043477315
8	0xbe17402a	-0.1477057
9	0xbe4b5b36	-0.19859013
10	0xbd87e01f	-0.066345446
11	0x3bd15720	0.00638856
12	0xbcf66998	-0.030079648
13	0x3d836c9a	0.064171985
14	0xbdf5c6b6	-0.12000792
15	0x3d8a3306	0.06748013
16	0xbbac360f	-0.0052554677
17	0x3b2f3130	0.00267322
18	0xbd17b05e	-0.03703343
19	0x3db2ef08	0.08736998
20	0x3d978914	0.073991925
21	0x3a56c47c	0.00081927306
22	0xbc3a84a7	-0.011384166
23	0xbba7b8c6	-0.0051184623
24	0x3d8019e6	0.0625494
25	0xbda2ffc4	-0.0795894
26	0x3d3803c8	0.04492548
27	0x3c83e4bc	0.01610028
28	0x3d8075cc	0.06272468
29	0xbd480548	-0.04883316
30	0x3d2dbd89	0.042417083
31	0xbca95834	-0.020671941
32	0x3d1d24c6	0.038365148
33	0x3d8225cd	0.06354866
34	0x3ce08f2e	0.027412023
35	0x395d9a20	0.00021133618
36	0x3d507fe2	0.05090321
37	0xbda06030	-0.07830846
38	0x3dd067da	0.10176058
39	0xbd6e2c99	-0.058148
40	0xbd8437c1	-0.06455947
41	0x3dae8c13	0.08522811
42	0xbd2dfe85	-0.042479057
43	0x3e11754d	0.14204903
44	0x3d261619	0.040548418
45	0x3b166614	0.0022949027
46	0x3d8134ca	0.06308897
47	0xbd63bbbf	-0.05559897
48	0x3cfc77a5	0.03081877
49	0x3cf80bf4	0.030279137
50	0x3da6d88d	0.081467725
51	0xbc8d96ef	-0.017283885
52	0xbd1e0e7d	-0.038588036
53	0x3c75a5dc	0.014993157
54	0x3dd94c05	0.10610203
55	0xbbde83c4	-0.00679061
56	0xbca3b08d	-0.019981647
57	0xbd29b627	-0.04143348
58	0x3ceddc52	0.029035721
59	0x3db78f0f	0.08962833
60	0xbd2423d9	-0.04007325
61	0x3bff63fc	0.0077939015
62	0xbdcfb0b2	-0.10141124
63	0x3d8872ab	0.06662496
64	0x3d967403	0.07346346
65	0xbdfd6880	-0.123734474
66	0x3d4504f0	0.048100412
67	0x3d17ec1c	0.037090406
68	0x3e2563fc	0.16151422
69	0x3ce5a93b	0.028034797
70	0x3cb24153	0.021759665
71	0xbc96ec37	-0.018423183
72	0xbd89a14d	-0.06720219
73	0x3d1a98bc	0.037743315
74	0xbd508c31	-0.050914947
75	0x3d048945	0.032357473
76	0xbd33a325	-0.04385676
77	0x3d070c24	0.032970563
78	0x3bc63cbe	0.0060497215
79	0x3c7506ea	0.014955262
80	0x3cb10c11	0.021612199
81	0xbbd2999c	-0.006427003
82	0xbd81918e	-0.063265905
83	0xbe04ba57	-0.12961708
84	0x3d4828fb	0.048867207
85	0xbd4eb82b	-0.050468605
86	0x3d46dcbc	0.048550352
87	0xbd13c577	-0.03607699
88	0xbc88563c	-0.016642682
89	0x3e2c5a61	0.16831352
90	0xbbdb6b12	-0.0066961134
91	0xbc4fbfc4	-0.012679998
92	0xb955eb60	-0.00020400947
93	0x3ce76699	0.028247165
94	0x3d28aa10	0.04117781
95	0xbd96b483	-0.07358649
96	0x3dbfd7b0	0.09367311
97	0xbd5310ab	-0.051529568
98	0xbd46a463	-0.048496615
99	0xbd9e7354	-0.07736841
100	0xbc10bcad	-0.008834046
101	0x3d785371	0.06062645
102	0x3cef8ef7	0.029242976
103	0xbb625372	-0.00345346
104	0xbd8ec388	-0.069708884
105	0xbc10a428	-0.0088282
106	0x3dc3a58f	0.09553062
107	0xbc84bf90	-0.016204625
108	0xbda09a1f	-0.07841896
109	0xbe0338c8	-0.12814629
110	0xbdb701e2	-0.08935906
111	0x3c4e9ede	0.012611119
112	0xbe28b039	-0.16473474
113	0x3c15258f	0.009103193
114	0x3d33f2c3	0.043932687
115	0xbcf7e2bf	-0.030259488
116	0xbccdc04f	-0.025116114
117	0x3bf95dcc	0.0076100584
118	0xbc12a974	-0.008951534
119	0x3c28cf8e	0.010303391
120	0x3d207b71	0.039180223
121	0xbd91163c	-0.07084319
122	0xbd9a5ed7	-0.075376205
123	0xbd73b5ca	-0.05949954
124	0xbbde95b0	-0.0067927465
125	0x3d9384e0	0.07203078
126	0xbdc734bf	-0.097268574
127	0xbd81435c	-0.06311676
128	0x3d09855b	0.033574443
129	0xbe209ad9	-0.1568407
130	0xbd935570	-0.0719403
131	0x3d78d6a9	0.06075159
132	0xbd95f738	-0.07322544
133	0xbd3db376	-0.046313725
134	0x3c1e3003	0.009655002
135	0xbda8a70b	-0.08234986
136	0x3d54e1d8	0.051973194
137	0xbd5abf74	-0.05340524
138	0xbdb86cc1	-0.09005118
139	0xbda47c9a	-0.08031578
140	0xbd751ba3	-0.05984081
141	0xbc9228fc	-0.017841808
142	0x3db9d94f	0.090746514
143	0xbe50ee3c	-0.20403379
144	0x3dc6407e	0.0968027
145	0x3d326e33	0.043562125
146	0x3d201ff7	0.039092984
147	0xbd8424d9	-0.06452341
148	0xbcfe5277	-0.031045182
149	0xbd4507ae	-0.048103027
150	0x3d2d39c9	0.042291436
151	0xbdefca0f	-0.117084615
152	0xbcde73e3	-0.027154868
153	0x3d690eef	0.056899007
154	0xbc740f07	-0.014896161
155	0x3acdb0d4	0.0015692958
156	0x3d16c45d	0.03680836
157	0xbdae880a	-0.08522041
158	0x3dcc583f	0.09977769
159	0x3db8fd2b	0.09032663
160	0x3d4eb113	0.05046184
161	0xbb758e82	-0.0037468974
162	0xbce9c78c	-0.028537534
163	0x3ceaf017	0.028678937
164	0x3c0414df	0.008061617
165	0xbb83c464	-0.0040212143
166	0xbd5e09de	-0.05420863
167	0xbd7df544	-0.06200148
168	0xbc97edac	-0.018545948
169	0x3dc00e51	0.09377731
170	0xbe4f2d63	-0.20232157
171	0x3da6fa5f	0.08153223
172	0xbc2c4922	-0.010515483
173	0x3d253335	0.040332038
174	0x3d71f0d2	0.059067555
175	0xbe8bc142	-0.27295882
176	0xbd0f9f71	-0.035064165
177	0xbd7af4ef	-0.061268743
178	0xbd013eaf	-0.03155392
179	0xbd6685fa	-0.056280114
180	0xbdc380b5	-0.09546033
181	0x3da7bc97	0.081902675
182	0x3a550134	0.00081254845
183	0x3d4cb86a	0.04998056
184	0xbcb0dba0	-0.0215891
185	0x3dcd731d	0.10031722
186	0xbc594574	-0.013261188
187	0x3c7dab96	0.015482804
188	0x3c22fb17	0.00994756
189	0xbd4a4ce9	-0.049389753
190	0xbc938da9	-0.018011885
191	0xbd85269b	-0.06501504
192	0xbcf06d6c	-0.029349051
193	0x3d859913	0.06523337
194	0xbdb5c284	-0.088749915
195	0x3d02d2e0	0.031939387
196	0xbc4ebc80	-0.012618184
197	0x3cb106c0	0.021609664
198	0x3dd09d6b	0.10186275
199	0x3c1e26e7	0.00965283
200	0xbc0adff2	-0.008476244
201	0xbd1fac70	-0.03898281
202	0xbc166e3b	-0.009181554
203	0xbdb2af62	-0.08724858
204	0xba5a0970	-0.00083174463
205	0xbdb7828b	-0.08960446
206	0x3d11bb6e	0.035579138
207	0xbda85426	-0.08219175
208	0xbdbd779c	-0.09251329
209	0xbcaaf8a3	-0.020870512
210	0xbc915438	-0.017740354
211	0x3c01dcda	0.00792619
212	0xbdf7efac	-0.12106261
213	0xbd5f4e49	-0.054518018
214	0xbcb093c0	-0.021554828
215	0xbd43bca7	-0.047787335
216	0x3b38bd51	0.0028189013
217	0x3d0fb26e	0.035082273
218	0x3d352171	0.044221345
219	0x3c5a3af7	0.013319722
220	0x3d4fb62d	0.050710846
221	0xbd887d1b	-0.06664487
222	0x3de0ecc0	0.109826565
223	0xbb554f86	-0.003254862
224	0x3c560501	0.013062716
225	0xbe1d2dc5	-0.15349491
226	0xbc111e18	-0.008857273
227	0x3d2643f5	0.040592153
228	0xbd9798d8	-0.074021995
229	0x3d5e1d89	0.054227386
230	0xbd0d460e	-0.034490637
231	0x3a5e72e8	0.00084857503
232	0x3c04f964	0.0081161
233	0xbd5f442a	-0.054508366
234	0x3b6ffffe	0.003662109
235	0x3d5a2dfc	0.05326651
236	0xbdc08cb8	-0.0940184
237	0xbda81608	-0.08207327
238	0xbd89ef3d	-0.06735084
239	0x3b6b9ad0	0.003595043
240	0x3dcdbd4e	0.10045873
241	0xbcded7d4	-0.027202524
242	0x3cdfe7ea	0.027332265
243	0x3d04bd76	0.032407247
244	0xbd97bea6	-0.0740941
245	0xbd947b97	-0.072501354
246	0x3e10732c	0.14106435
247	0xbcc72670	-0.02431032
248	0xbda16fc6	-0.07882647
249	0xbce4e575	-0.027941445
250	0xbceeac55	-0.029134909
251	0xbe2f7489	-0.17134298
252	0x3dc825b1	0.09772814
253	0xbdf7377c	-0.1207113
254	0xbd3d4804	-0.046211258
255	0x3e8e7392	0.27822548

gru.bias_ih_l0 f4 [192]
0	0x00000000	0.0
1	0x00000000	0.0
2	0x00000000	0.0
3	0x00000000	0.0
4	0x00000000	0.0
5	0x00000000	0.0
6	0x00000000	0.0
7	0x00000000	0.0
8	0x00000000	0.0
9	0x00000000	0.0
10	0x00000000	0.0
11	0x00000000	0.0
12	0x00000000	0.0
13	0x00000000	0.0
14	0x00000000	0.0
15	0x00000000	0.0
16	0x00000000	0.0
17	0x00000000	0.0
18	0x00000000	0.0
19	0x00000000	0.0
20	0x00000000	0.0
21	0x00000000	0.0
22	0x00000000	0.0
23	0x00000000	0.0
24	0x00000000	0.0
25	0x00000000	0.0
26	0x00000000	0.0
27	0x00000000	0.0
28	0x00000000	0.0
29	0x00000000	0.0
30	0x00000000	0.0
31	0x00000000	0.0
32	0x00000000	0.0
33	0x00000000	0.0
34	0x00000000	0.0
35	0x00000000	0.0
36	0x00000000	0.0
37	0x00000000	0.0
38	0x00000000	0.0
39	0x00000000	0.0
40	0x00000000	0.0
41	0x00000000	0.0
42	0x00000000	0.0
43	0x00000000	0.0
44	0x00000000	0.0
45	0x00000000	0.0
46	0x00000000	0.0
47	0x00000000	0.0
48	0x00000000	0.0
49	0x00000000	0.0
50	0x00000000	0.0
51	0x00000000	0.0
52	0x00000000	0.0
53	0x00000000	0.0
54	0x00000000	0.0
55	0x00000000	0.0
56	0x00000000	0.0
57	0x00000000	0.0
58	0x00000000	0.0
59	0x00000000	0.0
60	0x00000000	0.0
61	0x00000000	0.0
62	0x00000000	0.0
63	0x00000000	0.0
64	0x00000000	0.0
65	0x00000000	0.0
66	0x00000000	0.0
67	0x00000000	0.0
68	0x00000000	0.0
69	0x00000000	0.0
70	0x00000000	0.0
71	0x00000000	0.0
72	0x00000000	0.0
73	0x00000000	0.0
74	0x00000000	0.0
75	0x00000000	0.0
76	0x00000000	0.0
77	0x00000000	0.0
78	0x00000000	0.0
79	0x00000000	0.0
80	0x00000000	0.0
81	0x00000000	0.0
82	0x00000000	0.0
83	0x00000000	0.0
84	0x00000000	0.0
85	0x00000000	0.0
86	0x00000000	0.0
87	0x00000000	0.0
88	0x00000000	0.0
89	0x00000000	0.0
90	0x00000000	0.0
91	0x00000000	0.0
92	0x00000000	0.0
93	0x00000000	0.0
94	0x00000000	0.0
95	0x00000000	0.0
96	0x00000000	0.0
97	0x00000000	0.0
98	0x00000000	0.0
99	0x00000000	0.0
100	0x00000000	0.0
101	0x00000000	0.0
102	0x00000000	0.0
103	0x00000000	0.0
104	0x00000000	0.0
105	0x00000000	0.0
106	0x00000000	0.0
107	0x00000000	0.0
108	0x00000000	0.0
109	0x00000000	0.0
110	0x00000000	0.0
111	0x00000000	0.0
112	0x00000000	0.0
113	0x00000000	0.0
114	0x00000000	0.0
115	0x00000000	0.0
116	0x00000000	0.0
117	0x00000000	0.0
118	0x00000000	0.0
119	0x00000000	0.0
120	0x00000000	0.0
121	0x00000000	0.0
122	0x00000000	0.0
123	0x00000000	0.0
124	0x00000000	0.0
125	0x00000000	0.0
126	0x00000000	0.0
127	0x00000000	0.0
128	0x00000000	0.0
129	0x00000000	0.0
130	0x00000000	0.0
131	0x00000000	0.0
132	0x00000000	0.0
133	0x00000000	0.0
134	0x00000000	0.0
135	0x00000000	0.0
136	0x00000000	0.0
137	0x00000000	0.0
138	0x00000000	0.0
139	0x00000000	0.0
140	0x00000000	0.0
141	0x00000000	0.0
142	0x00000000	0.0
143	0x00000000	0.0
144	0x00000000	0.0
145	0x00000000	0.0
146	0x00000000	0.0
147	0x00000000	0.0
148	0x00000000	0.0
149	0x00000000	0.0
150	0x00000000	0.0
151	0x00000000	0.0
152	0x00000000	0.0
153	0x00000000	0.0
154	0x00000000	0.0
155	0x00000000	0.0
156	0x00000000	0.0
157	0x00000000	0.0
158	0x00000000	0.0
159	0x00000000	0.0
160	0x00000000	0.0
161	0x00000000	0.0
162	0x00000000	0.0
163	0x00000000	0.0
164	0x00000000	0.0
165	0x00000000	0.0
166	0x00000000	0.0
167	0x00000000	0.0
168	0x00000000	0.0
169	0x00000000	0.0
170	0x00000000	0.0
171	0x00000000	0.0
172	0x00000000	0.0
173	0x00000000	0.0
174	0x00000000	0.0
175	0x00000000	0.0
176	0x00000000	0.0
177	0x00000000	0.0
178	0x00000000	0.0
179	0x00000000	0.0
180	0x00000000	0.0
181	0x00000000	0.0
182	0x00000000	0.0
183	0x00000000	0.0
184	0x00000000	0.0
185	0x00000000	0.0
186	0x00000000	0.0
187	0x00000000	0.0
188	0x00000000	0.0
189	0x00000000	0.0
190	0x00000000	0.0
191	0x00000000	0.0

gru.bias_hh_l0 f4 [192]
0	0x00000000	0.0
1	0x00000000	0.0
2	0x00000000	0.0
3	0x00000000	0.0
4	0x00000000	0.0
5	0x00000000	0.0
6	0x00000000	0.0
7	0x00000000	0.0
8	0x00000000	0.0
9	0x00000000	0.0
10	0x00000000	0.0
11	0x00000000	0.0
12	0x00000000	0.0
13	0x00000000	0.0
14	0x00000000	0.0
15	0x00000000	0.0
16	0x00000000	0.0
17	0x00000000	0.0
18	0x00000000	0.0
19	0x00000000	0.0
20	0x00000000	0.0
21	0x00000000	0.0
22	0x00000000	0.0
23	0x00000000	0.0
24	0x00000000	0.0
25	0x00000000	0.0
26	0x00000000	0.0
27	0x00000000	0.0
28	0x00000000	0.0
29	0x00000000	0.0
30	0x00000000	0.0
31	0x00000000	0.0
32	0x00000000	0.0
33	0x00000000	0.0
34	0x00000000	0.0
35	0x00000000	0.0
36	0x00000000	0.0
37	0x00000000	0.0
38	0x00000000	0.0
39	0x00000000	0.0
40	0x00000000	0.0
41	0x00000000	0.0
42	0x00000000	0.0
43	0x00000000	0.0
44	0x00000000	0.0
45	0x00000000	0.0
46	0x00000000	0.0
47	0x00000000	0.0
48	0x00000000	0.0
49	0x00000000	0.0
50	0x00000000	0.0
51	0x00000000	0.0
52	0x00000000	0.0
53	0x00000000	0.0
54	0x00000000	0.0
55	0x00000000	0.0
56	0x00000000	0.0
57	0x00000000	0.0
58	0x00000000	0.0
59	0x00000000	0.0
60	0x00000000	0.0
61	0x00000000	0.0
62	0x00000000	0.0
63	0x00000000	0.0
64	0x00000000	0.0
65	0x00000000	0.0
66	0x00000000	0.0
67	0x00000000	0.0
68	0x00000000	0.0
69	0x00000000	0.0
70	0x00000000	0.0
71	0x00000000	0.0
72	0x00000000	0.0
73	0x00000000	0.0
74	0x00000000	0.0
75	0x00000000	0.0
76	0x00000000	0.0
77	0x00000000	0.0
78	0x00000000	0.0
79	0x00000000	0.0
80	0x00000000	0.0
81	0x00000000	0.0
82	0x00000000	0.0
83	0x00000000	0.0
84	0x00000000	0.0
85	0x00000000	0.0
86	0x00000000	0.0
87	0x00000000	0.0
88	0x00000000	0.0
89	0x00000000	0.0
90	0x00000000	0.0
91	0x00000000	0.0
92	0x00000000	0.0
93	0x00000000	0.0
94	0x00000000	0.0
95	0x00000000	0.0
96	0x00000000	0.0
97	0x00000000	0.0
98	0x00000000	0.0
99	0x00000000	0.0
100	0x00000000	0.0
101	0x00000000	0.0
102	0x00000000	0.0
103	0x00000000	0.0
104	0x00000000	0.0
105	0x00000000	0.0
106	0x00000000	0.0
107	0x00000000	0.0
108	0x00000000	0.0
109	0x00000000	0.0
110	0x00000000	0.0
111	0x00000000	0.0
112	0x00000000	0.0
113	0x00000000	0.0
114	0x00000000	0.0
115	0x00000000	0.0
116	0x00000000	0.0
117	0x00000000	0.0
118	0x00000000	0.0
119	0x00000000	0.0
120	0x00000000	0.0
121	0x00000000	0.0
122	0x00000000	0.0
123	0x00000000	0.0
124	0x00000000	0.0
125	0x00000000	0.0
126	0x00000000	0.0
127	0x00000000	0.0
128	0x00000000	0.0
129	0x00000000	0.0
130	0x00000000	0.0
131	0x00000000	0.0
132	0x00000000	0.0
133	0x00000000	0.0
134	0x00000000	0.0
135	0x00000000	0.0
136	0x00000000	0.0
137	0x00000000	0.0
138	0x00000000	0.0
139	0x00000000	0.0
140	0x00000000	0.0
141	0x00000000	0.0
142	0x00000000	0.0
143	0x00000000	0.0
144	0x00000000	0.0
145	0x00000000	0.0
146	0x00000000	0.0
147	0x00000000	0.0
148	0x00000000	0.0
149	0x00000000	0.0
150	0x00000000	0.0
151	0x00000000	0.0
152	0x00000000	0.0
153	0x00000000	0.0
154	0x00000000	0.0
155	0x00000000	0.0
156	0x00000000	0.0
157	0x00000000	0.0
158	0x00000000	0.0
159	0x00000000	0.0
160	0x00000000	0.0
161	0x00000000	0.0
162	0x00000000	0.0
163	0x00000000	0.0
164	0x00000000	0.0
165	0x00000000	0.0
166	0x00000000	0.0
167	0x00000000	0.0
168	0x00000000	0.0
169	0x00000000	0.0
170	0x00000000	0.0
171	0x00000000	0.0
172	0x00000000	0.0
173	0x00000000	0.0
174	0x00000000	0.0
175	0x00000000	0.0
176	0x00000000	0.0
177	0x00000000	0.0
178	0x00000000	0.0
179	0x00000000	0.0
180	0x00000000	0.0
181	0x00000000	0.0
182	0x00000000	0.0
183	0x00000000	0.0
184	0x00000000	0.0
185	0x00000000	0.0
186	0x00000000	0.0
187	0x00000000	0.0
188	0x00000000	0.0
189	0x00000000	0.0
190	0x00000000	0.0
191	0x00000000	0.0

gru.weight_ih_l1 f4 [192, 64]
0	0xbcac9152	-0.021065388
1	0x3db35674	0.08756724
2	0xbdb8a207	-0.09015279
3	0xbda40863	-0.08009412
4	0x3dfa6211	0.12225736
5	0x3d76389b	0.060112577
6	0x3da775c6	0.081767604
7	0x3ddd18c2	0.10795738
8	0xbba3c2de	-0.004997595
9	0xbd2485ca	-0.040166654
10	0x3e0a8b73	0.13529758
11	0x3dd37b2c	0.103262275
12	0x3dea6dd0	0.11446726
13	0xbd9c72e4	-0.07639101
14	0xbd3eeb70	-0.04661125
15	0x3ae6a822	0.0017597715
16	0xbd878b65	-0.06618384
17	0x3e04c482	0.12965587
18	0xbd6fe00a	-0.05856327
19	0xbd4f1986	-0.05056145
20	0x3d08ccef	0.033398565
21	0x3de582cb	0.112065874
22	0xbd8d154e	-0.06888829
23	0xbd7a71d1	-0.0611437
24	0xbbd408fe	-0.0064707985
25	0xbdb9fd2a	-0.0908149
26	0x3d1aeac1	0.037821535
27	0x3d743349	0.05961922
28	0x3e1180da	0.14209309
29	0x3c4c9d68	0.0124887
30	0x3df63b4a	0.12023027
31	0xbdd042fa	-0.10169025
32	0xbe032654	-0.1280759
33	0xbdf26c3f	-0.118370526
34	0x3e160091	0.14648654
35	0xbdb79fb1	-0.089660056
36	0xbe025217	-0.12726627
37	0xbd5ab42e	-0.05339449
38	0xbe052ce1	-0.13005401
39	0xbd9a8b5f	-0.07546114
40	0xbccd5f16	-0.025069755
41	0x3d3179dc	0.043329105
42	0xbda76895	-0.08174244
43	0xbe1b0e2f	-0.1514213
44	0xbdd6a405	-0.10480503
45	0xbcbe3bfe	-0.023221966
46	0xbe018d6a	-0.12651601
47	0x3dbc6c9b	0.09200402
48	0x3dfd5eba	0.12371583
49	0xbc831000	-0.01599884
50	0x3d0b613c	0.034028277
51	0xbd849897	-0.06474417
52	0x3d2b7479	0.041859124
53	0xbd2fa823	-0.042884957
54	0xbc5f8837	-0.013643316
55	0x3e0164b7	0.12636076
56	0x3dd0816b	0.101809345
57	0xbced27a4	-0.028949566
58	0xbdee940c	-0.116493315
59	0xbd99267a	-0.07478042
60	0x3d62eb0c	0.05539994
61	0xbd664b56	-0.05622419
62	0x3c40e03b	0.011772211
63	0xbd86b3bf	-0.065772526
64	0x3e10550f	0.14094947
65	0x3deda269	0.11603243
66	0xbd86e47d	-0.065865494
67	0xbe04200e	-0.12902853
68	0x3ccb0d6d	0.024786675
69	0xbd1d0021	-0.0383302
70	0x3e06c197	0.13159786
71	0x3d7c7d8d	0.061643172
72	0x3d8b4c42	0.068016544
73	0xbd07c83b	-0.03314994
74	0xbde2cc44	-0.11074117
75	0x3d8f89f3	0.070087336
76	0xbd7d9e79	-0.06191871
77	0x3d00959a	0.03139267
78	0xbcb92a1e	-0.02260309
79	0x3e4e2a21	0.20133258
80	0x3d4bc559	0.049748752
81	0x3e008365	0.12550123
82	0xbd8ad2b6	-0.06778471
83	0xbca6b478	-0.020349726
84	0x3dadd56f	0.08487975
85	0xbdc409b3	-0.095721625
86	0x3c751b31	0.014960096
87	0x3da12db8	0.07870048
88	0xbe0c139f	-0.1367936
89	0x3c4e4f71	0.0125921825
90	0xbe00a288	-0.12562001
91	0x3b210401	0.0024569037
92	0x3d7d9a29	0.061914597
93	0x3d9f30fb	0.07773014
94	0xbda1ebea	-0.07906325
95	0xbe1de787	-0.15420352
96	0xbe415fd6	-0.18884215
97	0xbe0a2802	-0.13491824
98	0x3ca1ba2d	0.019742096
99	0xbd13f58d	-0.036122847
100	0x3e6315a7	0.22176228
101	0x3c1b1f97	0.009467981
102	0xbe28dfc3	-0.16491608
103	0xbe26a0ad	-0.1627223
104	0xbd999f8b	-0.075011335
105	0x3d258499	0.040409658
106	0xbc8e4cd5	-0.01737062
107	0x3e1b25f4	0.15151197
108	0xbe0afef2	-0.13573816
109	0xbcc3fe9f	-0.023925124
110	0xbdd6fef5	-0.10497848
111	0xbda0d287	-0.07852655
112	0x3a99491d	0.0011694763
113	0x3da9e93a	0.082964376
114	0x3d868001	0.065673836
115	0xbcdff1bd	-0.02733695
116	0xbd7420a3	-0.059601437
117	0xbc26a4b3	-0.010171103
118	0xbe085f84	-0.13317686
119	0x3e04fc71	0.12986924
120	0x3dbe3fad	0.09289489
121	0xbd697417	-0.056995478
122	0x3daee7ee	0.08540331
123	0xbc7a8365	-0.015290116
124	0xbda369ff	-0.079792015
125	0x3e15675c	0.1459021
126	0xbc74c8a9	-0.014940419
127	0xbdeb452d	-0.114878036
128	0xbdd7c930	-0.1053642
129	0xbd2c1d0a	-0.04201988
130	0xbda25ee5	-0.07928256
131	0xbe0a2b7c	-0.1349315
132	0x3ca4496e	0.020054545
133	0xbe0ad353	-0.13557176
134	0xbe0da639	-0.1383294
135	0x3e155bd0	0.14585805
136	0xbbdc752a	-0.006727834
137	0xbd2803f7	-0.041019406
138	0xbdb3022d	-0.08740649
139	0xbe10c021	-0.14135791
140	0x3d171b81	0.036891464
141	0xbda41a1a	-0.08012791
142	0xbcc37d79	-0.023863541
143	0xbc49c0c2	-0.012314023
144	0x3e128095	0.14306863
145	0x3dce5f0a	0.10076721
146	0x3da0b1e9	0.07846434
147	0xbbffe32f	-0.007809065
148	0x3dd3b3cb	0.10337027
149	0xbe1275da	-0.1430277
150	0xbd8e1423	-0.069374345
151	0xbc2d68d1	-0.010584072
152	0x3c169a9c	0.009192135
153	0x3deaaf96	0.114592716
154	0x3d6abd56	0.05730947
155	0x3d4b0a69	0.049570475
156	0x3d493a61	0.04912794
157	0x3d253b0f	0.040339526
158	0xbdea4e1a	-0.11440678
159	0xbda39cef	-0.07988917
160	0xbe184dcb	-0.14873426
161	0xbe0e0e31	-0.13872601
162	0x3da57164	0.08078268
163	0x3d97785a	0.07396002
164	0xbd260d9d	-0.040540326
165	0xbdea8df4	-0.11452857
166	0x3dd3263c	0.10310027
167	0x3e276bd7	0.16349731
168	0xbddfda75	-0.10930339
169	0xbd25cc7a	-0.040478207
170	0x3cdcb162	0.026940051
171	0x3d986827	0.074417405
172	0xbc883e8e	-0.01663139
173	0xbd78bce1	-0.060727004
174	0xbc1cdf25	-0.009574686
175	0xbde4c176	-0.11169712
176	0xbe04d570	-0.12972045
177	0xbe0cf44e	-0.1376507
178	0xbb344ee5	-0.0027512845
179	0xbe0747f3	-0.1321104
180	0x3df65d39	0.120294996
181	0x3d9b7611	0.07590879
182	0xbcd030ce	-0.025413897
183	0xbdf647f2	-0.12025441
184	0xbd29db53	-0.04146893
185	0xbd559ebc	-0.052153334
186	0xbb9448f8	-0.0045253
187	0x3e0351a2	0.12824109
188	0x3e0afa77	0.13572107
189	0xbddb8187	-0.10718065
190	0xbc98ac2c	-0.018636785
191	0xbd411a04	-0.04714395
192	0xbd56ba4a	-0.052423753
193	0x3db8964e	0.09013043
194	0x3dd5021f	0.10400795
195	0x3e0498e3	0.12948947
196	0xbd0b4b18	-0.03400716
197	0x3d886c7e	0.06661318
198	0xbd377e62	-0.044798262
199	0xbe03bbe3	-0.12864642
200	0x3d18371e	0.03716194
201	0x3dd6823a	0.104740575
202	0xbdc95c5e	-0.09832071
203	0x3ded51e3	0.11587884
204	0xbd71636a	-0.0589327
205	0xbd556ff7	-0.05210873
206	0x3d208b77	0.039195504
207	0x3c05f1ac	0.008175295
208	0xbc842c4c	-0.016134404
209	0xbd86b97f	-0.06578349
210	0x3de9bfe1	0.11413551
211	0xbd0f5677	-0.03499457
212	0xbe0af9f0	-0.13571906
213	0x3ceda525	0.029009411
214	0xbdf1e61b	-0.11811467
215	0xbe033e94	-0.1281684
216	0x3da57989	0.080798216
217	0x3bd14d85	0.006387415
218	0x3db53368	0.088476956
219	0xbd2560da	-0.040375568
220	0x3cff0d42	0.031134252
221	0x3d9c1d2c	0.076227516
222	0x3dfcab3c	0.12337348
223	0x3e10b499	0.14131393
224	0xbc37e612	-0.011224287
225	0xbdb96382	-0.09052183
226	0x3c931eb7	0.017958982
227	0xbdff72e4	-0.124730855
228	0x3d7187d9	0.058967445
229	0x3d0a436a	0.033755697
230	0xbd25da35	-0.0404913
231	0xbba7e638	-0.0051238798
232	0xbdfd302e	-0.12362705
233	0xbce449af	-0.027867166
234	0x3d294a68	0.041330725
235	0x3e0fbbc3	0.14036469
236	0xbe0d509a	-0.13800278
237	0x3e0e3e36	0.13890919
238	0x3e041ee7	0.12902413
239	0x3e118148	0.14209473
240	0x3d024128	0.03180042
241	0x3ddd4a19	0.10805149
242	0xbd2cf9cc	-0.042230412
243	0xbcc7ce7c	-0.024390452
244	0xbd4c2b90	-0.049846232
245	0x3d72daec	0.05929081
246	0x3d90156a	0.070353344
247	0x3e1aff2d	0.15136404
248	0xbd8240ca	-0.06360014
249	0x3cf0d5bc	0.029398791
250	0xbdf88652	-0.121349946
251	0xbe14ace6	-0.1451908
252	0xbda2e6cb	-0.079541765
253	0x3e09a1af	0.13440584
254	0xbde1b87e	-0.11021517
255	0xbd9cb335	-0.076513685

gru.weight_hh_l1 f4 [192, 64]
0	0x3dc965f6	0.09833901
1	0x3d2e140d	0.04249959
2	0x3dac3fa5	0.08410577
3	0xbd23ae00	-0.03996086
4	0x3c4fd300	0.012684584
5	0xbdea92de	-0.11453794
6	0xbd561ddc	-0.05227457
7	0x3ddf9b95	0.10918347
8	0xbc9c19c2	-0.019055251
9	0x3e008b63	0.12553172
10	0xbd2c16b9	-0.042013858
11	0xbd12216d	-0.03567641
12	0xbb797332	-0.0038063047
13	0x3df596da	0.11991663
14	0xb995a999	-0.00028545855
15	0x3d670ecb	0.056410592
16	0xbcc5be7e	-0.024138685
17	0xbded43f3	-0.11585226
18	0xbd036add	-0.032084335
19	0xbc9d2f71	-0.01918766
20	0x3d5eb22a	0.05436913
21	0x3dd45d10	0.10369313
22	0xbe6323dd	-0.2218165
23	0x3dc87724	0.09788349
24	0xbd215e6f	-0.0393967
25	0x3d7bf7b0	0.06151551
26	0x3cdd4f6b	0.027015409
27	0x3de4c1dd	0.11169789
28	0xbdefe315	-0.11713234
29	0x3dd0b0c7	0.101899676
30	0xbd13708b	-0.035996
31	0xbdbe1284	-0.09280875
32	0x3d5b0354	0.05346997
33	0xbd09f80f	-0.033683833
34	0x3d0e7b8e	0.0347858
35	0xbcc5427e	-0.024079558
36	0xbcc02995	-0.023457328
37	0xbbf75531	-0.0075479974
38	0x3d88226f	0.06647193
39	0x3d65d243	0.056108724
40	0xbd72ca12	-0.05927474
41	0x3c15d7a3	0.00914565
42	0xbc970fdf	-0.018440185
43	0xbde9eeca	-0.114224985
44	0xbd72e06e	-0.059296064
45	0xbd09e774	-0.033667997
46	0xbd03ea7b	-0.03220604
47	0xbe499c00	-0.19688416
48	0x3c454fe7	0.012042976
49	0xbe3e8da0	-0.18608713
50	0xbd24818f	-0.04016262
51	0x3ceae83a	0.028675187
52	0xbda10d97	-0.0786392
53	0x3e375902	0.17905048
54	0x3ccf69a2	0.025318924
55	0x3df6769d	0.120343424
56	0xbdac9c93	-0.08428302
57	0xbd260374	-0.040530637
58	0x3d34f096	0.044174753
59	0x3e11cffb	0.14239495
60	0xbd6533fa	-0.05595777
61	0xbbc59bf6	-0.006030555
62	0xbdc21074	-0.094757944
63	0x3d270a1e	0.040781133
64	0x3d5c8c1f	0.053844567
65	0xbdb7df40	-0.089781284
66	0xbd177a51	-0.036981884
67	0xbddff904	-0.10936168
68	0x3c326f75	0.010890831
69	0xbc2b9df2	-0.010474669
70	0xbe1be0ae	-0.15222427
71	0xbd3821e8	-0.04495421
72	0xbdc9eae2	-0.098592535
73	0x3e26b8b1	0.16281392
74	0x3d3cbcd2	0.04607851
75	0xbb4e5961	-0.003148638
76	0xbcfae3a5	-0.030626127
77	0xbbb9dc80	-0.0056720376
78	0x3d82cb85	0.063864745
79	0x3bed5c3e	0.007243662
80	0xbd757576	-0.059926473
81	0x3cef2612	0.029192958
82	0x3d90f17d	0.0707731
83	0xbc49e744	-0.012323204
84	0x3d016e87	0.031599548
85	0x39d0399f	0.00039715783
86	0xbd6fb862	-0.05852545
87	0x3c829fb9	0.015945302
88	0x3d5a59e4	0.053308383
89	0x3be334af	0.0069337706
90	0xbe88bec6	-0.2670805
91	0xbe1285d7	-0.14308868
92	0xbe00e2ce	-0.12586519
93	0x3e2913ee	0.16511509
94	0x3e087d43	0.13329034
95	0xbe213316	-0.15742144
96	0xbc95d4e8	-0.018289998
97	0x3d1f367a	0.038870312
98	0x3caa3bd8	0.020780489
99	0xbdf580f3	-0.11987486
100	0x3c61f313	0.013790864
101	0xbe034938	-0.128209
102	0x3d457554	0.048207596
103	0xbb06a482	-0.0020544832
104	0x3df14ff5	0.11782829
105	0x3dc2b1c6	0.09506564
106	0xbe080f21	-0.13287021
107	0xbda55077	-0.08071988
108	0xbd23f2ff	-0.04002666
109	0xbd918646	-0.07105689
110	0xbc48a1a9	-0.012245574
111	0xbd337b29	-0.043818627
112	0x3dff2e67	0.124600224
113	0x3ccb47db	0.024814537
114	0x3e3aa2dd	0.1822619
115	0x3db6701e	0.089081034
116	0x3db05333	0.08609619
117	0x3dd02637	0.10163539
118	0xbdf585e8	-0.11988431
119	0xbde8f783	-0.11375334
120	0xbdcc4592	-0.09974207
121	0x3d614086	0.054993175
122	0x3d57d28a	0.05269102
123	0x3dd1a4f7	0.10236543
124	0x3de28408	0.11060339
125	0x3db8d24e	0.090244874
126	0xbd289cfc	-0.041165337
127	0xbbce9b62	-0.006305144
128	0x3d543a98	0.05181369
129	0x3e111f79	0.14172162
130	0x3d3e9f89	0.046538863
131	0xbe7a5e26	-0.24449977
132	0x3e03e955	0.12881978
133	0xbdd6619f	-0.104678385
134	0x3dbc0d22	0.091821924
135	0x3c1a3d06	0.009413963
136	0x3dbd6738	0.09248203
137	0xbc0e0b42	-0.008669676
138	0x3c60cabe	0.0137202125
139	0x3d8ce64e	0.06879865
140	0x3e006e6a	0.1254212
141	0x3cf349e8	0.029698327
142	0xbc314c8c	-0.010821473
143	0x3ba845b2	0.0051352615
144	0xbd9d8949	-0.07692201
145	0xbd1e08d9	-0.038582657
146	0x3d4a802a	0.049438633
147	0x3c77cd62	0.015124651
148	0x3c77fc7e	0.015135882
149	0x3c967f06	0.018371116
150	0xbe34626d	-0.17615671
151	0x3dade7a6	0.08491449
152	0xbdcb52ac	-0.09927878
153	0x3ab9cbfb	0.0014175171
154	0xbe1c2112	-0.1524699
155	0xbe2101aa	-0.15723291
156	0x3d769b69	0.060206804
157	0x3d151327	0.03639522
158	0x3e5f03cb	0.2177879
159	0x3d7e84b9	0.062138293
160	0xbd055089	-0.032547507
161	0x3da5803a	0.08081098
162	0xbc26b74d	-0.010175538
163	0x3dcec29e	0.10095714
164	0xbd8e5caa	-0.06951268
165	0x3e0360a8	0.1282984
166	0x3da81c0e	0.08208476
167	0x3dcc65a2	0.099803224
168	0xbe10c2a7	-0.14136754
169	0x3d7806f8	0.06055352
170	0xbd635e98	-0.055510134
171	0x3d9e6f74	0.07736102
172	0x3b894a94	0.0041897986
173	0x3d39a845	0.04532649
174	0x3c414620	0.011796504
175	0xbcb74d00	-0.022375584
176	0xbc291cf5	-0.010321845
177	0x3d25bfa9	0.040465984
178	0x3c804fc0	0.015663028
179	0xbc84bcb3	-0.01620326
180	0xbd93c3a3	-0.07215049
181	0x3cf338d8	0.029690191
182	0x3d86cf75	0.06582538
183	0x3dadf4c6	0.084939525
184	0x3df7be38	0.12096828
185	0x3d418115	0.047242243
186	0x3d588020	0.052856565
187	0x3d1526c7	0.036413934
188	0xbe06f16e	-0.13178036
189	0xbd156894	-0.036476687
190	0xbde3a3fc	-0.11115262
191	0xbd2a24e1	-0.041539077
192	0xbbf3cd0f	-0.0074402164
193	0xbd63f9b5	-0.05565806
194	0xbc0867fd	-0.008325574
195	0x3d2948ef	0.04132932
196	0xbb0e9467	-0.0021755935
197	0x3988ebcd	0.00026115627
198	0x3c7d7d07	0.015471703
199	0x3dec8b33	0.11549988
200	0xbd0c4704	-0.034247413
201	0x3c020678	0.007936113
202	0x3e014443	0.12623696
203	0x3d5c6cac	0.053814575
204	0x3e06da68	0.13169253
205	0xbe255882	-0.16147044
206	0xbd197571	-0.037465516
207	0xbd8d6acd	-0.06905136
208	0xbd01c2d8	-0.031679958
209	0xbdf2eb3e	-0.11861275
210	0xbd1a50aa	-0.037674583
211	0x3daa98b6	0.083299085
212	0x3c81d1f3	0.015847182
213	0xbd302426	-0.043003224
214	0x3d619a91	0.055079047
215	0x3d8bec3b	0.06832167
216	0x3d03e0c7	0.032196786
217	0x3ca31835	0.019909004
218	0xbdf9a02b	-0.12188753
219	0xbca7e687	-0.020495666
220	0x3d84d425	0.06485776
221	0x3ccd6276	0.025071364
222	0x3c18ae78	0.00931894
223	0x3e024f9f	0.12725686
224	0x3c9b3a37	0.018948657
225	0xbe025c14	-0.12730438
226	0xbd9b9383	-0.07596495
227	0x3dd9cfc1	0.10635329
228	0x3caba770	0.020953864
229	0xbdc04e5c	-0.09389946
230	0xbcd3f674	-0.025874354
231	0x3d9b2489	0.07575328
232	0x3d7cc41b	0.06171046
233	0xbd36fdc7	-0.044675615
234	0x3b8453ee	0.0040383255
235	0xbc40f68c	-0.011777531
236	0x3d35e6ad	0.044409443
237	0x3dc08a32	0.09401359
238	0xbd76dd7c	-0.060269818
239	0x3da2e597	0.07953947
240	0xbd3cf470	-0.04613155
241	0xbcfea534	-0.031084634
242	0xbdff0172	-0.124514475
243	0xbdd91396	-0.10599439
244	0x3d05e6d7	0.03269085
245	0xbd03a525	-0.032139916
246	0x3e0906a2	0.13381436
247	0xba32a53b	-0.00068147824
248	0x3d79d6c8	0.060995847
249	0xbc68354c	-0.014172863
250	0x3c06140c	0.0081834905
251	0x3c46c647	0.012132234
252	0xbdbdc481	-0.09265996
253	0xbdd4b24a	-0.103855684
254	0xbd5fd95a	-0.054650642
255	0x3d8d022a	0.068851784

gru.bias_ih_l1 f4 [192]
0	0x3c18408a	0.009292731
1	0xbd575b50	-0.052577317
2	0x3cd3879d	0.025821501
3	0xbc4ea994	-0.012613673
4	0xbd49f917	-0.049309816
5	0xbd5b1515	-0.053486902
6	0x3c1c5b17	0.009543202
7	0xbceab3c0	-0.028650165
8	0xbc893beb	-0.016752204
9	0xbd166317	-0.036715593
10	0xbccf2706	-0.025287163
11	0xbd313aad	-0.04326885
12	0x3b775f2b	0.0037745934
13	0xbd084a14	-0.03327377
14	0xbcdcd159	-0.026955293
15	0xbd45e362	-0.048312552
16	0x3acbd6d9	0.00155517
17	0x38eb34ae	0.000112154856
18	0x3c27d8b5	0.010244538
19	0xbd63cb01	-0.05561352
20	0xbc556ead	-0.013026875
21	0x3be28d4d	0.006913817
22	0x3c9a02c3	0.018800145
23	0xbcdb77ff	-0.026790617
24	0x3c191259	0.009342753
25	0xbd6a82c1	-0.057253603
26	0xbd192091	-0.037384573
27	0xbd2d07bf	-0.042243715
28	0xbd083d57	-0.033261623
29	0xbd71384a	-0.058891572
30	0xbd2f0b98	-0.042735666
31	0xbd049e40	-0.03237748
32	0xbd78be56	-0.060728393
33	0xbc278870	-0.0102254
34	0xbc477370	-0.012173519
35	0xbd8c0f41	-0.06838847
36	0xbd84646b	-0.06464466
37	0xbcea9306	-0.02863456
38	0xbc1eed65	-0.009700154
39	0xbcfe0d13	-0.031012094
40	0xbcf64f0f	-0.030066995
41	0xbd5fc9ec	-0.054635927
42	0xbc958928	-0.018253878
43	0xbc91ef4d	-0.017814303
44	0xbcd056a2	-0.025431935
45	0xbd11d55f	-0.035603877
46	0xbd24b484	-0.040211216
47	0xbd211f53	-0.039336514
48	0xbd51f56b	-0.05125944
49	0xbc1e7001	-0.0096702585
50	0xbd7add06	-0.06124594
51	0xbc073aef	-0.008253797
52	0xbc436321	-0.01192549
53	0xbd0fa2a4	-0.035067216
54	0xbd1d3cc4	-0.03838803
55	0xbcdb8282	-0.02679563
56	0xbcc0173d	-0.02344858
57	0xbc7fd345	-0.015614335
58	0xbd4641d1	-0.04840261
59	0xbbd44c17	-0.006478797
60	0xbd66c36e	-0.05633872
61	0xbcef1c91	-0.029188426
62	0xbd091664	-0.03346862
63	0xbcc41fe0	-0.02394098
64	0x3cff3d7e	0.031157251
65	0x3c782ca3	0.015147361
66	0x3cdc78b9	0.026913034
67	0x3d75c1ca	0.059999265
68	0x3d9e0301	0.07715417
69	0x3d04f9ad	0.032464672
70	0xbd101d8f	-0.03518444
71	0x3d6151fe	0.055009834
72	0x3d95b49d	0.0730984
73	0xbd3427b7	-0.043983188
74	0x3d878a19	0.06618137
75	0x3d78b65f	0.060720798
76	0x3d486532	0.048924632
77	0x3ca929b3	0.020649767
78	0x3d925fe2	0.071471944
79	0x3d69434c	0.056948945
80	0x3d4b7093	0.049667906
81	0x3cf7e958	0.030262634
82	0x3d9c506a	0.07632525
83	0x3d4d2443	0.05008341
84	0x3b040e2f	0.0020150056
85	0x3d43285f	0.047645923
86	0x3d89d5d0	0.067302346
87	0x3ca728eb	0.020405253
88	0x3be801e8	0.0070803054
89	0x3d3ce99d	0.04612123
90	0x3d24f90c	0.040276572
91	0x3cb7eb3b	0.022451034
92	0x3d7802c0	0.060549498
93	0x3daeb717	0.08531015
94	0x3cba275e	0.02272385
95	0x3ca4dd59	0.020125078
96	0x3d75cb6a	0.060008444
97	0x3d1d07ee	0.03833764
98	0x3d4c4837	0.049873557
99	0x3d9279b1	0.07152117
100	0x3d555123	0.05207933
101	0x3d94923d	0.07254455
102	0x3c91f885	0.017818699
103	0x3d56ad73	0.052411508
104	0x3d31062e	0.043218784
105	0x3dae285d	0.085037924
106	0x3dcb8f14	0.09939399
107	0x3c9c19c5	0.019055257
108	0xba8f85c0	-0.0010949895
109	0x3d4df8c0	0.050286055
110	0x3c850281	0.016236546
111	0x3db00627	0.085949235
112	0x3d55b1e6	0.05217161
113	0x3d13f741	0.03612447
114	0xbd66b593	-0.056325506
115	0x3dcdf8b6	0.100572035
116	0x3d80fd66	0.06298332
117	0x3d4a33b7	0.049365725
118	0x3d58c3af	0.052920993
119	0x3d61bc67	0.055111315
120	0xba67ad6f	-0.00088377943
121	0x3d5e7c01	0.054317478
122	0x3cb21fb0	0.021743625
123	0xbbf2ec9b	-0.0074134595
124	0x3d93b82b	0.072128616
125	0x3d6d09b7	0.057870593
126	0x3d66aeb0	0.05631894
127	0x3d43153f	0.047627684
128	0xbd1ce1ce	-0.03830128
129	0xbd1b48af	-0.037911113
130	0xbd670dbf	-0.056409594
131	0x3c7bb7a2	0.015363606
132	0xbd18adfa	-0.037275292
133	0x3cae7c9f	0.021299658
134	0xbcb35ead	-0.02189573
135	0xbc8e87ed	-0.017398799
136	0x3d2a2cad	0.041546512
137	0xbca2825d	-0.019837553
138	0xbb5df042	-0.0033865129
139	0xbb46da1d	-0.0030342408
140	0x3c67862f	0.014131113
141	0xbd06b8d6	-0.032891117
142	0xbc888366	-0.016664218
143	0xbc970aed	-0.018437827
144	0x3cf29690	0.02961281
145	0x3d2c96cb	0.042135995
146	0x3cf4da9e	0.029889401
147	0xbc5e2101	-0.013557673
148	0x3cec6e62	0.028861228
149	0x3cc3b907	0.023891939
150	0x3d4ffe68	0.05077973
151	0x3cfec580	0.031100035
152	0xbc75805e	-0.014984218
153	0x3ce37ee1	0.027770462
154	0x3cefb625	0.029261658
155	0x3d3e1b71	0.04641289
156	0x3c9c04d8	0.019045278
157	0xbd0dff7f	-0.03466749
158	0xbcf15380	-0.029458761
159	0x3cd072e2	0.025445405
160	0xbae65942	-0.0017574208
161	0xbcc1dc6b	-0.023664674
162	0xbd0a78ab	-0.033806484
163	0xbb82daf5	-0.003993387
164	0x3cdcb80a	0.026943225
165	0x3d104dc8	0.035230428
166	0xbcfa0f42	-0.030524854
167	0x3cd5d6a1	0.02610332
168	0xbc7d19b8	-0.015448026
169	0xbcddfc91	-0.027097972
170	0x3b605e85	0.0034236026
171	0x3d7a9465	0.061176676
172	0x3c85689a	0.01628523
173	0xbc879ed1	-0.016555222
174	0x3cdffdc2	0.02734268
175	0x3cb07920	0.021542132
176	0xbcc851df	-0.024453102
177	0xbcc975d0	-0.02459231
178	0x3d58d4ef	0.052937444
179	0x3aa50412	0.0012589714
180	0x3bc78cc9	0.006089781
181	0xbcd04746	-0.02542461
182	0x3c9b8c7b	0.018987885
183	0xbd249b1f	-0.040186998
184	0x3c81f435	0.015863517
185	0xbb24efe3	-0.0025167398
186	0xbcea33ec	-0.028589211
187	0xbd0164c6	-0.031590246
188	0xbc9fd491	-0.01951054
189	0xbca447e5	-0.020053813
190	0x3d581d14	0.052762106
191	0x3d57e1fc	0.05270575

gru.bias_hh_l1 f4 [192]
0	0x3c18408a	0.009292731
1	0xbd575b50	-0.052577317
2	0x3cd3879d	0.025821501
3	0xbc4ea994	-0.012613673
4	0xbd49f917	-0.049309816
5	0xbd5b1515	-0.053486902
6	0x3c1c5b17	0.009543202
7	0xbceab3c0	-0.028650165
8	0xbc893beb	-0.016752204
9	0xbd166317	-0.036715593
10	0xbccf2706	-0.025287163
11	0xbd313aad	-0.04326885
12	0x3b775f2b	0.0037745934
13	0xbd084a14	-0.03327377
14	0xbcdcd159	-0.026955293
15	0xbd45e362	-0.048312552
16	0x3acbd6d9	0.00155517
17	0x38eb34ae	0.000112154856
18	0x3c27d8b5	0.010244538
19	0xbd63cb01	-0.05561352
20	0xbc556ead	-0.013026875
21	0x3be28d4d	0.006913817
22	0x3c9a02c3	0.018800145
23	0xbcdb77ff	-0.026790617
24	0x3c191259	0.009342753
25	0xbd6a82c1	-0.057253603
26	0xbd192091	-0.037384573
27	0xbd2d07bf	-0.042243715
28	0xbd083d57	-0.033261623
29	0xbd71384a	-0.058891572
30	0xbd2f0b98	-0.042735666
31	0xbd049e40	-0.03237748
32	0xbd78be56	-0.060728393
33	0xbc278870	-0.0102254
34	0xbc477370	-0.012173519
35	0xbd8c0f41	-0.06838847
36	0xbd84646b	-0.06464466
37	0xbcea9306	-0.02863456
38	0xbc1eed65	-0.009700154
39	0xbcfe0d13	-0.031012094
40	0xbcf64f0f	-0.030066995
41	0xbd5fc9ec	-0.054635927
42	0xbc958928	-0.018253878
43	0xbc91ef4d	-0.017814303
44	0xbcd056a2	-0.025431935
45	0xbd11d55f	-0.035603877
46	0xbd24b484	-0.040211216
47	0xbd211f53	-0.039336514
48	0xbd51f56b	-0.05125944
49	0xbc1e7001	-0.0096702585
50	0xbd7add06	-0.06124594
51	0xbc073aef	-0.008253797
52	0xbc436321	-0.01192549
53	0xbd0fa2a4	-0.035067216
54	0xbd1d3cc4	-0.03838803
55	0xbcdb8282	-0.02679563
56	0xbcc0173d	-0.02344858
57	0xbc7fd345	-0.015614335
58	0xbd4641d1	-0.04840261
59	0xbbd44c17	-0.006478797
60	0xbd66c36e	-0.05633872
61	0xbcef1c91	-0.029188426
62	0xbd091664	-0.03346862
63	0xbcc41fe0	-0.02394098
64	0x3cff3d7e	0.031157251
65	0x3c782ca3	0.015147361
66	0x3cdc78b9	0.026913034
67	0x3d75c1ca	0.059999265
68	0x3d9e0301	0.07715417
69	0x3d04f9ad	0.032464672
70	0xbd101d8f	-0.03518444
71	0x3d6151fe	0.055009834
72	0x3d95b49d	0.0730984
73	0xbd3427b7	-0.043983188
74	0x3d878a19	0.06618137
75	0x3d78b65f	0.060720798
76	0x3d486532	0.048924632
77	0x3ca929b3	0.020649767
78	0x3d925fe2	0.071471944
79	0x3d69434c	0.056948945
80	0x3d4b7093	0.049667906
81	0x3cf7e958	0.030262634
82	0x3d9c506a	0.07632525
83	0x3d4d2443	0.05008341
84	0x3b040e2f	0.0020150056
85	0x3d43285f	0.047645923
86	0x3d89d5d0	0.067302346
87	0x3ca728eb	0.020405253
88	0x3be801e8	0.0070803054
89	0x3d3ce99d	0.04612123
90	0x3d24f90c	0.040276572
91	0x3cb7eb3b	0.022451034
92	0x3d7802c0	0.060549498
93	0x3daeb717	0.08531015
94	0x3cba275e	0.02272385
95	0x3ca4dd59	0.020125078
96	0x3d75cb6a	0.060008444
97	0x3d1d07ee	0.03833764
98	0x3d4c4837	0.049873557
99	0x3d9279b1	0.07152117
100	0x3d555123	0.05207933
101	0x3d94923d	0.07254455
102	0x3c91f885	0.017818699
103	0x3d56ad73	0.052411508
104	0x3d31062e	0.043218784
105	0x3dae285d	0.085037924
106	0x3dcb8f14	0.09939399
107	0x3c9c19c5	0.019055257
108	0xba8f85c0	-0.0010949895
109	0x3d4df8c0	0.050286055
110	0x3c850281	0.016236546
111	0x3db00627	0.085949235
112	0x3d55b1e6	0.05217161
113	0x3d13f741	0.03612447
114	0xbd66b593	-0.056325506
115	0x3dcdf8b6	0.100572035
116	0x3d80fd66	0.06298332
117	0x3d4a33b7	0.049365725
118	0x3d58c3af	0.052920993
119	0x3d61bc67	0.055111315
120	0xba67ad6f	-0.00088377943
121	0x3d5e7c01	0.054317478
122	0x3cb21fb0	0.021743625
123	0xbbf2ec9b	-0.0074134595
124	0x3d93b82b	0.072128616
125	0x3d6d09b7	0.057870593
126	0x3d66aeb0	0.05631894
127	0x3d43153f	0.047627684
128	0xbd273c43	-0.040828954
129	0xbce3e035	-0.027816871
130	0xbd49803e	-0.049194567
131	0x3ca77e85	0.020446071
132	0xbd068885	-0.03284504
133	0x3d0e3364	0.03471698
134	0xbd15c449	-0.036564145
135	0xbcbd9c4f	-0.023145823
136	0x3d25696b	0.040383738
137	0xbc58c0d4	-0.013229568
138	0xbc7a7baa	-0.015288273
139	0xbd000a79	-0.031259988
140	0x3c9a0818	0.018802688
141	0xbcbd5ce0	-0.023115575
142	0xbd032233	-0.032015037
143	0xbca5158e	-0.02015188
144	0x3cdd90e1	0.027046623
145	0x3d4f1975	0.050561387
146	0x3cf825be	0.030291434
147	0xbccf1cae	-0.02528223
148	0x3d107b46	0.035273813
149	0x3c96886b	0.018375596
150	0x3d282253	0.04104836
151	0x3cff0f8b	0.031135341
152	0xbcdf3797	-0.027248187
153	0x3ce17e70	0.02752611
154	0x3d0f93b2	0.035052963
155	0x3d004b84	0.031322017
156	0x3c92bd1b	0.017912438
157	0xbd2cfe22	-0.042234547
158	0xbd083a3a	-0.033258654
159	0x3cbcaa9a	0.023030568
160	0xbc516dd4	-0.012782533
161	0xbcb28897	-0.021793647
162	0xbd06b0db	-0.032883506
163	0xbc536ad7	-0.012903891
164	0x3caa2f04	0.020774372
165	0x3d0e396d	0.034722734
166	0xbcd2043e	-0.025636788
167	0x3c9fb488	0.019495264
168	0xbcc3dd75	-0.02390931
169	0xbd18b4ae	-0.037281685
170	0x3c5532ce	0.013012601
171	0x3d6d84c0	0.05798793
172	0x3c8330a3	0.016014403
173	0xbce8969d	-0.02839213
174	0x3d0e8c5c	0.034801826
175	0x3d053b5a	0.032527305
176	0xbd04f9d6	-0.032464825
177	0xbcd962e1	-0.026536407
178	0x3d496104	0.049164787
179	0xbb941344	-0.004518898
180	0x3c3bcae7	0.01146195
181	0xbd16862f	-0.03674906
182	0x3c94c832	0.018161867
183	0xbd21bb03	-0.03948499
184	0x3d0b5e4f	0.034025487
185	0x3b18fb9d	0.0023343333
186	0xbcd11e14	-0.025527038
187	0xbd1bd4b4	-0.038044646
188	0xbc9bec6e	-0.019033637
189	0xbce6487b	-0.028110733
190	0x3d0f1ef3	0.034941625
191	0x3cb8eb5e	0.02257317

fc.weight f4 [1, 64]
0	0xbad70b09	-0.0016406487
1	0xbc859ee8	-0.016311124
2	0xbcd646ae	-0.02615675
3	0x3d27ae30	0.040937603
4	0xbcc6a437	-0.024248226
5	0x3ce8ac78	0.028402552
6	0xbc5a5c5c	-0.013327684
7	0xbd09f66e	-0.03368228
8	0x3d0ec68c	0.034857318
9	0xbc5e3f11	-0.013564841
10	0xbc3f105a	-0.011661613
11	0xbd2ccd31	-0.042187873
12	0x3d53322b	0.051561516
13	0xbd0c23f0	-0.03421396
14	0xbd249825	-0.04018416
15	0xbc806870	-0.0156748
16	0x3ccea20e	0.025223758
17	0x3d066fd4	0.03282149
18	0x3c96eddf	0.018423973
19	0xbce4cdda	-0.027930189
20	0x3cd29b33	0.02570877
21	0x3c257256	0.010098061
22	0x3cb5326f	0.022118775
23	0x3c82c66c	0.015963756
24	0xbd2d003f	-0.042236563
25	0x3ca43e10	0.020049125
26	0x3d13dd71	0.036099855
27	0x3d1d8f64	0.038466826
28	0x3d86f1e7	0.06589108
29	0xbcaea1cc	-0.021317385
30	0xbcfc4b18	-0.030797526
31	0x3d0945a2	0.033513673
32	0xbd0d2036	-0.034454547
33	0xbd119bcd	-0.035548974
34	0xbd2b7d6f	-0.04186767
35	0x3c74e89f	0.014948039
36	0x3c8a3446	0.016870629
37	0x3d17c621	0.037054185
38	0xbcebf684	-0.028804071
39	0x3d0fccd8	0.035107464
40	0xbbcd73f8	-0.006269928
41	0xbca383c9	-0.019960301
42	0x3d654fb7	0.055984225
43	0x3ce12504	0.02748347
44	0x3b9fa557	0.004872005
45	0xbcebb5b9	-0.028773176
46	0x3caccc90	0.021093637
47	0x3cb49fe8	0.022048905
48	0xbd00b391	-0.031421248
49	0xbd0889e2	-0.03333462
50	0x3c599756	0.01328071
51	0xbd1cbe44	-0.03826739
52	0x3beb2ed3	0.0071772127
53	0xbc3f8e49	-0.011691638
54	0x3cfd4127	0.030914856
55	0xbd3b8898	-0.045784563
56	0x3cd6e4de	0.02623218
57	0xbc98f1ac	-0.018669926
58	0x3ab54870	0.0013830792
59	0xbca93b41	-0.020658137
60	0xbd2ae192	-0.041719027
61	0xbcafa2dc	-0.021439962
62	0x3cfd0187	0.030884517
63	0x3d2b1809	0.04177097
