ML/models/ETH/4h/lstm_model.pth (torch, 223932 bytes, 9 tensors)

lstm.weight_ih_l0 f4 [256, 19]
00000000: 5f81 b5bd 8b08 cdbd 2d3b 8a3d 401e 03be
00000010: 9422 0fbe fe73 b9bb 3d44 703d aa33 09be
00000020: d13e e0bc ca7c 86bd 8fa1 18bd 1cc1 233d
00000030: 016c 2cbd 27f9 963c 0e63 ffbd 4834 c3bd
00000040: aa73 8d3d 512a 113e 56e1 0bbe c818 3bbd
00000050: 1646 90bd a057 cbbc 0f81 ebbd 919c bbbd
00000060: 3cc5 153e 5dd0 c4bc 10e7 5d3d 9ed6 e03d
00000070: 3a53 2cbc 5e2f ed3d 8f29 ef3b 374f b4bd
00000080: 1045 35bd 4047 b5bd 501b ba3d 69a6 9f3d
00000090: 84c9 bfbd df89 f83d c2b8 05be d6a8 95bd
000000a0: 9189 cebc ecd1 08be be98 993d 61a3 fa3d
000000b0: 643f ca3d e640 1b3d e4c2 f3bd 7b4d 323d
000000c0: fd02 0d3e 9cad 27bd 92f8 fb3b 3207 aa3d
000000d0: 44d7 ca3c a551 0f3e 0f66 78bd 1cfa e7bd
000000e0: 79cf e23d a1d8 823c 6cbd 80bd b5f4 003e
000000f0: 594f 8b3c 50b8 8ebb ae6e b43d 3bb1 8c3d
00000100: aa3d ddbd 4dcd 973d bb3a ebbd 34ea 8a3d
00000110: c5da 523c bb29 99bd f428 9a3d 65a9 c2bd
00000120: 3c9b 53bc 8fb8 f63b 95a8 fe3d ee4a a93d
00000130: c379 0dbe 708b 8a3d c05e 4bbc 942a ab3d
00000140: e4d5 10bd 47f3 b1bd 8834 fabd f8d3 143d
00000150: 3676 8ebd d8f7 dc3d fbb0 9339 90a9 e8bd
00000160: 6f61 973d 1a24 133d 3ef8 8b3d 9e1d 173e
00000170: f092 05be de4f f6bd ca80 953d 1301 113d
00000180: a08e abbc 19c4 a9bc ef89 d63d 5c64 b13d
00000190: 2dfe f0bd 99bc 7bbb 47ed 12be fc5a f63d
000001a0: 06f4 0abe 2f97 15be 1e41 cc3c a578 153e
000001b0: 7740 8dbd 4c8a 62bd 6dc2 39bd 3a11 68bd
000001c0: 6567 db3d d07b 73bd dff0 cd3c cd49 e4bd
000001d0: f611 23bc 9ac3 e03d 2881 0dbe 712f 8c3d
000001e0: 405b 143d 16d5 dbbd dc42 9abd ea3d a53d
000001f0: 4b46 113e 7fdb ae3d 4134 143e 6443 1fbd
00000200: 8e65 de3c db55 fdbd 13fc d6bd 71e0 b53d
00000210: f186 ed3d 71de 85bd 327d 8039 ac1c ff3d
00000220: 8d1a e93d 571f 34bd 37d5 a4bc af59 a23d
00000230: 0af3 e3bc 5085 93bd 731c 0d3e 2c33 d93c
00000240: 2920 a43c 37aa 9f3c 3a53 9a3d 1389 663c
00000250: aa07 f93d d7c5 d0bd 878b d93d 161c 0a3e
00000260: 5d2c 25bc 4e90 d5bc 0c40 6ebd 625c 573b
00000270: 6ed5 b2bd 380c 8d3d 915c 8f3a 3a20 5abd
00000280: 3481 00bd fef1 0a3d 00ec df3d 6719 da3d
00000290: 053c 05be f639 963d 9066 f4bd 11d8 f23d
000002a0: 4a44 0cbe 0973 39bd 0cb3 5dbd d68f 92bc
000002b0: 09a1 83bd 348f eabd cfd5 0b3e 35a2 143d
000002c0: 8640 03bd 7953 a13c 1bc2 8c3d d99d 9a3d
000002d0: f17f b43d 2907 a0bd 38f3 733d 6b80 ac3d
000002e0: 9bc6 f9bc 91ab e7bd 8bc8 10be a4f4 a43d
000002f0: d88e 0a3e a231 e53d 6c92 0fbd c6e5 f7bc
00000300: b26e 913b 77d7 77bd 3592 293d 2cd6 753d
00000310: 75d8 d7bb 300d 5e3d 1f52 a43d 622f 5cbd
00000320: fc6d 733d e800 953c 16ac a6bd 08b0 b03d
00000330: fda0 f2bd 4ee1 50bc e267 debd 25c2 ebbc
00000340: 5423 ec3d a163 eebd a083 eb3d 29b1 69bd
00000350: 0312 e7bd 8ead 72ba ccc8 16bd 9b7d ed3c
00000360: f87d 313c f0fc e33c 7f17 04bc e54a a0bd
00000370: 433e 103e 7b4d 0f3d a14d 36bd 9892 fb3d
00000380: c759 8fbd 0c17 debc cd46 e83d 0d06 f63d
00000390: 75ca e63d d030 153e a922 3d3d 8d5f d2bd
000003a0: 51f4 0b3e 12ab 123d 5618 883d 4cb9 c9bc
000003b0: 8300 cdbd 4234 0c3d 8b38 0fbd d464 c9bd
000003c0: 613b c73d e748 c83d 6bac bd3d 3dc2 adbd
000003d0: 6517 9d3d 3bc7 a23d 8fc4 0b3e 0378 6bbd
000003e0: 103a 853d 10c6 a93d 8ac5 f63d e5fa 2bbd
000003f0: 624c ea3d 6cf9 6f3d 010e 153e c07c fe3d
-0.08862566 -0.10011395 0.06749568 -0.12804508 -0.13978034 -0.0056595793 0.058658827 -0.13398615
-0.027373703 -0.065667704 -0.03726345 0.039979085 -0.042095188 0.018429352 -0.12470065 -0.09531456
0.06906827 0.14176299 -0.13660178 -0.04567793 -0.07044618 -0.024822056 -0.11499225 -0.09160722
0.1462602 -0.024025137 0.054175436 0.10978435 -0.01051789 0.115813 0.0072986553 -0.088041715
-0.044255316 -0.088514805 0.09087241 0.07795412 -0.09364608 0.12135672 -0.13058761 -0.073075935
-0.025212081 -0.13361329 0.074998364 0.12238193 0.09875372 0.03790369 -0.11902407 0.043530922
0.13770671 -0.04093705 0.007689544 0.08302154 0.02476085 0.13995989 -0.060644206 -0.113270015
0.110747285 0.015972437 -0.06286129 0.12593348 0.01700561 -0.004355468 0.08810173 0.068697415
-0.10802777 0.07412205 -0.11485811 0.06782952 0.0128695415 -0.074786626 0.075273424 -0.09504966
-0.012915429 0.0075293253 0.12434498 0.08266245 -0.1381598 0.06764877 -0.012412727 0.083577305
-0.035360232 -0.086889796 -0.12217051 0.03633496 -0.06956141 0.1078946 0.00028169886 -0.113604665
0.07391631 0.0359231 0.06834458 0.14757392 -0.13044333 -0.12026952 0.07299955 0.035401415
-0.020942032 -0.02072339 0.104755275 0.0866172 -0.1176723 -0.0038411974 -0.14348327 0.12029073
-0.1356965 -0.14608453 0.024933394 0.14596803 -0.06897061 -0.05530767 -0.045351434 -0.056657054
0.1071308 -0.05944425 0.02513927 -0.11146889 -0.009953013 0.10974808 -0.138188 0.06844986
0.036219835 -0.10734002 -0.07532284 0.0806845 0.14186971 0.08537959 0.14473058 -0.038882628
0.027148034 -0.12369891 -0.10497298 0.088806994 0.11598004 -0.06536568 0.0002450734 0.124566406
0.11382017 -0.0439752 -0.0201212 0.07927262 -0.027825851 -0.07203162 0.13780384 0.026513658
0.020034866 0.019490344 0.075354055 0.014070767 0.12159665 -0.10193985 0.10622316 0.13487276
-0.010081378 -0.026069786 -0.05816655 0.003286146 -0.08732115 0.06887096 0.0010937621 -0.05325339
-0.031373218 0.033922188 0.10933685 0.10649376 -0.13011177 0.07335274 -0.11933625 0.11857618
-0.13697925 -0.04527572 -0.05412583 -0.017890852 -0.064271994 -0.11453095 0.1365578 0.036287505
-0.032043956 0.019693123 0.0687296 0.07549638 0.088134654 -0.07813866 0.059558123 0.08422931
-0.03049021 -0.113120206 -0.14139001 0.08054474 0.13531053 0.11191107 -0.03505175 -0.030260932
0.0044382447 -0.060508218 0.0413992 0.060018703 -0.006587083 0.054211795 0.08023476 -0.053756125
0.05943106 0.018188909 -0.081382915 0.08627325 -0.11847112 -0.012749029 -0.10859658 -0.028779099
0.11530176 -0.116400965 0.11499715 -0.05705372 -0.11282732 -0.0009257429 -0.03681259 0.028990557
0.010833256 0.027830571 -0.0080622425 -0.07826785 0.14086251 0.034986 -0.044507626 0.1228382
-0.069995455 -0.027110599 0.11341629 0.12012873 0.11269084 0.14569402 0.046175633 -0.10272131
0.13667418 0.035807677 0.06645267 -0.02462449 -0.10009863 0.034229524 -0.034966033 -0.098336846
0.097281225 0.0977953 0.09261402 -0.08484314 0.07670478 0.079481564 0.136492 -0.0574875
0.06505215 0.082897305 0.12049396 -0.04198732 0.1144035 0.058587477 0.14556123 0.12426138

lstm.weight_hh_l0 f4 [256, 64]
00000000: 8069 163c 9dad 783e 748b eabd 1ee5 2a3d
00000010: 18fa 46bd 9011 debb 5c51 273d b8f1 153c
00000020: 8bd0 1d3d 3c70 dd3c e02b 65bd ea60 8f3c
00000030: 2901 7a3d bcf0 c13d b033 5a3d 44c2 623d
00000040: 9b8b b7bd ec36 62bd 4885 edba ec7a 453e
00000050: 7a6b 873d 30d5 0bba 24ec 8dbc 8406 f83c
00000060: ca41 07bc de71 a7bc 29d4 21bd 4701 33bd
00000070: e8f0 e4bb 50c8 97bd 1e37 e73d 9149 88bd
00000080: 947e 83bc 1b7a c33d cd31 55bc 157c efbc
00000090: 9400 48bd b3c5 00bd 3530 8abd aad0 95bd
000000a0: 442c ebbd abc2 07be 729c 1bbd 6002 e2bd
000000b0: f0aa 29bd 1ffa 3f3d ed44 d5bc 524b 2d3d
000000c0: 764e a6bc dcaa f83d 20eb 0f3a 66eb 6bbc
000000d0: a622 b23b f3b2 673d 798e 90bd 420c df3d
000000e0: ea9d 71bd 0ad7 6fbd 2405 13bd d4ab 303d
000000f0: ebcb 44bc d5b3 bcbd 0ef8 0d3c 7cea 3cbc
00000100: 4841 803b 0074 f93c f6ce 26bd 90e0 90ba
00000110: e9f4 5bbd 06ae b7bd 287c 22bd 00b8 39bd
00000120: a274 a7bc e8c8 f4bc 0cea 48bc 3f5a 6c3d
00000130: 4788 c63d 7e6f a1bb c032 c73c d29b 9ebc
00000140: 94cb d3bc cbab b0bc 7804 2cbd 4272 b1bc
00000150: 936a 75bc 0994 c1bd 92db 0abc 96ea 563d
00000160: 617f 87bc 0dbe 60bc 96c9 eb3c 6f56 683d
00000170: bf1d 303d 9e4d 3cbd 1c6d c8bc 0c4a 233d
00000180: 7797 a23c 5571 febc af07 8ebc 693d 98bd
00000190: 726f 803d 3cb3 59bd 5130 1dbd 57ad cd3c
000001a0: d1b8 b03d dc8a 06bc 6d52 86bd d942 a03d
000001b0: a81d bc3b 649c ebbd 495e 1cbd 5356 cf3d
000001c0: e14a 573c 6160 92bd e9f5 a63c c528 dd3d
000001d0: cc87 043b 13ea 1e3d 8ccd d33c a465 893d
000001e0: 9e1b 9bbc 6e62 2ebc f21b 55bd 35cf b5bc
000001f0: 88fd d03c b09e a5bd 4b27 823d 25fc 69bc
00000200: 6486 d6bd 0743 2dbd 20c4 50bd b6e4 853d
00000210: 74ba 843a 26c4 69bc d2d1 82bd cf71 b5bd
00000220: 3594 f1bc 8faa 103d 9ba1 3ebd fcfc 4a3e
00000230: 496c 853d ddc9 88bc da67 de3d dd4b 153d
00000240: 6823 883c 83a3 953d 18dc 8ebd beb2 44bd
00000250: 1c84 6c3c 7b6d 593c 8d52 d1bd 844a 1b3c
00000260: 7e2c b73d 50db 083d c1cf 083e 31bd 71bd
00000270: daf0 25ba 4ea1 b53c 2dab 11bd c3fe 8a3d
00000280: 60f4 c93c 121c 6e3d 9da1 5b3d 187f 3cbd
00000290: 4e18 1b3d db01 443d 12a9 64bb 8cea 7bbd
000002a0: dd19 7bbd d2dd 213d 8238 c4bd f003 f9bc
000002b0: d8d7 233d be9b 123e 2d9d 20bd a215 afbc
000002c0: e2d3 e5bd 48e0 2e3c 8f1d e73c 1d54 623d
000002d0: 0a1e 733d a7bf ec3d da49 853c 1d31 0d3d
000002e0: 55b4 ffbd b2ac 02bd 1eb6 a93c 0232 0f3d
000002f0: c1fe a4bd a26c 423d 6f75 06bd dd62 0a3d
00000300: 9c86 133d d0da 70bd caf0 83bd 0036 e43b
00000310: 1c26 2c3d 4579 d1bd 7b0a 2e3d 7093 2e3d
00000320: a5aa 54bd 486a 833c 561c 6f3b f7e5 d73d
00000330: 0656 273d 1e02 11bd 85f2 dbbc e02a 26bd
00000340: a4bf 3abd 8b9d 01bd 4de8 03bd c437 5e3d
00000350: 3cf4 d03d a69c 413d 7bb8 a03d 6999 7a3d
00000360: cb01 943b ddfc da3c b544 27bd e256 ea3c
00000370: b1a8 e8bd 8dfe 973b 1a0a ef3c ce01 a7bc
00000380: 0697 653d 21ff 473d 721d 4c3d 639a 7dbc
00000390: ec37 983d 68c8 cd3c 4214 0a3d 6ad1 65bc
000003a0: 5cda 3d3e b6e5 14bd 92e5 543d 065e 90bb
000003b0: 568c bcbc 5849 c6bc 08c9 7dbc 776f 613c
000003c0: 665f 033e 84b3 81bd bd35 253c 6474 a9bc
000003d0: 64b5 0e3d a1ca cf3d 56a1 8b3d 1396 5e3c
000003e0: b683 15bc e812 cabc e20f bf3d 761d 203d
000003f0: a8d0 023d 1ce9 45bc 1630 c9bd 45e0 babd
0.009180427 0.24284978 -0.1145238 0.04172241 -0.04857835 -0.006776996 0.040849075 0.0091518685
0.03852896 0.027031057 -0.055950046 0.017502267 0.061036263 0.094697446 0.05327195 0.055361047
-0.089621745 -0.05522816 -0.0018121386 0.19285172 0.066122964 -0.00053341966 -0.017324515 0.030276544
-0.008255431 -0.020440038 -0.039508972 -0.04370239 -0.006986726 -0.074112535 0.1128981 -0.06654657
-0.016051568 0.09544774 -0.013012362 -0.029233972 -0.048828676 -0.03143854 -0.06747476 -0.0731519
-0.114830524 -0.13257854 -0.037990995 -0.11035609 -0.041422784 0.046869393 -0.026033843 0.04230816
-0.020301085 0.12141964 0.00054900534 -0.014399385 0.0054362593 0.056567144 -0.070584245 0.1089101
-0.05898849 -0.058554687 -0.035893574 0.043132618 -0.012011508 -0.09213988 0.008665098 -0.011530515
0.003914032 0.03045082 -0.040724717 -0.0011053253 -0.05370036 -0.08968739 -0.039669186 -0.04534149
-0.020441357 -0.029880956 -0.012262832 0.057703253 0.096939616 -0.004926621 0.024316192 -0.01936141
-0.02585391 -0.021566292 -0.04199645 -0.021660928 -0.014979023 -0.094520636 -0.008475201 0.052469812
-0.016540231 -0.013717187 0.028782647 0.056723054 0.042997118 -0.04597246 -0.02446609 0.03986554
0.019847615 -0.0310599 -0.017337648 -0.07433588 0.062712565 -0.053149447 -0.038376156 0.025107069
0.08629001 -0.008211818 -0.0655869 0.0782525 0.00574084 -0.115044385 -0.038175855 0.10123887
0.013140411 -0.07147289 0.020380931 0.10798792 0.0020222543 0.03879745 0.025854848 0.067088395
-0.018934067 -0.010643585 -0.052028604 -0.02219353 0.025511518 -0.08086908 0.06355151 -0.014281307
-0.10474852 -0.04230025 -0.05096829 0.06537764 0.0010126368 -0.014267957 -0.06387676 -0.08859598
-0.029489616 0.035318907 -0.046540838 0.19823068 0.065147944 -0.016697818 0.10859652 0.036449302
0.016618446 0.07306578 -0.06975573 -0.048022024 0.014435794 0.013270731 -0.102208234 0.009478215
0.08944033 0.033412278 0.13360502 -0.059018318 -0.000633014 0.022171643 -0.035563637 0.06786873
0.02465266 0.05813224 0.053620923 -0.046019644 0.037864976 0.047853332 -0.0034890813 -0.06150298
-0.061303962 0.039518185 -0.095810905 -0.030397385 0.040000767 0.14317223 -0.039212395 -0.02137262
-0.11222054 0.01067359 0.028212337 0.055255998 0.05935482 0.11559992 0.016270567 0.034470666
-0.124855675 -0.031902976 0.020716723 0.0349598 -0.08056403 0.04746688 -0.032826837 0.03378569
0.036017045 -0.058802426 -0.06442411 0.006964445 0.04202853 -0.102282085 0.042490464 0.042621076
-0.05192055 0.01604189 0.0036485395 0.10541909 0.040853523 -0.03540241 -0.02684904 -0.040568233
-0.04559292 -0.031644385 -0.03220396 0.0542524 0.10202834 0.047268532 0.07847687 0.06118146
0.0045168153 0.026731903 -0.04083701 0.028605882 -0.113603 0.004638499 0.029179621 -0.020386603
0.05605223 0.048827294 0.04983277 -0.015478703 0.07432541 0.025119975 0.033710726 -0.014026979
0.18540329 -0.036351882 0.051976748 -0.0044057397 -0.023016136 -0.024204895 -0.015489824 0.013759485
0.1282936 -0.06333068 0.010083613 -0.020685382 0.034840956 0.1014607 0.06817882 0.013585585
-0.009125641 -0.024667218 0.09329201 0.039090596 0.03193727 -0.012079503 -0.09823625 -0.09124807

lstm.bias_ih_l0 f4 [256]
00000000: 0000 0000 0000 0000 0000 0000 0000 0000
00000010: 0000 0000 0000 0000 0000 0000 0000 0000
00000020: 0000 0000 0000 0000 0000 0000 0000 0000
00000030: 0000 0000 0000 0000 0000 0000 0000 0000
00000040: 0000 0000 0000 0000 0000 0000 0000 0000
00000050: 0000 0000 0000 0000 0000 0000 0000 0000
00000060: 0000 0000 0000 0000 0000 0000 0000 0000
00000070: 0000 0000 0000 0000 0000 0000 0000 0000
00000080: 0000 0000 0000 0000 0000 0000 0000 0000
00000090: 0000 0000 0000 0000 0000 0000 0000 0000
000000a0: 0000 0000 0000 0000 0000 0000 0000 0000
000000b0: 0000 0000 0000 0000 0000 0000 0000 0000
000000c0: 0000 0000 0000 0000 0000 0000 0000 0000
000000d0: 0000 0000 0000 0000 0000 0000 0000 0000
000000e0: 0000 0000 0000 0000 0000 0000 0000 0000
000000f0: 0000 0000 0000 0000 0000 0000 0000 0000
00000100: 0000 0000 0000 0000 0000 0000 0000 0000
00000110: 0000 0000 0000 0000 0000 0000 0000 0000
00000120: 0000 0000 0000 0000 0000 0000 0000 0000
00000130: 0000 0000 0000 0000 0000 0000 0000 0000
00000140: 0000 0000 0000 0000 0000 0000 0000 0000
00000150: 0000 0000 0000 0000 0000 0000 0000 0000
00000160: 0000 0000 0000 0000 0000 0000 0000 0000
00000170: 0000 0000 0000 0000 0000 0000 0000 0000
00000180: 0000 0000 0000 0000 0000 0000 0000 0000
00000190: 0000 0000 0000 0000 0000 0000 0000 0000
000001a0: 0000 0000 0000 0000 0000 0000 0000 0000
000001b0: 0000 0000 0000 0000 0000 0000 0000 0000
000001c0: 0000 0000 0000 0000 0000 0000 0000 0000
000001d0: 0000 0000 0000 0000 0000 0000 0000 0000
000001e0: 0000 0000 0000 0000 0000 0000 0000 0000
000001f0: 0000 0000 0000 0000 0000 0000 0000 0000
00000200: 0000 0000 0000 0000 0000 0000 0000 0000
00000210: 0000 0000 0000 0000 0000 0000 0000 0000
00000220: 0000 0000 0000 0000 0000 0000 0000 0000
00000230: 0000 0000 0000 0000 0000 0000 0000 0000
00000240: 0000 0000 0000 0000 0000 0000 0000 0000
00000250: 0000 0000 0000 0000 0000 0000 0000 0000
00000260: 0000 0000 0000 0000 0000 0000 0000 0000
00000270: 0000 0000 0000 0000 0000 0000 0000 0000
00000280: 0000 0000 0000 0000 0000 0000 0000 0000
00000290: 0000 0000 0000 0000 0000 0000 0000 0000
000002a0: 0000 0000 0000 0000 0000 0000 0000 0000
000002b0: 0000 0000 0000 0000 0000 0000 0000 0000
000002c0: 0000 0000 0000 0000 0000 0000 0000 0000
000002d0: 0000 0000 0000 0000 0000 0000 0000 0000
000002e0: 0000 0000 0000 0000 0000 0000 0000 0000
000002f0: 0000 0000 0000 0000 0000 0000 0000 0000
00000300: 0000 0000 0000 0000 0000 0000 0000 0000
00000310: 0000 0000 0000 0000 0000 0000 0000 0000
00000320: 0000 0000 0000 0000 0000 0000 0000 0000
00000330: 0000 0000 0000 0000 0000 0000 0000 0000
00000340: 0000 0000 0000 0000 0000 0000 0000 0000
00000350: 0000 0000 0000 0000 0000 0000 0000 0000
00000360: 0000 0000 0000 0000 0000 0000 0000 0000
00000370: 0000 0000 0000 0000 0000 0000 0000 0000
00000380: 0000 0000 0000 0000 0000 0000 0000 0000
00000390: 0000 0000 0000 0000 0000 0000 0000 0000
000003a0: 0000 0000 0000 0000 0000 0000 0000 0000
000003b0: 0000 0000 0000 0000 0000 0000 0000 0000
000003c0: 0000 0000 0000 0000 0000 0000 0000 0000
000003d0: 0000 0000 0000 0000 0000 0000 0000 0000
000003e0: 0000 0000 0000 0000 0000 0000 0000 0000
000003f0: 0000 0000 0000 0000 0000 0000 0000 0000
0.0 0.0 0.0 0.0 0.0 0.0 0.0 0.0
0.0 0.0 0.0 0.0 0.0 0.0 0.0 0.0
0.0 0.0 0.0 0.0 0.0 0.0 0.0 0.0
0.0 0.0 0.0 0.0 0.0 0.0 0.0 0.0
0.0 0.0 0.0 0.0 0.0 0.0 0.0 0.0
0.0 0.0 0.0 0.0 0.0 0.0 0.0 0.0
0.0 0.0 0.0 0.0 0.0 0.0 0.0 0.0
0.0 0.0 0.0 0.0 0.0 0.0 0.0 0.0
0.0 0.0 0.0 0.0 0.0 0.0 0.0 0.0
0.0 0.0 0.0 0.0 0.0 0.0 0.0 0.0
0.0 0.0 0.0 0.0 0.0 0.0 0.0 0.0
0.0 0.0 0.0 0.0 0.0 0.0 0.0 0.0
0.0 0.0 0.0 0.0 0.0 0.0 0.0 0.0
0.0 0.0 0.0 0.0 0.0 0.0 0.0 0.0
0.0 0.0 0.0 0.0 0.0 0.0 0.0 0.0
0.0 0.0 0.0 0.0 0.0 0.0 0.0 0.0
0.0 0.0 0.0 0.0 0.0 0.0 0.0 0.0
0.0 0.0 0.0 0.0 0.0 0.0 0.0 0.0
0.0 0.0 0.0 0.0 0.0 0.0 0.0 0.0
0.0 0.0 0.0 0.0 0.0 0.0 0.0 0.0
0.0 0.0 0.0 0.0 0.0 0.0 0.0 0.0
0.0 0.0 0.0 0.0 0.0 0.0 0.0 0.0
0.0 0.0 0.0 0.0 0.0 0.0 0.0 0.0
0.0 0.0 0.0 0.0 0.0 0.0 0.0 0.0
0.0 0.0 0.0 0.0 0.0 0.0 0.0 0.0
0.0 0.0 0.0 0.0 0.0 0.0 0.0 0.0
0.0 0.0 0.0 0.0 0.0 0.0 0.0 0.0
0.0 0.0 0.0 0.0 0.0 0.0 0.0 0.0
0.0 0.0 0.0 0.0 0.0 0.0 0.0 0.0
0.0 0.0 0.0 0.0 0.0 0.0 0.0 0.0
0.0 0.0 0.0 0.0 0.0 0.0 0.0 0.0
0.0 0.0 0.0 0.0 0.0 0.0 0.0 0.0

lstm.bias_hh_l0 f4 [256]
00000000: 0000 0000 0000 0000 0000 0000 0000 0000
00000010: 0000 0000 0000 0000 0000 0000 0000 0000
00000020: 0000 0000 0000 0000 0000 0000 0000 0000
00000030: 0000 0000 0000 0000 0000 0000 0000 0000
00000040: 0000 0000 0000 0000 0000 0000 0000 0000
00000050: 0000 0000 0000 0000 0000 0000 0000 0000
00000060: 0000 0000 0000 0000 0000 0000 0000 0000
00000070: 0000 0000 0000 0000 0000 0000 0000 0000
00000080: 0000 0000 0000 0000 0000 0000 0000 0000
00000090: 0000 0000 0000 0000 0000 0000 0000 0000
000000a0: 0000 0000 0000 0000 0000 0000 0000 0000
000000b0: 0000 0000 0000 0000 0000 0000 0000 0000
000000c0: 0000 0000 0000 0000 0000 0000 0000 0000
000000d0: 0000 0000 0000 0000 0000 0000 0000 0000
000000e0: 0000 0000 0000 0000 0000 0000 0000 0000
000000f0: 0000 0000 0000 0000 0000 0000 0000 0000
00000100: 0000 0000 0000 0000 0000 0000 0000 0000
00000110: 0000 0000 0000 0000 0000 0000 0000 0000
00000120: 0000 0000 0000 0000 0000 0000 0000 0000
00000130: 0000 0000 0000 0000 0000 0000 0000 0000
00000140: 0000 0000 0000 0000 0000 0000 0000 0000
00000150: 0000 0000 0000 0000 0000 0000 0000 0000
00000160: 0000 0000 0000 0000 0000 0000 0000 0000
00000170: 0000 0000 0000 0000 0000 0000 0000 0000
00000180: 0000 0000 0000 0000 0000 0000 0000 0000
00000190: 0000 0000 0000 0000 0000 0000 0000 0000
000001a0: 0000 0000 0000 0000 0000 0000 0000 0000
000001b0: 0000 0000 0000 0000 0000 0000 0000 0000
000001c0: 0000 0000 0000 0000 0000 0000 0000 0000
000001d0: 0000 0000 0000 0000 0000 0000 0000 0000
000001e0: 0000 0000 0000 0000 0000 0000 0000 0000
000001f0: 0000 0000 0000 0000 0000 0000 0000 0000
00000200: 0000 0000 0000 0000 0000 0000 0000 0000
00000210: 0000 0000 0000 0000 0000 0000 0000 0000
00000220: 0000 0000 0000 0000 0000 0000 0000 0000
00000230: 0000 0000 0000 0000 0000 0000 0000 0000
00000240: 0000 0000 0000 0000 0000 0000 0000 0000
00000250: 0000 0000 0000 0000 0000 0000 0000 0000
00000260: 0000 0000 0000 0000 0000 0000 0000 0000
00000270: 0000 0000 0000 0000 0000 0000 0000 0000
00000280: 0000 0000 0000 0000 0000 0000 0000 0000
00000290: 0000 0000 0000 0000 0000 0000 0000 0000
000002a0: 0000 0000 0000 0000 0000 0000 0000 0000
000002b0: 0000 0000 0000 0000 0000 0000 0000 0000
000002c0: 0000 0000 0000 0000 0000 0000 0000 0000
000002d0: 0000 0000 0000 0000 0000 0000 0000 0000
000002e0: 0000 0000 0000 0000 0000 0000 0000 0000
000002f0: 0000 0000 0000 0000 0000 0000 0000 0000
00000300: 0000 0000 0000 0000 0000 0000 0000 0000
00000310: 0000 0000 0000 0000 0000 0000 0000 0000
00000320: 0000 0000 0000 0000 0000 0000 0000 0000
00000330: 0000 0000 0000 0000 0000 0000 0000 0000
00000340: 0000 0000 0000 0000 0000 0000 0000 0000
00000350: 0000 0000 0000 0000 0000 0000 0000 0000
00000360: 0000 0000 0000 0000 0000 0000 0000 0000
00000370: 0000 0000 0000 0000 0000 0000 0000 0000
00000380: 0000 0000 0000 0000 0000 0000 0000 0000
00000390: 0000 0000 0000 0000 0000 0000 0000 0000
000003a0: 0000 0000 0000 0000 0000 0000 0000 0000
000003b0: 0000 0000 0000 0000 0000 0000 0000 0000
000003c0: 0000 0000 0000 0000 0000 0000 0000 0000
000003d0: 0000 0000 0000 0000 0000 0000 0000 0000
000003e0: 0000 0000 0000 0000 0000 0000 0000 0000
000003f0: 0000 0000 0000 0000 0000 0000 0000 0000
0.0 0.0 0.0 0.0 0.0 0.0 0.0 0.0
0.0 0.0 0.0 0.0 0.0 0.0 0.0 0.0
0.0 0.0 0.0 0.0 0.0 0.0 0.0 0.0
0.0 0.0 0.0 0.0 0.0 0.0 0.0 0.0
0.0 0.0 0.0 0.0 0.0 0.0 0.0 0.0
0.0 0.0 0.0 0.0 0.0 0.0 0.0 0.0
0.0 0.0 0.0 0.0 0.0 0.0 0.0 0.0
0.0 0.0 0.0 0.0 0.0 0.0 0.0 0.0
0.0 0.0 0.0 0.0 0.0 0.0 0.0 0.0
0.0 0.0 0.0 0.0 0.0 0.0 0.0 0.0
0.0 0.0 0.0 0.0 0.0 0.0 0.0 0.0
0.0 0.0 0.0 0.0 0.0 0.0 0.0 0.0
0.0 0.0 0.0 0.0 0.0 0.0 0.0 0.0
0.0 0.0 0.0 0.0 0.0 0.0 0.0 0.0
0.0 0.0 0.0 0.0 0.0 0.0 0.0 0.0
0.0 0.0 0.0 0.0 0.0 0.0 0.0 0.0
0.0 0.0 0.0 0.0 0.0 0.0 0.0 0.0
0.0 0.0 0.0 0.0 0.0 0.0 0.0 0.0
0.0 0.0 0.0 0.0 0.0 0.0 0.0 0.0
0.0 0.0 0.0 0.0 0.0 0.0 0.0 0.0
0.0 0.0 0.0 0.0 0.0 0.0 0.0 0.0
0.0 0.0 0.0 0.0 0.0 0.0 0.0 0.0
0.0 0.0 0.0 0.0 0.0 0.0 0.0 0.0
0.0 0.0 0.0 0.0 0.0 0.0 0.0 0.0
0.0 0.0 0.0 0.0 0.0 0.0 0.0 0.0
0.0 0.0 0.0 0.0 0.0 0.0 0.0 0.0
0.0 0.0 0.0 0.0 0.0 0.0 0.0 0.0
0.0 0.0 0.0 0.0 0.0 0.0 0.0 0.0
0.0 0.0 0.0 0.0 0.0 0.0 0.0 0.0
0.0 0.0 0.0 0.0 0.0 0.0 0.0 0.0
0.0 0.0 0.0 0.0 0.0 0.0 0.0 0.0
0.0 0.0 0.0 0.0 0.0 0.0 0.0 0.0

lstm.weight_ih_l1 f4 [256, 64]
00000000: a027 ad3d cdd2 4ebd 0b51 39bd 62d9 a23d
00000010: f6a9 35bd bc1c cebd e507 a13c 8f66 f73d
00000020: ea2b dcbd a7da 013e fc9e 07be 38b1 cd3d
00000030: 07d1 353c 03e2 053e c378 47bd 1d8c a53d
00000040: 1192 8abd 1651 bb3d 875c 013e dff4 e8bd
00000050: 6e98 c5bd e246 4f3c e566 c23c a1b5 423d
00000060: 0ac3 503d dfeb ad3d 5886 bfbd dc9e 71bd
00000070: 7ff9 d53c 0b2f 7bbc 8299 eebc 2dd2 623d
00000080: db86 8abd 2749 b9bc ee52 f3bd dc1b b03d
00000090: 00b0 dabd 0fe1 e53d 0c60 a53c c613 debd
000000a0: fb6f 0abc 0c95 523b 0bf6 8fbd ac9e 9ebd
000000b0: a26d e13d 64d3 b3bd d98c 343d 7e65 883d
000000c0: 8e4c aebd 7d91 003d 7fdf d7bc 2b26 923d
000000d0: 7778 b53c d32d e2bd ccc3 493b 5509 c23d
000000e0: 82f3 f6bb 31a4 ee3d c013 d53d 4913 5dbc
000000f0: b7d9 33bd fb4d d5bd 4310 da3d 0946 b4bd
00000100: 0865 333c 3672 853d ac89 f83d 04d6 973d
00000110: b067 373d 1fad d3bd aecb b73d e4ca 353a
00000120: 1c30 cfbd a476 ed3d ced2 b03c 71d6 d13b
00000130: 9c15 43bd ce72 073e 0530 f63d eb13 c8bd
00000140: cc93 d03d aefa 1c3c 17f8 53bd 229d 05be
00000150: 1b69 c9bd cd15 893d 6a5e 953d 41a2 c2bd
00000160: 9b09 f1bb a0be bf3c 3ec0 6b3d 7afa 7a3d
00000170: 904a c73d 7821 00be 5bf9 f63d bdc2 cf3d
00000180: e74d ba3c 0608 08be 644d ad3d c5ff 083e
00000190: 6be5 ab3d f5e8 0abd b405 f7bd 97be 193d
000001a0: f25b 03be 5cf2 073c 3373 e5bd 157a d93d
000001b0: 4acc 7dbd adb1 ab3c 83dd 9dbd 2f4e 39bc
000001c0: 16ec aabd 3f4b 5a3d 25e1 35bc c0ce 993c
000001d0: bc13 bf3d 69f2 703d bffa bf3d bcee 3e3d
000001e0: b14e bc3d 3767 b4bd f8c2 8dbc 30de d73d
000001f0: af5c 963d 44f0 babc a255 d83d d6da 0ebe
00000200: 0887 073e 5059 2cbc 6c05 01be 5996 ea3d
00000210: b1d4 e13d c63c e0bd dd47 813c 3e2b d3bd
00000220: f8f8 c7bd e0c3 a5bd 841e 09be da5b ccbd
00000230: 35ce efbd baf4 69bd 2e4b 3cbd 737f c03d
00000240: 06a0 99bc ee89 e3bd df06 d9bd 2c46 31bc
00000250: 9773 a13d a388 783d af3a 853d f1ca eebc
00000260: b138 0abd d83e 883d 6684 c43d 220c 053e
00000270: f30b 5ebc 0b3d bcbb fd07 223d 4812 87bd
00000280: de58 d6bc 7aba dabd f61d c0bc 7ace dcbd
00000290: 51fa cf3d 78a3 c33d f1d9 963d dee7 31bd
000002a0: db44 093d a73c ac3d b575 56bd b7dc 99bd
000002b0: ca7c 1c3d 1dc6 aebd 5d35 1fbe 1581 ea3d
000002c0: 39e2 373d 2606 e43d 5d77 b23d ee8d 843d
000002d0: ae31 773c d0c2 ca3d a979 f2bd 40af 893d
000002e0: b5ef 88bd 2a80 123e 9b03 4a3d a55f 2cbd
000002f0: e8d6 5dbd 7968 f43d c57d a63d 4ad1 4c3d
00000300: 5b54 623c 9adb 0bbe c1f4 90ba f9eb e43d
00000310: 7992 443d 0b24 243c 5e6c 00be ecb5 06be
00000320: 8bef 2cbd 1dff 1cbd 92a1 0b3e b02c 783d
00000330: fc0a 133d 5344 053e b3f3 e53d afc9 de3d
00000340: 9b13 4f3c fc9e 18bd 7ded 933d 62ae 9fbc
00000350: 47c2 3c38 7b49 ecbd bae6 093e 6bc9 f03d
00000360: 8157 d1bb b0d2 21bd cd23 13be 8076 cabd
00000370: 612d a2bd 0b65 a5bc 6345 bd3c 1c51 483d
00000380: f561 d3bd d19a 923d 7fec c3bd 3b8c 653d
00000390: 953a 073e 6d40 6f3d 7acd dc3d 0853 3fbd
000003a0: 5310 76bd eed4 06be 3127 0b3d 633d aa3d
000003b0: e7bf 74bd 49d8 5c3d f734 6f3d 08df cebd
000003c0: 205e ee3d 2845 a23d de3b c6bd 5dba f33c
000003d0: 9bc9 223d a76b 993d 112b 2e3c 0496 863b
000003e0: 1e27 38bd d15a ebbc 378a ad3d c43a 0bbe
000003f0: 7fdd c43d 62e2 04bd 6f8f c13d d35a 17be
0.084548235 -0.050494004 -0.045243304 0.07951619 -0.04435154 -0.100640744 0.019657085 0.120801084
-0.107505634 0.12681065 -0.13244241 0.100435674 0.011097199 0.13074498 -0.04869915 0.08083365
-0.06766141 0.09146325 0.12632953 -0.113748305 -0.09648214 0.012651177 0.023730705 0.047536496
0.050967254 0.084922545 -0.09351796 -0.05898939 0.026119946 -0.01533104 -0.029125933 0.05537622
-0.06764003 -0.02261789 -0.11881052 0.08599064 -0.106781006 0.11224567 0.0201874 -0.10843615
-0.00844955 0.0032132296 -0.07029351 -0.07745108 0.11007239 -0.08780554 0.044079635 0.06659983
-0.085106954 0.03138875 -0.026351688 0.07136186 0.022152169 -0.110438965 0.003078687 0.09474436
-0.0075363526 0.11652411 0.10404158 -0.0134933675 -0.0439088 -0.10415264 0.10647633 -0.08802421
0.010949381 0.06515925 0.12135634 0.07413867 0.04477662 -0.103357546 0.08974396 0.0006934835
-0.10116598 0.115948945 0.021584895 0.0064037372 -0.04762803 0.13227388 0.12020878 -0.09769424
0.1018444 0.009581251 -0.05175027 -0.13048223 -0.098345004 0.06693611 0.07293399 -0.09503604
-0.0073558814 0.023406327 0.057556383 0.06127403 0.097310185 -0.12512767 0.120592795 0.10144565
0.022742225 -0.1328431 0.08462027 0.13378818 0.083933674 -0.03391357 -0.12061635 0.037535276
-0.12828043 0.008297529 -0.11203613 0.106189884 -0.061962403 0.020958746 -0.07708266 -0.011310144
-0.08345811 0.053294417 -0.011101042 0.018775344 0.09329936 0.05882493 0.09373998 0.046614394
0.09194697 -0.08808749 -0.017304882 0.10540426 0.07341897 -0.022819646 0.10563208 -0.13950667
0.13235104 -0.010519341 -0.12599725 0.11454458 0.11026896 -0.109490916 0.015781337 -0.10310982
-0.09764284 -0.08094001 -0.13390547 -0.09978457 -0.11709253 -0.057118155 -0.045970134 0.09399309
-0.018753063 -0.111102924 -0.10597014 -0.010819953 0.07883375 0.060677182 0.06505334 -0.029149504
-0.03374547 0.066526115 0.095955655 0.1299291 -0.013552654 -0.0057445816 0.0395584 -0.06595284
-0.026165422 -0.10680099 -0.023451786 -0.1078157 0.10155166 0.095526636 0.07365788 -0.043434016
0.03351293 0.08410006 -0.052358348 -0.07512801 0.038204946 -0.08533881 -0.155477 0.11450402
0.044893477 0.11133985 0.08714173 0.064723834 0.015087528 0.09900439 -0.11839611 0.067228794
-0.066863455 0.14306703 0.049319845 -0.0420834 -0.05416003 0.11933989 0.081294574 0.05000428
0.013814057 -0.1365799 -0.001105927 0.11177821 0.04799125 0.010018359 -0.12541339 -0.13155335
-0.042220633 -0.038329232 0.13635853 0.060589492 0.035899147 0.13014345 0.112281226 0.10878312
0.012638952 -0.037260994 0.07223032 -0.019492332 4.5003628e-05 -0.11537453 0.13466921 0.117571674
-0.006388605 -0.039507568 -0.14369126 -0.09885883 -0.079188116 -0.020189783 0.023104375 0.048905477
-0.10321418 0.07158435 -0.095665924 0.056041937 0.13205941 0.05841105 0.10781379 -0.046710044
-0.06007416 -0.13167164 0.033972923 0.0831249 -0.059753325 0.053917203 0.05840012 -0.101011336
0.11639047 0.07923347 -0.096793875 0.02975195 0.039743047 0.07491236 0.010630385 0.0041072387
-0.04495918 -0.028729828 0.08473628 -0.13596636 0.096125595 -0.032442458 0.09451186 -0.1478074

lstm.weight_hh_l1 f4 [256, 64]
00000000: 40bc 54bd 90c7 d6bc 4a76 ea3d e97a 203d
00000010: c66a 393d 94f5 43bd 63cd 00bd cf10 db3c
00000020: a575 993c 4908 153e f127 24bc b0c2 7ebd
00000030: 84c1 6c3c 5fb7 adbd 13a6 d83c 11be 013e
00000040: ca71 32bd e7b2 0fbe 8472 053e 115e 463d
00000050: c89d f5bc c683 08be d1b8 a8bb 5617 fabc
00000060: a4e7 ebba f3c9 cb3d 481f 9e3d 9402 ebbd
00000070: ba0f 433c 676e 9abd 7e8a b73c 7ec2 3abd
00000080: 6ad7 fdbc 2888 2cbd ca3b 163e 338b 6a3a
00000090: 8e86 e7bc acc6 37bd 306a b83c 7169 aabd
000000a0: 49cf 483d ff31 6a3d d2eb 283e b443 753d
000000b0: 813c 293e dc28 7cbd c9a2 b1bc 22a2 02be
000000c0: 5475 14bd 29a5 95bd 5a14 743c 1bce adb9
000000d0: d022 2f3c 656b 18bb 1208 b4bd d2a6 2c3d
000000e0: 8cf8 7fbc 052f 93bd 9fa3 d4bc 027a 193e
000000f0: 546c c73d 2170 f53c c2a4 5fbd 79fe 4abd
00000100: 4270 4e3e 3947 e8bc 94d3 1ebe a1c5 5dbd
00000110: afe9 52bd d88c 503e db07 993d 2a13 9fbc
00000120: e11e 933d d2e2 0f3d 9928 d7bd a8e3 31bd
00000130: 3a78 6b3e 55cc 14bd 1471 d5bd 525c 9c3d
00000140: 1908 f33c cc20 973d 9a17 053e f1d2 df3d
00000150: c8eb 81bd 80c6 1cbd 983d f83a 14f3 1a3e
00000160: 5b93 5e3d 447d 093e b858 f0bc d387 323d
00000170: 39ed 63bd e320 ca3d 8b0f ea3d fb01 46bd
00000180: 255d 6e3c ed99 473d f650 9e3d cfa2 a43d
00000190: d905 46bc f27e 8a3d a312 0a3e 224e 18be
000001a0: 7ba4 003c dba8 133d c67c 0e3e 2fc7 5e3d
000001b0: 37cb 453d cd9a 51be 576f f83a 196a e1bd
000001c0: cdac ac3d b551 cf3b 8e58 14bd d19d 8fbd
000001d0: bec0 4f3d 2185 fd3d bea5 cebd 29e8 03be
000001e0: 2a27 8fbd c13b 093e aed1 5fbd b21f 203c
000001f0: 93db 603d 8c7e babd b688 64bd 89db a0bc
00000200: 1562 883d e748 3bbc 6cff 043c aa29 3b3d
00000210: 8518 a03d c15b e538 b3de a03c 3ab1 d33c
00000220: ea7d 933a bc16 4b3d 1ab6 9f3c 6720 5dbb
00000230: 605f 26bd caf6 b73c 1c29 4abc 309c 15bd
00000240: 8be6 b63a 21c9 1abc 5512 b5bc e05a 36bc
00000250: b0e6 45bd 73ae 5f3c 6146 f13c 7806 e5bc
00000260: d053 89bd a691 c2bb dc27 0cbd d762 0abe
00000270: 9783 a3bc 168f 26bd a4f9 2cbd bb09 2abd
00000280: 2054 1dbd 36df 233e 9425 c43d 86d5 ac3d
00000290: 9a8a d93d db76 27bb 3186 26bc 9c88 cfbd
000002a0: c1a2 1e3d a96b 99bd f5e3 18bc 5f96 4cbb
000002b0: e67c 87bc 79cc ed3d 0efb 1a3d 5474 c53d
000002c0: cd3c 4d3a c873 933d 5950 493d fd72 303e
000002d0: 36eb 66bd 6e54 02bc f67c 30bd 0cff b63b
000002e0: aa76 72bc 02e8 b8bd 54e8 9bbd 4a34 b73d
000002f0: 6498 a63d a1e5 7c3d cf39 843d ddea 23bd
00000300: 2e5d e6bd 5283 ad3b 4579 9cbc 71f8 38bd
00000310: 7068 b2bc 3f68 123e 6701 44bb a694 5bbd
00000320: a580 26bc 1581 b53c 9403 e03c 2d33 17bd
00000330: 4a46 66bd a14d e4bd d227 f33b 6aa6 aa3d
00000340: 6416 4abd b5b9 3ebc 8ac4 74bd 2045 aa3c
00000350: 16db b1bc 71f4 063d 558a 763d 4b96 f3bb
00000360: 74a0 a73d 9a9c 06bd 2f09 eb3c d98f 903d
00000370: eb94 b33d 0930 0c3d 23ce 033d 128a 2abc
00000380: 7ea5 36bd d3af 94bd d18b 113d d5e3 843c
00000390: 4e38 06bc 1613 0d3d 17c4 c93d 127d c1bd
000003a0: e7e6 923d 6e80 e33b fb87 b4bc 954d 113d
000003b0: 5dba 3ebb 4804 cebd 54d4 87bd 7c5a 9c3c
000003c0: f880 a0bd 7e56 c1bc de8f abbd f2a1 6a3d
000003d0: 9f21 91bd ca94 c33a 2208 703d f844 87be
000003e0: 7e9b 57bc 21f2 e3bd 7ed9 7cbd abcc 543d
000003f0: 7737 6ebd b4a7 a3bd 1611 503b d1cd 70bc
-0.05193734 -0.026218206 0.11448343 0.039179716 0.045267843 -0.047841623 -0.031445872 0.026741413
0.018732855 0.14553942 -0.010019288 -0.062197387 0.014450435 -0.08482241 0.026446378 0.12670161
-0.04356555 -0.1403309 0.13031965 0.048429552 -0.029982463 -0.13331518 -0.005148985 -0.030528706
-0.0017998111 0.09950628 0.0772081 -0.11475101 0.011905605 -0.07540589 0.022404905 -0.04559564
-0.030986506 -0.042122036 0.14671245 0.0008947134 -0.028262403 -0.044867203 0.022511572 -0.083208926
0.049025808 0.057176586 0.16496208 0.05987902 0.16526987 -0.061562404 -0.021684067 -0.12757161
-0.036244705 -0.073068924 0.01489743 -0.00033150692 0.010689452 -0.0023257372 -0.08790602 0.04215128
-0.015623223 -0.07186703 -0.025956927 0.14987949 0.09737459 0.029960694 -0.054600485 -0.04955909
0.2016001 -0.028354274 -0.15510398 -0.05414355 -0.05149239 0.20366228 0.074722014 -0.019418318
0.07183624 0.035128422 -0.1050579 -0.04343 0.22995082 -0.03632768 -0.104219586 0.07634796
0.029666947 0.073793024 0.12997285 0.10928906 -0.063438 -0.03827524 0.0018939255 0.1513179
0.054339748 0.13426691 -0.02933918 0.043586563 -0.055646155 0.09869554 0.11428746 -0.048341732
0.014548575 0.04873078 0.07730286 0.08038866 -0.012086355 0.06762494 0.13483672 -0.14873555
0.007851715 0.036049705 0.13914785 0.054389175 0.048289504 -0.20469208 0.001895408 -0.11006565
0.08431397 0.006326879 -0.036217265 -0.07012523 0.050720923 0.12378908 -0.100902066 -0.12881531
-0.06989892 0.134017 -0.054643326 0.009773182 0.054896902 -0.09106168 -0.05579444 -0.019635933
0.06659333 -0.0114309555 0.008117538 0.04569403 0.07817177 0.000109366614 0.019637441 0.025841344
0.0011252735 0.049582228 0.019496012 -0.0033741237 -0.0406183 0.022456545 -0.012338903 -0.036525905
0.0013954205 -0.009447367 -0.022103468 -0.011130065 -0.048315704 0.013652432 0.029452505 -0.027957186
-0.06705439 -0.005937773 -0.0342177 -0.13514267 -0.019960208 -0.0406638 -0.042230263 -0.041513186
-0.038410306 0.16003117 0.0957748 0.08439164 0.10622139 -0.002555302 -0.01016383 -0.10133478
0.038729433 -0.07491238 -0.009331693 -0.0031217558 -0.016539048 0.11611266 0.03783708 0.096413285
0.00078291894 0.07199818 0.04914889 0.17231365 -0.05637666 -0.0079547 -0.043087922 0.005584603
-0.0147987995 -0.09028627 -0.076126724 0.0894552 0.08134535 0.06174243 0.064563386 -0.040018905
-0.11248241 0.0052951956 -0.019100795 -0.045158807 -0.021778315 0.14297579 -0.0029908062 -0.05360856
-0.010162507 0.022156278 0.027345456 -0.03691404 -0.056219377 -0.11147619 0.0074205184 0.08332522
-0.04933776 -0.011640956 -0.059757747 0.020784914 -0.021710914 0.03294796 0.060190517 -0.007433688
0.08184901 -0.03286419 0.028690903 0.07058687 0.08768638 0.034225497 0.03217901 -0.010408895
-0.04459142 -0.07260098 0.03553373 0.01622192 -0.008192135 0.03444203 0.09851854 -0.094476834
0.071729474 0.0069428002 -0.022037497 0.03547438 -0.002910278 -0.1005941 -0.06632295 0.019086115
-0.07837099 -0.023600813 -0.0837705 0.05728335 -0.07086491 0.0014921662 0.058601506 -0.26419806
-0.013159631 -0.11130167 -0.061730854 0.051953 -0.058158364 -0.07990971 0.0031748465 -0.014697508

lstm.bias_ih_l1 f4 [256]
00000000: d15a 05bb 8a1a c6bb 6063 be3c ec25 953a
00000010: 51a9 fa3b 8ee9 8cbc a56d a03c e542 853c
00000020: c07d 20bc 05a1 963a bcb9 f23b 0cad 883d
00000030: 9720 49bc 8b0e 373c 46aa 16bd dbae 9dbc
00000040: e2fc d53c 6f51 db3a 47d7 c83c ac9c 02bd
00000050: 3fe2 ea3c 6a47 013d 0a8d 863d ceec 173d
00000060: 4edd 10bd 03ce 10bd e63c 6c3d e28c e53c
00000070: ef6b 683d dd6c 78bd 9b8d 7abb f1cc 09bd
00000080: 35a6 6e3c 69d6 303d 4cba 293b 4949 883c
00000090: f1dd 4b3d e921 3f3c f477 a63c c0c5 503b
000000a0: b0d5 673d 8354 28bd c833 b5bc d517 543d
000000b0: 88a2 503c 937d 92bb 8df0 00bd 68a2 0cbd
000000c0: 33c1 523c d2eb 1ebd f5e8 3cbc 1b5a 0f3d
000000d0: 9d44 063d 2016 10bd 5b5c ca3c 7c67 05bd
000000e0: cd30 85bc 28a2 583c cc96 b9bc bedf 293d
000000f0: 4a2b b2bb 9e1a f23c 96dd 553d e9cf 103d
00000100: 1e9f 043c 423a d3b9 3346 023c b8ef 05bc
00000110: 7700 4bbc b7d2 d0bc 10d5 293c 5c2b 323c
00000120: 38e2 b6bc 3a5e 88bb d9dd 813b 70a9 843d
00000130: 5313 33bc 27ba 793b 5553 25bd b97d 5cbd
00000140: 9af1 ad3c 6bf4 103b bc98 5c3c 7ce5 d9bc
00000150: 9ee7 853c 166a 0d3c b509 553d 4caa 723c
00000160: 7581 01bd f59c 0dbd 171f 4b3d 6568 443c
00000170: ff22 803d 30be 28bd ee54 5bbc 7b1d 13bd
00000180: 9598 5e3c b4f0 c43c c366 8fb9 e8b9 503c
00000190: 1a3c 1e3d ff39 c53a 8477 503c d205 833a
000001a0: 4e15 533d e7c3 33bd 812f 89bc 65ca 0f3d
000001b0: c1d2 413b 060e 41bc 0195 0bbd 33e2 04bd
000001c0: e23b 3d3b 11f6 f2bc ea6b 9abc 400a a23c
000001d0: e257 b33c db38 fcbc 2d84 243c b02d dabc
000001e0: c286 31bd 4228 ecba e45f ecbc b0f4 e23c
000001f0: 9fcb 47bc dd7c c63c 6d6e 1a3d f896 a33c
00000200: 274f a5bd 4b0f 123d efa2 a73d 1d4e 8f3d
00000210: 0686 8e3d b56c 7cbd 3dca 6ebd 04cc 78bd
00000220: effc 593d 131d 5fbd 748e 503d 3c53 7a3d
00000230: 5cbc 30bd e30b 6d3d ece5 2b3d 1359 29bd
00000240: 23a3 803d d0c0 373d c586 a4bd c1bd 3bbd
00000250: eb49 6a3d 347e 813d da38 8c3d e9b9 adbd
00000260: 51a0 5fbc 8e81 32bd 0874 933d d272 5fbd
00000270: 2de1 263d 0da8 f4bc 0d09 97bd dbdc 6e3d
00000280: dc1a 593d 2dc4 91bd c583 48bd 7a8a 9abd
00000290: 8a97 703d 7267 8abd 18d3 55bd 4c0f a43d
000002a0: ac1c 70bd 2bfc 1ebd 0c76 44bc cec7 8cbd
000002b0: ed30 73bd bf1f a23d e814 49bd 426b 4b3d
000002c0: d07b 6cbd 88e8 c43c 0964 943d afcb 83bd
000002d0: b8f1 98bd d0f0 8abd b248 613d ac28 223d
000002e0: 4434 833d a3a0 93bd 926d 493d c715 74bd
000002f0: ab46 373d f19d 3a3d 0537 973d f785 903d
00000300: e2ce 44bc bfef 64bc c026 a8bb 7f90 b4bc
00000310: 1f53 5cbc c6cf 85bc e40d 6ebb 6680 11bb
00000320: ca91 12bc 8a65 0ebc 20e7 42ba 8119 323c
00000330: e0e1 02bd f1ae 213c e3e7 4abd bbd9 cfbc
00000340: 2830 543c a6d7 27bc 5451 693c dbce 0abd
00000350: c5ac a23c 66bf 2ebc 3747 783c 6f96 35ba
00000360: f884 07bd d589 1ebd b51c 0b3c 2323 48bc
00000370: 9b86 36bb 9254 89bd 9554 3abc 713a d5bc
00000380: 540d f83b 1397 ab3c df06 5bbc c22a 4cbc
00000390: 2721 f3bb c6fd 75bc 0f84 483c 6aeb 6ebc
000003a0: 55ad 733b 553e 46bd 54f9 c1bc 5ecc db39
000003b0: d66a 04bb 0163 1ebc 6368 c5bc 7455 29bd
000003c0: 2c17 a03c 9073 3bbd b03a b8bc dfc7 043d
000003d0: 5373 b33c b2c0 3fbd 52d5 843b 8767 ffbc
000003e0: 5b40 dfbc 90f9 37bc 1fc2 0abd 0cec 27bc
000003f0: 3791 19bc 5966 3abc 10b4 d73c 7d16 0c3c
-0.002034832 -0.006045644 0.023240745 0.00113791 0.0076495786 -0.017201211 0.019583533 0.01626725
-0.009795606 0.0011492079 0.007407395 0.06673631 -0.012275836 0.011172901 -0.03678348 -0.019248417
0.02612156 0.0016732643 0.024516715 -0.031887695 0.028672336 0.031562246 0.0656987 0.03709107
-0.035367303 -0.035352718 0.057675265 0.02802128 0.05674356 -0.060650695 -0.0038231376 -0.033642713
0.014565994 0.043173227 0.0025898395 0.016636508 0.049772207 0.0116658 0.02032087 0.003185615
0.056600273 -0.04109622 -0.022119418 0.05178054 0.012734063 -0.004470536 -0.031479407 -0.03433457
0.012863445 -0.038799115 -0.011530151 0.03499804 0.03278028 -0.03517735 0.024702242 -0.032569394
-0.016258622 0.013222255 -0.022654913 0.041473143 -0.0054372894 0.029553708 0.052213274 0.03535453
0.008094577 -0.00040288462 0.007951307 -0.008174829 -0.012390248 -0.025491102 0.010365739 0.0108745955
-0.022324666 -0.0041616233 0.003963214 0.0647763 -0.0109299 0.003810534 -0.040362675 -0.053830836
0.021233369 0.002211834 0.013464149 -0.026598684 0.016345795 0.00863125 0.05201121 0.01481111
-0.0316176 -0.034573514 0.049590196 0.01198778 0.06256675 -0.041197002 -0.013386948 -0.035916787
0.013586183 0.024040557 -0.0002735165 0.012739636 0.038631536 0.0015047191 0.012723807 0.0009996241
0.05153399 -0.043888 -0.016746284 0.035105128 0.0029575082 -0.011783129 -0.034077648 -0.032442283
0.0028874804 -0.02965835 -0.018850286 0.019780278 0.021892492 -0.03078883 0.010041279 -0.026633114
-0.043341406 -0.0018017369 -0.028854318 0.027704567 -0.012194543 0.024229461 0.037702966 0.019969448
-0.08071738 0.035659116 0.08185374 0.06997321 0.06959157 -0.06162711 -0.05829834 -0.06074144
0.053219732 -0.054471087 0.050917104 0.061114535 -0.043148383 0.057872664 0.041967317 -0.041344713
0.06281116 0.044861615 -0.08033518 -0.04583526 0.0571994 0.063228995 0.06846781 -0.08482725
-0.013649062 -0.043580584 0.071998656 -0.05455286 0.040742088 -0.02986529 -0.07374773 0.058316093
0.05300413 -0.07117496 -0.04895379 -0.075459436 0.05873827 -0.06758012 -0.052203268 0.0801073
-0.058621094 -0.038814705 -0.011991035 -0.06874047 -0.05937283 0.07916211 -0.049092203 0.049662836
-0.057735264 0.02403666 0.07245643 -0.06435334 -0.07467979 -0.067842126 0.05500097 0.03958957
0.06406453 -0.072083734 0.04917676 -0.05959108 0.04474513 0.04556078 0.07383541 0.07056802
-0.012012215 -0.013973176 -0.0051315725 -0.022041557 -0.013447552 -0.016334426 -0.0036324197 -0.0022201776
-0.008945892 -0.008691201 -0.0007434953 0.010870338 -0.031953692 0.009868369 -0.04953755 -0.025372377
0.0129509345 -0.010244286 0.014240582 -0.03388868 0.019857774 -0.01066575 0.015153698 -0.00069270184
-0.033085793 -0.038705666 0.008490731 -0.0122154085 -0.0027851227 -0.06705584 -0.011372705 -0.026028844
0.007569948 0.020946061 -0.013368337 -0.012461366 -0.0074197236 -0.015014118 0.0122385165 -0.014582494
0.0037182171 -0.04839929 -0.02367846 0.000419232 -0.002020528 -0.009667159 -0.024097627 -0.04134126
0.0195423 -0.045764506 -0.022488922 0.032417174 0.021905577 -0.046814628 0.00405375 -0.031177295
-0.027252367 -0.011228934 -0.033876535 -0.010249149 -0.009373001 -0.011376941 0.026330978 0.0085502835

lstm.bias_hh_l1 f4 [256]
00000000: d15a 05bb 8a1a c6bb 6063 be3c ec25 953a
00000010: 51a9 fa3b 8ee9 8cbc a56d a03c e542 853c
00000020: c07d 20bc 05a1 963a bcb9 f23b 0cad 883d
00000030: 9720 49bc 8b0e 373c 46aa 16bd dbae 9dbc
00000040: e2fc d53c 6f51 db3a 47d7 c83c ac9c 02bd
00000050: 3fe2 ea3c 6a47 013d 0a8d 863d ceec 173d
00000060: 4edd 10bd 03ce 10bd e63c 6c3d e28c e53c
00000070: ef6b 683d dd6c 78bd 9b8d 7abb f1cc 09bd
00000080: 35a6 6e3c 69d6 303d 4cba 293b 4949 883c
00000090: f1dd 4b3d e921 3f3c f477 a63c c0c5 503b
000000a0: b0d5 673d 8354 28bd c833 b5bc d517 543d
000000b0: 88a2 503c 937d 92bb 8df0 00bd 68a2 0cbd
000000c0: 33c1 523c d2eb 1ebd f5e8 3cbc 1b5a 0f3d
000000d0: 9d44 063d 2016 10bd 5b5c ca3c 7c67 05bd
000000e0: cd30 85bc 28a2 583c cc96 b9bc bedf 293d
000000f0: 4a2b b2bb 9e1a f23c 96dd 553d e9cf 103d
00000100: 1e9f 043c 423a d3b9 3346 023c b8ef 05bc
00000110: 7700 4bbc b7d2 d0bc 10d5 293c 5c2b 323c
00000120: 38e2 b6bc 3a5e 88bb d9dd 813b 70a9 843d
00000130: 5313 33bc 27ba 793b 5553 25bd b97d 5cbd
00000140: 9af1 ad3c 6bf4 103b bc98 5c3c 7ce5 d9bc
00000150: 9ee7 853c 166a 0d3c b509 553d 4caa 723c
00000160: 7581 01bd f59c 0dbd 171f 4b3d 6568 443c
00000170: ff22 803d 30be 28bd ee54 5bbc 7b1d 13bd
00000180: 9598 5e3c b4f0 c43c c366 8fb9 e8b9 503c
00000190: 1a3c 1e3d ff39 c53a 8477 503c d205 833a
000001a0: 4e15 533d e7c3 33bd 812f 89bc 65ca 0f3d
000001b0: c1d2 413b 060e 41bc 0195 0bbd 33e2 04bd
000001c0: e23b 3d3b 11f6 f2bc ea6b 9abc 400a a23c
000001d0: e257 b33c db38 fcbc 2d84 243c b02d dabc
000001e0: c286 31bd 4228 ecba e45f ecbc b0f4 e23c
000001f0: 9fcb 47bc dd7c c63c 6d6e 1a3d f896 a33c
00000200: 274f a5bd 4b0f 123d efa2 a73d 1d4e 8f3d
00000210: 0686 8e3d b56c 7cbd 3dca 6ebd 04cc 78bd
00000220: effc 593d 131d 5fbd 748e 503d 3c53 7a3d
00000230: 5cbc 30bd e30b 6d3d ece5 2b3d 1359 29bd
00000240: 23a3 803d d0c0 373d c586 a4bd c1bd 3bbd
00000250: eb49 6a3d 347e 813d da38 8c3d e9b9 adbd
00000260: 51a0 5fbc 8e81 32bd 0874 933d d272 5fbd
00000270: 2de1 263d 0da8 f4bc 0d09 97bd dbdc 6e3d
00000280: dc1a 593d 2dc4 91bd c583 48bd 7a8a 9abd
00000290: 8a97 703d 7267 8abd 18d3 55bd 4c0f a43d
000002a0: ac1c 70bd 2bfc 1ebd 0c76 44bc cec7 8cbd
000002b0: ed30 73bd bf1f a23d e814 49bd 426b 4b3d
000002c0: d07b 6cbd 88e8 c43c 0964 943d afcb 83bd
000002d0: b8f1 98bd d0f0 8abd b248 613d ac28 223d
000002e0: 4434 833d a3a0 93bd 926d 493d c715 74bd
000002f0: ab46 373d f19d 3a3d 0537 973d f785 903d
00000300: e2ce 44bc bfef 64bc c026 a8bb 7f90 b4bc
00000310: 1f53 5cbc c6cf 85bc e40d 6ebb 6680 11bb
00000320: ca91 12bc 8a65 0ebc 20e7 42ba 8119 323c
00000330: e0e1 02bd f1ae 213c e3e7 4abd bbd9 cfbc
00000340: 2830 543c a6d7 27bc 5451 693c dbce 0abd
00000350: c5ac a23c 66bf 2ebc 3747 783c 6f96 35ba
00000360: f884 07bd d589 1ebd b51c 0b3c 2323 48bc
00000370: 9b86 36bb 9254 89bd 9554 3abc 713a d5bc
00000380: 540d f83b 1397 ab3c df06 5bbc c22a 4cbc
00000390: 2721 f3bb c6fd 75bc 0f84 483c 6aeb 6ebc
000003a0: 55ad 733b 553e 46bd 54f9 c1bc 5ecc db39
000003b0: d66a 04bb 0163 1ebc 6368 c5bc 7455 29bd
000003c0: 2c17 a03c 9073 3bbd b03a b8bc dfc7 043d
000003d0: 5373 b33c b2c0 3fbd 52d5 843b 8767 ffbc
000003e0: 5b40 dfbc 90f9 37bc 1fc2 0abd 0cec 27bc
000003f0: 3791 19bc 5966 3abc 10b4 d73c 7d16 0c3c
-0.002034832 -0.006045644 0.023240745 0.00113791 0.0076495786 -0.017201211 0.019583533 0.01626725
-0.009795606 0.0011492079 0.007407395 0.06673631 -0.012275836 0.011172901 -0.03678348 -0.019248417
0.02612156 0.0016732643 0.024516715 -0.031887695 0.028672336 0.031562246 0.0656987 0.03709107
-0.035367303 -0.035352718 0.057675265 0.02802128 0.05674356 -0.060650695 -0.0038231376 -0.033642713
0.014565994 0.043173227 0.0025898395 0.016636508 0.049772207 0.0116658 0.02032087 0.003185615
0.056600273 -0.04109622 -0.022119418 0.05178054 0.012734063 -0.004470536 -0.031479407 -0.03433457
0.012863445 -0.038799115 -0.011530151 0.03499804 0.03278028 -0.03517735 0.024702242 -0.032569394
-0.016258622 0.013222255 -0.022654913 0.041473143 -0.0054372894 0.029553708 0.052213274 0.03535453
0.008094577 -0.00040288462 0.007951307 -0.008174829 -0.012390248 -0.025491102 0.010365739 0.0108745955
-0.022324666 -0.0041616233 0.003963214 0.0647763 -0.0109299 0.003810534 -0.040362675 -0.053830836
0.021233369 0.002211834 0.013464149 -0.026598684 0.016345795 0.00863125 0.05201121 0.01481111
-0.0316176 -0.034573514 0.049590196 0.01198778 0.06256675 -0.041197002 -0.013386948 -0.035916787
0.013586183 0.024040557 -0.0002735165 0.012739636 0.038631536 0.0015047191 0.012723807 0.0009996241
0.05153399 -0.043888 -0.016746284 0.035105128 0.0029575082 -0.011783129 -0.034077648 -0.032442283
0.0028874804 -0.02965835 -0.018850286 0.019780278 0.021892492 -0.03078883 0.010041279 -0.026633114
-0.043341406 -0.0018017369 -0.028854318 0.027704567 -0.012194543 0.024229461 0.037702966 0.019969448
-0.08071738 0.035659116 0.08185374 0.06997321 0.06959157 -0.06162711 -0.05829834 -0.06074144
0.053219732 -0.054471087 0.050917104 0.061114535 -0.043148383 0.057872664 0.041967317 -0.041344713
0.06281116 0.044861615 -0.08033518 -0.04583526 0.0571994 0.063228995 0.06846781 -0.08482725
-0.013649062 -0.043580584 0.071998656 -0.05455286 0.040742088 -0.02986529 -0.07374773 0.058316093
0.05300413 -0.07117496 -0.04895379 -0.075459436 0.05873827 -0.06758012 -0.052203268 0.0801073
-0.058621094 -0.038814705 -0.011991035 -0.06874047 -0.05937283 0.07916211 -0.049092203 0.049662836
-0.057735264 0.02403666 0.07245643 -0.06435334 -0.07467979 -0.067842126 0.05500097 0.03958957
0.06406453 -0.072083734 0.04917676 -0.05959108 0.04474513 0.04556078 0.07383541 0.07056802
-0.012012215 -0.013973176 -0.0051315725 -0.022041557 -0.013447552 -0.016334426 -0.0036324197 -0.0022201776
-0.008945892 -0.008691201 -0.0007434953 0.010870338 -0.031953692 0.009868369 -0.04953755 -0.025372377
0.0129509345 -0.010244286 0.014240582 -0.03388868 0.019857774 -0.01066575 0.015153698 -0.00069270184
-0.033085793 -0.038705666 0.008490731 -0.0122154085 -0.0027851227 -0.06705584 -0.011372705 -0.026028844
0.007569948 0.020946061 -0.013368337 -0.012461366 -0.0074197236 -0.015014118 0.0122385165 -0.014582494
0.0037182171 -0.04839929 -0.02367846 0.000419232 -0.002020528 -0.009667159 -0.024097627 -0.04134126
0.0195423 -0.045764506 -0.022488922 0.032417174 0.021905577 -0.046814628 0.00405375 -0.031177295
-0.027252367 -0.011228934 -0.033876535 -0.010249149 -0.009373001 -0.011376941 0.026330978 0.0085502835

fc.weight f4 [1, 64]
00000000: e47c a9bd 0690 be3d 5cc0 d53d aaf6 ed3d
00000010: 167e e83d 16c3 57bd f6d8 d6bd 0a26 f5bd
00000020: 8b1a c83d efe0 6abd 1ca8 663d 7b8a 6e3d
00000030: d8e1 3bbd b0e4 663d 610a 603d 6183 67bd
00000040: b2a7 b53d 7b31 bd3d 5cef adbd 60db 9abd
00000050: ac5f 793d 02e1 b53d a1cc 2a3d 3fe8 01be
00000060: 00ec acbc b97e 4ebd 0acc 903d 6e86 98bd
00000070: 4a32 823d 74dd 32bd 8e3e dbbd bd35 863d
00000080: a849 a03d a233 62bd c3ad e5bd 1463 bfbd
00000090: 10a8 d83d 02a1 abbd 5cb0 37bd 0cc2 903d
000000a0: 5f20 c7bd 5926 14bd 9414 bbbc 50b9 12bd
000000b0: 8063 dcbd 921c b33d 307f 57bd d52d c03d
000000c0: db01 eebc 6d8c 013d 6abe 6d3d 662c afbd
000000d0: 5f46 dabd 8494 53bd 3fe8 683d 2cfe 3f3d
000000e0: 5644 893d 92c2 a6bd 055e 363d c1ba 83bd
000000f0: d7e7 c13d 3a77 4e3c fba8 983c 5f23 473d
-0.08275774 0.09304814 0.1043708 0.11619313 0.11352174 -0.052676283 -0.10490601 -0.11970146
0.09770688 -0.05734342 0.056312665 0.058237534 -0.04586968 0.056370437 0.054697398 -0.056521777
0.08869876 0.09237953 -0.0849292 -0.07561374 0.060882255 0.088808075 0.041699056 -0.12686251
-0.021108627 -0.05041382 0.07070167 -0.074475154 0.06357248 -0.043668225 -0.10705291 0.065532185
0.07826549 -0.055225022 -0.11214783 -0.093450695 0.105789304 -0.08380319 -0.044845924 0.070682615
-0.09722971 -0.036169384 -0.02283696 -0.03582126 -0.107611656 0.08745684 -0.05261153 0.09383742
-0.02905362 0.03162806 0.05804292 -0.0855339 -0.106579535 -0.051655307 0.056862112 0.046873257
0.06702487 -0.0814258 0.044523258 -0.06432105 0.09468048 0.012601668 0.018635264 0.048617717
