ML/models/ETH/4h/lstm_model.pth (torch, 223996 bytes, 9 tensors)

lstm.weight_ih_l0 f4 [256, 19]
00000000: 99df 63bd ff15 b439 42ed 023e ab49 eebd
00000010: 9773 8d3d 937c 9b3d 8802 18bd 2190 aebd
00000020: 81c5 debd 0d46 16be 6dca b03b 5bce 8e3c
00000030: 9469 06be 75bb a9bd 269c 983d 5df2 b2bd
00000040: 974f 2d3d b965 b2bd 565d 403c 0afd f3bd
00000050: 0bc9 57bd 719f 16be fda4 a1bd b3e6 273d
00000060: ec13 6b3d 8f68 edbc 6e35 dc3d bb70 e93d
00000070: 4971 9bbd 73d3 0dbe 0bdc 97bd 08cd e53d
00000080: 0d45 b63d 5732 c73d 87be 403c 2f0e 823d
00000090: f63d 073e 34e1 bcbc ff4a cd3d 7f34 f3bd
000000a0: 6eb2 6d3d a217 43ba 402d 8ebd 7c43 b13d
000000b0: f146 07be 52eb 6a3d 2062 d53d 78f3 b7bc
000000c0: f778 fa3d 5845 98bd 5d30 b4bd 4be4 563d
000000d0: 00dc 5c3d 4781 743c 2a23 af3c 7f76 f4bd
000000e0: 9728 333d 87de 62bd 90d4 0abe d6bd 873c
000000f0: d8e4 12bc febc cbbc 1eef e73d 1e87 8cbd
00000100: 4daa 033d 5480 b73c 4235 fabd 1189 d1bd
00000110: 8f1d e9bc 1834 febd f178 64bd 8afb 5b3d
00000120: ae14 bf3d 0d91 003e 9b93 d8bb c593 133d
00000130: c1d3 04bd d2de 403d dc99 863d 30fd f4bd
00000140: 9b5c 12be ebd0 85bd ea55 0e3e cf87 5a3d
00000150: 974b 6abd cb02 8dbb 3bfc cb3d ebe0 bb3d
00000160: d166 02bd daed bd3d 4133 ff3d 60fa b2bd
00000170: 8de7 46bd cde5 86bd a70b 17bd 1d3b ac3c
00000180: b0e9 7d3d 86c1 933a d335 93bd 75cc 093e
00000190: d129 c73d bddb e53b ae04 fd3d eb6a b93d
000001a0: 3bce 07bd 3244 003e 366b 85bd a9a8 ce3c
000001b0: d135 cabc 6105 8bbc caea 15bd 7843 3b3d
000001c0: 5c1b 47bd 7715 893d 030d a63d 2eec 2abd
000001d0: 591b 173c b849 f5bc 9d81 14be 9dc0 6b3d
000001e0: f3aa e7bd 6b9d a03c 8623 a03c 5481 fb3c
000001f0: bb03 063e 1ed6 80bc 5ef3 20bd 2360 eebd
00000200: a82d a3bc fe5a ab3d 9e2a ab3d 44f4 16be
00000210: 27a9 593d 0dcc efbd 76a3 abbd d692 e2bd
00000220: 62c2 04be 1a91 00bd fb50 c63d 32e7 d1bc
00000230: 863a cebd 20a8 4dbc 9b12 003e 7869 f23d
00000240: fc5a cdbc ccfa a5bd f286 853d 090b 4b3d
00000250: eecd e1bd 5afa 3b3d d46a b4bd 38d1 913d
00000260: 7afc 3ebd d39b 073d 553f 96bd e5e1 d8bd
00000270: b42d a2bd 89bf 553d 939a eebd b58a 353d
00000280: 05a3 39bd 029e 06be 0036 0cbe 343b 063a
00000290: c16e ae3d cba9 9a3d fe1f cb3d c380 22bc
000002a0: 04f1 d53a 03f3 0ebe b2f0 3f3d 754f 553d
000002b0: 0e54 883c 9447 713d a028 07be 482e 863d
000002c0: 9fd5 243d 021b 483c 06a3 f0bd 1bde f33d
000002d0: 04c0 f63d 9f83 e5bd 56f7 f0bc 56f4 f03d
000002e0: d307 003e 2cf7 c93d 0936 053e 5e71 88bd
000002f0: fb2c abbd 075f e5bd 7e51 d33c d5f4 023e
00000300: 763c e7bd 9753 de3d 245e 843d 80f7 ab3c
00000310: a202 063c 2009 943c a666 c4bd 6699 823d
00000320: 95e7 b13c dbfb 09be 1992 783d 413b a5bd
00000330: 0540 5bbd d581 4cbd ae04 073d 196e 11be
00000340: 9281 023d 4e4d 903d 46a1 54bd 7bab b4ba
00000350: 34fd 853d 7225 c3bc 0d64 233d f901 dc3d
00000360: 9f0b 8fbd 496a 323d 2043 7f3d b85f e03c
00000370: 49e1 2cbd 7f8f df3d e1c1 2fbd 7112 8d3d
00000380: 1505 a63d fac6 073e 5def 15be 7669 dabd
00000390: 1ca0 853c d69d 153e d20f c8bc 652a c03d
000003a0: 27b8 bcbd c824 e3bd 38ec 52bd 33b9 9abd
000003b0: aa06 c23c a7c0 e3bd bad6 cf3c 7b7e 60bc
000003c0: e18b 47bd 4d2d 2e3c 753c b1bd 704b 133e
000003d0: 895d c53d f8b3 a83d 841d 08be 8185 bbbd
000003e0: 2cae 373d 2678 063e 2735 02bc 017b 6fbd
000003f0: e818 473d 0986 89bc 9423 48bc 21d7 edbd
-0.05563316 0.00034348664 0.12785819 -0.11635145 0.06906813 0.0759212 -0.03711179 -0.08523584
-0.10877515 -0.1467516 0.005395225 0.017432382 -0.13126212 -0.08287708 0.07451658 -0.087376334
0.04231223 -0.08710808 0.011741003 -0.11913498 -0.052681964 -0.1470926 -0.07892797 0.040991496
0.057392046 -0.028980521 0.107523784 0.11398455 -0.07589967 -0.13850193 -0.07415017 0.11220747
0.08899889 0.097263984 0.011764175 0.063503616 0.1320723 -0.023056604 0.1002407 -0.11875247
0.058031492 -0.0007442181 -0.069422245 0.0865545 -0.13210656 0.057353325 0.104191065 -0.022454962
0.122301035 -0.07435101 -0.08798287 0.05246381 0.053920746 0.0149234 0.021379072 -0.11936664
0.04373988 -0.055388 -0.13557649 0.016570013 -0.008965693 -0.024870392 0.11324905 -0.06861709
0.032144833 0.022400059 -0.12217189 -0.102312215 -0.028456477 -0.1241228 -0.0557794 0.053706683
0.09330116 0.12555332 -0.006609393 0.036029596 -0.032428507 0.047087498 0.06572315 -0.11962354
-0.14293139 -0.065339886 0.13899961 0.053352173 -0.057200994 -0.0043033115 0.099602185 0.09173759
-0.031836335 0.09273882 0.12460948 -0.087391615 -0.048560668 -0.065868 -0.036876347 0.021024281
0.06199044 0.0011272884 -0.071880005 0.134569 0.09724773 0.0070147202 0.12354408 0.09053596
-0.03315566 0.12526014 -0.065145895 0.025226908 -0.024683865 -0.016970338 -0.036600865 0.04571864
-0.048610076 0.06693547 0.081079505 -0.041729145 0.009222829 -0.029942378 -0.14502569 0.057556737
-0.11311903 0.019606313 0.019548189 0.030701317 0.1308736 -0.015727099 -0.039294593 -0.116394304
-0.019919232 0.08366965 0.08357738 -0.14741617 0.053139832 -0.117088415 -0.08380787 -0.11063163
-0.12964776 -0.03138838 0.096834145 -0.025622938 -0.10069756 -0.012552291 0.12507097 0.11836523
-0.025067799 -0.08104476 0.065198794 0.04957107 -0.11025606 0.04589305 -0.08809438 0.071199834
-0.0466275 0.03310759 -0.073362984 -0.10589961 -0.079188734 0.052184615 -0.116505764 0.044321734
-0.045321483 -0.13146213 -0.13692474 0.0005120516 0.085172184 0.07551917 0.099182114 -0.0099183945
0.0016322439 -0.13959889 0.046860404 0.05207773 0.016641643 0.058906153 -0.13199091 0.06551796
0.040242787 0.01221347 -0.11749844 0.11907598 0.12048343 -0.11206745 -0.029414814 0.117653534
0.12502985 0.098615974 0.13008894 -0.06662248 -0.08358189 -0.11199766 0.025795694 0.12788709
-0.11290829 0.10855787 0.064632684 0.02099204 0.008179339 0.018070757 -0.09589891 0.06376915
0.021716872 -0.13474981 0.060686205 -0.080679424 -0.05352785 -0.049928505 0.032963447 -0.14202155
0.03186185 0.07045995 -0.051911615 -0.0013784015 0.06542435 -0.023821566 0.039890338 0.10742564
-0.069846384 0.043558393 0.062319875 0.027389392 -0.042207036 0.109160416 -0.042909507 0.06888283
0.08106438 0.13259497 -0.14642091 -0.10664646 0.016311698 0.14610991 -0.024421606 0.09383086
-0.09214812 -0.11091 -0.051494807 -0.07554855 0.023684818 -0.1112073 0.025370944 -0.01370203
-0.048717383 0.010630918 -0.086541094 0.14384246 0.09636981 0.08237451 -0.1329251 -0.09156323
0.044843838 0.1313177 -0.007947243 -0.058466915 0.048607737 -0.016787546 -0.012215514 -0.11613298

lstm.weight_hh_l0 f4 [256, 64]
00000000: 806c c4bd 6892 9cbc cca1 72bd 7880 50bc
00000010: 803a 1cbd ca8d 11be e083 f63c 1c9d 693d
00000020: f437 853d bf02 443d 6068 8e3c ec5c 9f3c
00000030: fc3f bcbc 8832 acbd 78ed 113d 7068 253e
00000040: 66df 94bc f05c b23d a5ae b53d 9a3f 713c
00000050: 224e 13bd e154 e3bd 989e e3bc a5ae ecbd
00000060: 5662 cc3c 25eb c63b f59c 0a3d 8a6e 20bd
00000070: 040c c8ba 4a4b bbbd 36fc 27bd 9361 e9bc
00000080: d8ad 73bd d007 243d 43fa 5a3d 81b6 1ebd
00000090: ca5a 2dbd 1e30 b1bd a2d9 b63c 5170 f4bd
000000a0: 46ae 143c 7020 543c 6afc c23d 184b 11bb
000000b0: fd62 f33d 063c 31be 318e a0bc 30b6 a13d
000000c0: 1308 39be 528b 333b 881b a8ba c205 cabc
000000d0: f03b 3d3c 5e0f 813d 89c1 19bd be8e ba3d
000000e0: e527 67bc 75d0 ba3d 54a2 36bb acb0 493d
000000f0: 4650 2fbd 413d dc3d 139a be3c d919 7a3d
00000100: e561 323e 60b4 8bbd 124d b33c cf56 483b
00000110: 6e35 5abc f6ee 0a3c 9129 723c 5e9f e9bc
00000120: ea1a b3bd 1a8b cc3d 2ce2 e93d 1017 a33d
00000130: 8eb1 943d d439 97bb 4a50 533d a492 e2bb
00000140: b8ab b13d 3c6b 663b 4ace 3bbd 6754 f5bc
00000150: 3cbf ba3c b0ac 263d a46f 303d def7 6fbc
00000160: 807b 093d 9f70 bcbc 4191 683c 33e9 da3c
00000170: 594a 953d 7852 703d 5b30 803d dcee 653b
00000180: e68c 98bc bca4 85bd 26c7 74bd e98f 613d
00000190: 4b9c 45be 0752 9d3d 6bdc be3c a0ac 653d
000001a0: 1ab7 f1bd aa85 82bd 64b4 943d 6839 e3bd
000001b0: 2ae4 1f3d 8bbf 983d 8a0b 71bd 7e28 f23c
000001c0: 5438 1cbd 278d c53d c2a4 99bd bc05 613c
000001d0: 9de9 3cbe 38a2 85bc 3b98 52bd 582d 653d
000001e0: 14f8 86bb 4fdf 63bd 39c1 4e3c 9ab4 9bbc
000001f0: 9aa1 21bd 5c90 1fbd 0e4f 9bbb 7e7c 9bbc
00000200: 0cd7 bd3d 5d65 f53c 005a 123d 11cd c0bc
00000210: 1a56 283c 0da2 86bd bb14 0b3d 6f4a 9dbd
00000220: e73c 0ebe 5f01 2dbb cd8d aebd 212d 24bd
00000230: 2dfc b03d 7031 d2b9 7cfd 9e3b 58a3 bcbc
00000240: 5ea6 04bc 5e40 3cbd bf2b 863c 68d9 ae3d
00000250: 322c 1e3d 62f1 3ebe 5d44 9f3d 8ed8 74bd
00000260: b65c cebc dcf3 3dbd d86e 7abd 59b2 5bbc
00000270: bfeb 5dbd f81e ba3d 9b88 08be 384c 8abd
00000280: a29c 853d 90d1 873d ad23 6dbd c2cd 433d
00000290: c38a 7c3d de4b bebd 14eb 383b f04b ffbd
000002a0: 9030 833d d6c7 693b ad0e 21bd 22f2 c73d
000002b0: 7509 9ebd ebde 4e3d 095c d0bc 4e02 a43c
000002c0: 6183 1f3d 4f78 4d3c 9ae4 6b3c 040c ccbb
000002d0: d4a4 793d 4dd1 85bd ac41 9bbb ece4 fabd
000002e0: 4cb1 5abe 4ee8 c5bc a696 bbbd 7729 a4bd
000002f0: 0356 9e3c 746b 58bd f389 78bd c46d 363b
00000300: 6079 60bd 54a2 33bd 3672 dc3b b0f5 edbd
00000310: b2d3 de3d 609a a5bc 713d a63d b648 933c
00000320: a8a9 393d 6f70 22bc c503 893d 9a06 83ba
00000330: 9d78 3ebd 10ab 44bd 80ca 233d 544a 16be
00000340: 6b4a 6ebc c2d5 96bd 5fe1 c8bd db41 e53c
00000350: 920b 09be a669 b3bd f40d 953c 3d58 56bd
00000360: 9d49 b3bc fa20 a2bd bee7 11bd 3465 2dbb
00000370: 4011 5d3d 53e1 963d e630 5ebd c8ec fe3c
00000380: e90c c6bc 8e16 153c 9de3 f43d 1504 c8bd
00000390: 8ff6 183d c289 813d faa7 52ba 880e 43bc
000003a0: 5461 fdbd 7d5f 3d3d 3572 92bd 05db aabc
000003b0: 4017 41bd a348 a1bc 4311 143e ca8d 67bc
000003c0: 189b a13d fd17 1abc 7815 96bd 611f 273d
000003d0: e9ee 43bd 904b 053e 331c 59bd 2699 653c
000003e0: aa1b 2b3c 2173 0f3d c7b2 f4bc f71c a5bd
000003f0: 2452 69bd 7a11 6a3d 561a 35bc 3431 a83d
-0.09591007 -0.01911278 -0.059236333 -0.012725942 -0.038141727 -0.14214244 0.03009218 0.057034597
0.06504813 0.04785418 0.017383754 0.019453488 -0.022979729 -0.084080756 0.03562686 0.16153121
-0.01817293 0.08709133 0.088712014 0.014724636 -0.035963185 -0.11100174 -0.027785584 -0.11556748
0.024949234 0.006070512 0.033841092 -0.03916792 -0.001526237 -0.091452196 -0.04101201 -0.02848891
-0.059491962 0.040046513 0.053461324 -0.038748268 -0.04232291 -0.08651756 0.022320572 -0.11935485
0.009074753 0.012947187 0.095208004 -0.0022170004 0.11884115 -0.17308053 -0.019599052 0.07896078
-0.18069486 0.0027396274 -0.0012825588 -0.024660949 0.011549935 0.06301759 -0.037538085 0.09109257
-0.014108633 0.09121791 -0.0027867751 0.049240753 -0.042801164 0.10753871 0.023266828 0.061059806
0.17420156 -0.06821513 0.021887336 0.003056932 -0.013318403 0.008479824 0.014780418 -0.028518375
-0.08745368 0.09987469 0.11420092 0.07963383 0.07260428 -0.004615048 0.05159024 -0.0069144536
0.08675331 0.0035159132 -0.04585103 -0.029947473 0.022796266 0.04069203 0.04307522 -0.0146464985
0.033565044 -0.02300292 0.0141947875 0.026722526 0.07289571 0.0586724 0.06259223 0.0035084998
-0.018621873 -0.06525561 -0.059760235 0.055068884 -0.19297902 0.07681661 0.023298463 0.05607283
-0.11802502 -0.06373151 0.07260969 -0.11094934 0.039035954 0.07458409 -0.058848895 0.029560324
-0.038139656 0.09646063 -0.07502128 0.013734277 -0.18448491 -0.016312703 -0.05141471 0.055951446
-0.0041189287 -0.055632886 0.01261931 -0.019007016 -0.039460756 -0.03895603 -0.0047396487 -0.018980261
0.092695326 0.02995556 0.035730362 -0.023535283 0.010274434 -0.065738775 0.033955317 -0.07680213
-0.1389042 -0.0026398522 -0.0852314 -0.0400821 0.08641849 -0.00040091155 0.004851995 -0.023027107
-0.008096306 -0.045959823 0.016378282 0.08537561 0.038616367 -0.18646768 0.07776711 -0.059776835
-0.025190692 -0.04637514 -0.061140865 -0.013409221 -0.054179903 0.09087938 -0.13333361 -0.06752819
0.06524016 0.06631768 -0.05789535 0.047803648 0.06165577 -0.09291814 0.002821629 -0.12465656
0.06405747 0.003567209 -0.039320637 0.0976298 -0.077166475 0.05050556 -0.02543451 0.02002063
0.038943652 0.012540891 0.014397765 -0.0062270183 0.060948208 -0.065340616 -0.0047380533 -0.12250695
-0.21356696 -0.024158623 -0.09159593 -0.08015721 0.019328123 -0.05283685 -0.060678434 0.0027836422
-0.054803252 -0.04385598 0.006727482 -0.11619127 0.108802214 -0.020215213 0.08117188 0.017979007
0.045327812 -0.009914502 0.06690172 -0.0009996474 -0.046501745 -0.0480147 0.03998804 -0.14676791
-0.01454411 -0.0736499 -0.09808611 0.027985504 -0.1338332 -0.08760385 0.01819513 -0.052330244
-0.021885687 -0.07916446 -0.035621397 -0.0026458027 0.05397153 0.07367196 -0.054245852 0.031118765
-0.024176078 0.009099616 0.11957476 -0.097664036 0.03734451 0.06325103 -0.0008035895 -0.01190532
-0.123720795 0.046233643 -0.071506895 -0.02085639 -0.047141314 -0.019687956 0.1445971 -0.014132926
0.0789091 -0.009405133 -0.073283136 0.04080141 -0.047835264 0.13017106 -0.05300541 0.014013564
0.010443607 0.035021905 -0.029870404 -0.08062165 -0.0569631 0.057145573 -0.011053642 0.0821251

lstm.bias_ih_l0 f4 [256]
00000000: 0000 0000 0000 0000 0000 0000 0000 0000
00000010: 0000 0000 0000 0000 0000 0000 0000 0000
00000020: 0000 0000 0000 0000 0000 0000 0000 0000
00000030: 0000 0000 0000 0000 0000 0000 0000 0000
00000040: 0000 0000 0000 0000 0000 0000 0000 0000
00000050: 0000 0000 0000 0000 0000 0000 0000 0000
00000060: 0000 0000 0000 0000 0000 0000 0000 0000
00000070: 0000 0000 0000 0000 0000 0000 0000 0000
00000080: 0000 0000 0000 0000 0000 0000 0000 0000
00000090: 0000 0000 0000 0000 0000 0000 0000 0000
000000a0: 0000 0000 0000 0000 0000 0000 0000 0000
000000b0: 0000 0000 0000 0000 0000 0000 0000 0000
000000c0: 0000 0000 0000 0000 0000 0000 0000 0000
000000d0: 0000 0000 0000 0000 0000 0000 0000 0000
000000e0: 0000 0000 0000 0000 0000 0000 0000 0000
000000f0: 0000 0000 0000 0000 0000 0000 0000 0000
00000100: 0000 0000 0000 0000 0000 0000 0000 0000
00000110: 0000 0000 0000 0000 0000 0000 0000 0000
00000120: 0000 0000 0000 0000 0000 0000 0000 0000
00000130: 0000 0000 0000 0000 0000 0000 0000 0000
00000140: 0000 0000 0000 0000 0000 0000 0000 0000
00000150: 0000 0000 0000 0000 0000 0000 0000 0000
00000160: 0000 0000 0000 0000 0000 0000 0000 0000
00000170: 0000 0000 0000 0000 0000 0000 0000 0000
00000180: 0000 0000 0000 0000 0000 0000 0000 0000
00000190: 0000 0000 0000 0000 0000 0000 0000 0000
000001a0: 0000 0000 0000 0000 0000 0000 0000 0000
000001b0: 0000 0000 0000 0000 0000 0000 0000 0000
000001c0: 0000 0000 0000 0000 0000 0000 0000 0000
000001d0: 0000 0000 0000 0000 0000 0000 0000 0000
000001e0: 0000 0000 0000 0000 0000 0000 0000 0000
000001f0: 0000 0000 0000 0000 0000 0000 0000 0000
00000200: 0000 0000 0000 0000 0000 0000 0000 0000
00000210: 0000 0000 0000 0000 0000 0000 0000 0000
00000220: 0000 0000 0000 0000 0000 0000 0000 0000
00000230: 0000 0000 0000 0000 0000 0000 0000 0000
00000240: 0000 0000 0000 0000 0000 0000 0000 0000
00000250: 0000 0000 0000 0000 0000 0000 0000 0000
00000260: 0000 0000 0000 0000 0000 0000 0000 0000
00000270: 0000 0000 0000 0000 0000 0000 0000 0000
00000280: 0000 0000 0000 0000 0000 0000 0000 0000
00000290: 0000 0000 0000 0000 0000 0000 0000 0000
000002a0: 0000 0000 0000 0000 0000 0000 0000 0000
000002b0: 0000 0000 0000 0000 0000 0000 0000 0000
000002c0: 0000 0000 0000 0000 0000 0000 0000 0000
000002d0: 0000 0000 0000 0000 0000 0000 0000 0000
000002e0: 0000 0000 0000 0000 0000 0000 0000 0000
000002f0: 0000 0000 0000 0000 0000 0000 0000 0000
00000300: 0000 0000 0000 0000 0000 0000 0000 0000
00000310: 0000 0000 0000 0000 0000 0000 0000 0000
00000320: 0000 0000 0000 0000 0000 0000 0000 0000
00000330: 0000 0000 0000 0000 0000 0000 0000 0000
00000340: 0000 0000 0000 0000 0000 0000 0000 0000
00000350: 0000 0000 0000 0000 0000 0000 0000 0000
00000360: 0000 0000 0000 0000 0000 0000 0000 0000
00000370: 0000 0000 0000 0000 0000 0000 0000 0000
00000380: 0000 0000 0000 0000 0000 0000 0000 0000
00000390: 0000 0000 0000 0000 0000 0000 0000 0000
000003a0: 0000 0000 0000 0000 0000 0000 0000 0000
000003b0: 0000 0000 0000 0000 0000 0000 0000 0000
000003c0: 0000 0000 0000 0000 0000 0000 0000 0000
000003d0: 0000 0000 0000 0000 0000 0000 0000 0000
000003e0: 0000 0000 0000 0000 0000 0000 0000 0000
000003f0: 0000 0000 0000 0000 0000 0000 0000 0000
0.0 0.0 0.0 0.0 0.0 0.0 0.0 0.0
0.0 0.0 0.0 0.0 0.0 0.0 0.0 0.0
0.0 0.0 0.0 0.0 0.0 0.0 0.0 0.0
0.0 0.0 0.0 0.0 0.0 0.0 0.0 0.0
0.0 0.0 0.0 0.0 0.0 0.0 0.0 0.0
0.0 0.0 0.0 0.0 0.0 0.0 0.0 0.0
0.0 0.0 0.0 0.0 0.0 0.0 0.0 0.0
0.0 0.0 0.0 0.0 0.0 0.0 0.0 0.0
0.0 0.0 0.0 0.0 0.0 0.0 0.0 0.0
0.0 0.0 0.0 0.0 0.0 0.0 0.0 0.0
0.0 0.0 0.0 0.0 0.0 0.0 0.0 0.0
0.0 0.0 0.0 0.0 0.0 0.0 0.0 0.0
0.0 0.0 0.0 0.0 0.0 0.0 0.0 0.0
0.0 0.0 0.0 0.0 0.0 0.0 0.0 0.0
0.0 0.0 0.0 0.0 0.0 0.0 0.0 0.0
0.0 0.0 0.0 0.0 0.0 0.0 0.0 0.0
0.0 0.0 0.0 0.0 0.0 0.0 0.0 0.0
0.0 0.0 0.0 0.0 0.0 0.0 0.0 0.0
0.0 0.0 0.0 0.0 0.0 0.0 0.0 0.0
0.0 0.0 0.0 0.0 0.0 0.0 0.0 0.0
0.0 0.0 0.0 0.0 0.0 0.0 0.0 0.0
0.0 0.0 0.0 0.0 0.0 0.0 0.0 0.0
0.0 0.0 0.0 0.0 0.0 0.0 0.0 0.0
0.0 0.0 0.0 0.0 0.0 0.0 0.0 0.0
0.0 0.0 0.0 0.0 0.0 0.0 0.0 0.0
0.0 0.0 0.0 0.0 0.0 0.0 0.0 0.0
0.0 0.0 0.0 0.0 0.0 0.0 0.0 0.0
0.0 0.0 0.0 0.0 0.0 0.0 0.0 0.0
0.0 0.0 0.0 0.0 0.0 0.0 0.0 0.0
0.0 0.0 0.0 0.0 0.0 0.0 0.0 0.0
0.0 0.0 0.0 0.0 0.0 0.0 0.0 0.0
0.0 0.0 0.0 0.0 0.0 0.0 0.0 0.0

lstm.bias_hh_l0 f4 [256]
00000000: 0000 0000 0000 0000 0000 0000 0000 0000
00000010: 0000 0000 0000 0000 0000 0000 0000 0000
00000020: 0000 0000 0000 0000 0000 0000 0000 0000
00000030: 0000 0000 0000 0000 0000 0000 0000 0000
00000040: 0000 0000 0000 0000 0000 0000 0000 0000
00000050: 0000 0000 0000 0000 0000 0000 0000 0000
00000060: 0000 0000 0000 0000 0000 0000 0000 0000
00000070: 0000 0000 0000 0000 0000 0000 0000 0000
00000080: 0000 0000 0000 0000 0000 0000 0000 0000
00000090: 0000 0000 0000 0000 0000 0000 0000 0000
000000a0: 0000 0000 0000 0000 0000 0000 0000 0000
000000b0: 0000 0000 0000 0000 0000 0000 0000 0000
000000c0: 0000 0000 0000 0000 0000 0000 0000 0000
000000d0: 0000 0000 0000 0000 0000 0000 0000 0000
000000e0: 0000 0000 0000 0000 0000 0000 0000 0000
000000f0: 0000 0000 0000 0000 0000 0000 0000 0000
00000100: 0000 0000 0000 0000 0000 0000 0000 0000
00000110: 0000 0000 0000 0000 0000 0000 0000 0000
00000120: 0000 0000 0000 0000 0000 0000 0000 0000
00000130: 0000 0000 0000 0000 0000 0000 0000 0000
00000140: 0000 0000 0000 0000 0000 0000 0000 0000
00000150: 0000 0000 0000 0000 0000 0000 0000 0000
00000160: 0000 0000 0000 0000 0000 0000 0000 0000
00000170: 0000 0000 0000 0000 0000 0000 0000 0000
00000180: 0000 0000 0000 0000 0000 0000 0000 0000
00000190: 0000 0000 0000 0000 0000 0000 0000 0000
000001a0: 0000 0000 0000 0000 0000 0000 0000 0000
000001b0: 0000 0000 0000 0000 0000 0000 0000 0000
000001c0: 0000 0000 0000 0000 0000 0000 0000 0000
000001d0: 0000 0000 0000 0000 0000 0000 0000 0000
000001e0: 0000 0000 0000 0000 0000 0000 0000 0000
000001f0: 0000 0000 0000 0000 0000 0000 0000 0000
00000200: 0000 0000 0000 0000 0000 0000 0000 0000
00000210: 0000 0000 0000 0000 0000 0000 0000 0000
00000220: 0000 0000 0000 0000 0000 0000 0000 0000
00000230: 0000 0000 0000 0000 0000 0000 0000 0000
00000240: 0000 0000 0000 0000 0000 0000 0000 0000
00000250: 0000 0000 0000 0000 0000 0000 0000 0000
00000260: 0000 0000 0000 0000 0000 0000 0000 0000
00000270: 0000 0000 0000 0000 0000 0000 0000 0000
00000280: 0000 0000 0000 0000 0000 0000 0000 0000
00000290: 0000 0000 0000 0000 0000 0000 0000 0000
000002a0: 0000 0000 0000 0000 0000 0000 0000 0000
000002b0: 0000 0000 0000 0000 0000 0000 0000 0000
000002c0: 0000 0000 0000 0000 0000 0000 0000 0000
000002d0: 0000 0000 0000 0000 0000 0000 0000 0000
000002e0: 0000 0000 0000 0000 0000 0000 0000 0000
000002f0: 0000 0000 0000 0000 0000 0000 0000 0000
00000300: 0000 0000 0000 0000 0000 0000 0000 0000
00000310: 0000 0000 0000 0000 0000 0000 0000 0000
00000320: 0000 0000 0000 0000 0000 0000 0000 0000
00000330: 0000 0000 0000 0000 0000 0000 0000 0000
00000340: 0000 0000 0000 0000 0000 0000 0000 0000
00000350: 0000 0000 0000 0000 0000 0000 0000 0000
00000360: 0000 0000 0000 0000 0000 0000 0000 0000
00000370: 0000 0000 0000 0000 0000 0000 0000 0000
00000380: 0000 0000 0000 0000 0000 0000 0000 0000
00000390: 0000 0000 0000 0000 0000 0000 0000 0000
000003a0: 0000 0000 0000 0000 0000 0000 0000 0000
000003b0: 0000 0000 0000 0000 0000 0000 0000 0000
000003c0: 0000 0000 0000 0000 0000 0000 0000 0000
000003d0: 0000 0000 0000 0000 0000 0000 0000 0000
000003e0: 0000 0000 0000 0000 0000 0000 0000 0000
000003f0: 0000 0000 0000 0000 0000 0000 0000 0000
0.0 0.0 0.0 0.0 0.0 0.0 0.0 0.0
0.0 0.0 0.0 0.0 0.0 0.0 0.0 0.0
0.0 0.0 0.0 0.0 0.0 0.0 0.0 0.0
0.0 0.0 0.0 0.0 0.0 0.0 0.0 0.0
0.0 0.0 0.0 0.0 0.0 0.0 0.0 0.0
0.0 0.0 0.0 0.0 0.0 0.0 0.0 0.0
0.0 0.0 0.0 0.0 0.0 0.0 0.0 0.0
0.0 0.0 0.0 0.0 0.0 0.0 0.0 0.0
0.0 0.0 0.0 0.0 0.0 0.0 0.0 0.0
0.0 0.0 0.0 0.0 0.0 0.0 0.0 0.0
0.0 0.0 0.0 0.0 0.0 0.0 0.0 0.0
0.0 0.0 0.0 0.0 0.0 0.0 0.0 0.0
0.0 0.0 0.0 0.0 0.0 0.0 0.0 0.0
0.0 0.0 0.0 0.0 0.0 0.0 0.0 0.0
0.0 0.0 0.0 0.0 0.0 0.0 0.0 0.0
0.0 0.0 0.0 0.0 0.0 0.0 0.0 0.0
0.0 0.0 0.0 0.0 0.0 0.0 0.0 0.0
0.0 0.0 0.0 0.0 0.0 0.0 0.0 0.0
0.0 0.0 0.0 0.0 0.0 0.0 0.0 0.0
0.0 0.0 0.0 0.0 0.0 0.0 0.0 0.0
0.0 0.0 0.0 0.0 0.0 0.0 0.0 0.0
0.0 0.0 0.0 0.0 0.0 0.0 0.0 0.0
0.0 0.0 0.0 0.0 0.0 0.0 0.0 0.0
0.0 0.0 0.0 0.0 0.0 0.0 0.0 0.0
0.0 0.0 0.0 0.0 0.0 0.0 0.0 0.0
0.0 0.0 0.0 0.0 0.0 0.0 0.0 0.0
0.0 0.0 0.0 0.0 0.0 0.0 0.0 0.0
0.0 0.0 0.0 0.0 0.0 0.0 0.0 0.0
0.0 0.0 0.0 0.0 0.0 0.0 0.0 0.0
0.0 0.0 0.0 0.0 0.0 0.0 0.0 0.0
0.0 0.0 0.0 0.0 0.0 0.0 0.0 0.0
0.0 0.0 0.0 0.0 0.0 0.0 0.0 0.0

lstm.weight_ih_l1 f4 [256, 64]
00000000: 4278 95bd 566f 063e 4d3a 00be 11fd 00bd
00000010: 24da 013e b80c dbbd 7c46 bebd ab1c e3bd
00000020: 8a2c 9b3d f625 e0bc 8016 6e3c c664 6cba
00000030: 843b 44bd c021 4a3d 15f1 adbd e60f fa3c
00000040: e280 e2bd 70ea 1e3d a603 0abd 5406 b7bd
00000050: bd08 bdbd de67 773d 86e1 653d e1e4 fcbd
00000060: 8459 55bc 8d2d a1bc 2564 f9bd 4c58 33b9
00000070: 61f8 bcbc 35c4 dcb8 e2cc db3d b30f 86bc
00000080: d2e7 35bd 4658 49bd ff48 613b 19ec 083e
00000090: 511c ea3d 8d2d 323d d8d4 fd3d eb8e 65bd
000000a0: 8e92 043e 81ba 75bd feba a4bd ed01 6ebd
000000b0: c0cb 523c dcd5 bf3d 266c 3ebd 46fd 9cbd
000000c0: cd76 f9bd f102 93bc 4bf1 e1bd fedb f63c
000000d0: 66be 7cbc 7ac0 a0bd 4a79 88bd 2b00 92bd
000000e0: 236d 4dbd 48b4 51bd 5c80 b93d 6e74 923c
000000f0: eede aa3d c003 45bd 6bc2 08be 1b8c d2bd
00000100: 39c2 08bd 3e30 9abd d1cd 2dbd 9b7b 80bd
00000110: a16f 8b3b f976 ec3d 891c e1bd 51a0 fb3c
00000120: 4d40 763d 7b8f b73c 9fbc ed3d 1b1d 7f3d
00000130: 168c ef3d 77e2 edbd bf2e 02bd 87be 213c
00000140: d608 dc3d e619 d6bd 5cbf d53d cd7b bfbb
00000150: 1504 19bc 9e87 883c ef52 b93d 4cd9 8ebd
00000160: c573 e7bb 001d 8ebd d5f5 d5bd aea4 a3bd
00000170: 88aa 79bb d807 f7bc f1fb fcbd c100 ab3d
00000180: 1163 f8bd 0214 bb3d 4f74 f5bd aa34 1abd
00000190: cf11 ad3d 890a ae3d 7365 343d b061 79bd
000001a0: f200 8ebd 4c2f 363d 6021 2c3a dbdc f1bd
000001b0: 8f58 96bd acd8 a03d 389e b3bd 0033 073c
000001c0: ca76 033e cafb 12bd 805d 59bd 66af c2bc
000001d0: 6786 fcbd 8f71 c23d 1894 08bd 5a72 aabc
000001e0: fa71 fdbd c1bd b7bd 3aed 993d 2d0a b2bd
000001f0: bf27 1d3e a898 f8bd b2ee 703c b460 ea3d
00000200: b66f d83d 87ae 03bd a50e 9cbc 06f8 96bc
00000210: 8275 cfbb dc0c f13d dc25 93bc 39c0 cd3c
00000220: 3e88 cf3d f5c7 94bc 42ba 093e 01c0 01be
00000230: 4370 da3d 6b2e b9bd 9fe6 dfbb c077 793d
00000240: 51e5 08be dd1d 1ebd 38ae d3bd 4728 053e
00000250: 38d8 763d 0d7f 11bb af9b 06be 9d7f 073c
00000260: 93a1 0a3e 15d2 783c 9694 bfbd c30d 013e
00000270: 717d 463e bd1c 433c 2b2c e63c a6f1 3e3d
00000280: 4cae 30bd 6b53 db3d 1843 b93c 59e4 fe3a
00000290: ab9a 343d bc73 2fbd 8fda 8abd bac4 3ebc
000002a0: ba31 003e 39b4 7bbd 0cd5 d8bd e689 40bc
000002b0: 2e75 043e b318 433d 27a9 9abd c8d1 023e
000002c0: 1d33 1fbd 661b 013e 5d04 7e3d 6339 4cbd
000002d0: 6e2a 95bd 550d 393d 25ec 913d 6c58 acbb
000002e0: 7bb5 a23c e7ed 03be 3ac9 81bc 88ce 1abe
000002f0: 9663 0e3b f4f4 73bd 79cf a9bd 7287 9cbc
00000300: f40a 0a3e aa5f f23d d85f 883d 0219 873d
00000310: 3a95 eb3d 468a 8d3d b1cc e13c 5a1c a5bd
00000320: c3be 82bd 4418 99bd d7ce f73d 50fc 093e
00000330: 6bc2 343e be2a 9fbd 852b b43d e94d 043e
00000340: 141c ad3d a346 d53d 3487 993d 222e cb3d
00000350: 9e92 a0bc 51cd 05be 35fc f9bd f0d8 ccbd
00000360: 7a9d 143d d664 3a3d e940 103d e01e f7bd
00000370: cee6 7b3d 3317 0e3d d143 af3d 9c29 873d
00000380: 51af 76ba e282 cc3d 92ce 853c 2052 0d3e
00000390: bc99 003e d6e1 023e c9fe 1d3d 60c4 ed3c
000003a0: 4c04 00bc b02e 443d c105 e0bd 09a0 8ebd
000003b0: 9fd3 dd3d d223 fa3d 2760 80bd c0d0 eebd
000003c0: 14ef fd3d 0eea cdbd 52a6 ee3d 8db0 a5bd
000003d0: a28b 673a da99 2d3d 407f d7bd dfe6 10bd
000003e0: bc2b 9dbd 65ea 1abe 3096 c3bd 89cf f63c
000003f0: e7df 333e 349d 513b 90e3 f1bc 22c7 e2bd
-0.07298328 0.13128409 -0.1252224 -0.031491343 0.1268087 -0.10695785 -0.092907876 -0.11089452
0.075768545 -0.027361851 0.014531732 -0.0009017702 -0.04790832 0.049348593 -0.084932484 0.03052516
-0.11059739 0.038797796 -0.033694886 -0.08936754 -0.09230182 0.06040179 0.05612328 -0.12348343
-0.0130218305 -0.01967504 -0.12177304 -0.00017103663 -0.023067655 -0.00010526964 0.10732438 -0.016364908
-0.044410534 -0.04915645 0.0034375784 0.13371314 0.11431182 0.04350047 0.12394112 -0.0560445
0.12946531 -0.059992317 -0.080434784 -0.058107305 0.012865961 0.09366962 -0.046489857 -0.076654956
-0.121808626 -0.017945739 -0.11032351 0.030134197 -0.015426254 -0.07849212 -0.06663759 -0.07128938
-0.05015291 -0.05119732 0.09057686 0.017877784 0.08343302 -0.04809928 -0.13355415 -0.10280629
-0.03338835 -0.07528733 -0.04243261 -0.06273576 0.0042552506 0.1154613 -0.10991771 0.030716093
0.060119916 0.022407284 0.11608242 0.062283617 0.11696641 -0.1161546 -0.03178286 0.009872085
0.10743873 -0.104541585 0.104368895 -0.0058436156 -0.009339352 0.01666623 0.090490215 -0.0697504
-0.0070633614 -0.06939125 -0.10447279 -0.079903945 -0.003809603 -0.030155107 -0.123527415 0.08349753
-0.121282704 0.091346756 -0.11985075 -0.03764788 0.08450662 0.08498103 0.044042062 -0.060884178
-0.06933774 0.0444787 0.00065662526 -0.11809703 -0.0734111 0.07853827 -0.08770412 0.008251905
0.12838283 -0.035884656 -0.053067684 -0.023765277 -0.12330323 0.09494316 -0.03334436 -0.02080648
-0.12375255 -0.089717396 0.075159505 -0.08693347 0.15347193 -0.12138492 0.014705347 0.11444226
0.10568182 -0.032148864 -0.019049952 -0.018428814 -0.0063311467 0.11770031 -0.017962389 0.025116073
0.10133408 -0.018161753 0.13449958 -0.126709 0.106659435 -0.09042057 -0.006832912 0.060905218
-0.13368727 -0.0386027 -0.10335964 0.13003646 0.060264796 -0.0022200972 -0.13145326 0.0082701715
0.13538198 0.015186806 -0.093545124 0.12602906 0.1938379 0.011908707 0.028097233 0.046617173
-0.043134972 0.1070927 0.022615 0.0019446715 0.044092815 -0.042834982 -0.06779968 -0.011643583
0.12518969 -0.06145117 -0.105875105 -0.011751628 0.12935326 0.047630977 -0.075517945 0.12775338
-0.038867105 0.12608108 0.06201588 -0.049859416 -0.072834834 0.04517873 0.07125119 -0.005259564
0.019861927 -0.12883721 -0.015843023 -0.15117848 0.0021726838 -0.059559777 -0.082915254 -0.019107554
0.13480741 0.11834653 0.06658906 0.06596567 0.11503072 0.06911139 0.027563425 -0.08062048
-0.06384041 -0.074753314 0.120999984 0.13475156 0.1765229 -0.07771824 0.08797363 0.12920345
0.08452621 0.104138635 0.07496491 0.099209085 -0.019601163 -0.13066603 -0.12206308 -0.10002315
0.036282994 0.04550632 0.035218153 -0.12066436 0.06149941 0.034690093 0.08557857 0.06599733
-0.00094102795 0.099859014 0.016333852 0.1380086 0.12558645 0.12781462 0.03857306 0.029024303
-0.007813524 0.047896087 -0.109385975 -0.06964118 0.10831379 0.122138634 -0.062683396 -0.1166091
0.12399116 -0.10054408 0.11652817 -0.08090315 0.00088327576 0.042383052 -0.10522318 -0.035376426
-0.07674357 -0.15128477 -0.0955013 0.030128257 0.1756588 0.003198457 -0.029527456 -0.11073138

lstm.weight_hh_l1 f4 [256, 64]
00000000: eaf9 453c e590 3cbc ecd0 cb3d 979d fb3c
00000010: 8408 73bc 07bc 61bc 7449 86bd 6235 b4bd
00000020: 3ce9 753d 6ba4 9d3d 7a98 553b 6d08 f33c
00000030: 9164 86bd 95b3 a6bd 96fd 623c e0b3 e3bd
00000040: 9de7 fd3c 3127 ad3c 0799 ad3d ffd7 28ba
00000050: d7ae b0bd 21cf 05bd 1d45 f4bd 996e ad3c
00000060: ed0e 8cbd 7b49 f0bd 2973 d8bc b787 4bbc
00000070: 14f8 95bc e65b e3bd fba9 9c3c 9ff0 cb3c
00000080: 266e b43d bcdd b5bc 812b 453d 184a 8e3d
00000090: e3cf 56bd fb34 8c3d 4bba 143e 4272 e03c
000000a0: 9fbd 8a3c 5bf4 473e cebe d5bd 8cfc 95bd
000000b0: b866 e13d dc15 cc3d b447 9bbc 1e5e a03d
000000c0: 82da 963d b701 e2bc 95ef d83d d291 c9bd
000000d0: dcb4 55bd 450d 8a3d 91ed 9a3c c32f 4fbd
000000e0: ee4e c6bd 55af fb3d 386a 7aba 02fe e2bb
000000f0: bf2c 65bd c26c 683d d232 0d3e da37 c33d
00000100: 2478 80bc 5cf8 a5bd b2c9 7e3d eb35 0fbe
00000110: 0e7a 94bd 7bc9 323e b18b 23be 4547 77bd
00000120: a3c6 4fbd d9a6 89bd 3f99 e7bd cd1f dcbc
00000130: 8461 843d 87b5 24bd dc8d b7bb be9b 633d
00000140: 92f1 b93d 8886 bfbb 5a1e 9abd 3212 d73d
00000150: d0c8 fbbc 8d7d 823d a76c f1bd 3131 47bc
00000160: 5f43 293d e9d0 27bd 70d1 a4bd de92 2e3d
00000170: e71b 8bbd 0a63 c7bd 450a 823c c5e1 ebbc
00000180: 7a82 b53d f271 dfbd 30cb 833d 4a19 e93c
00000190: bd03 353d e957 813c c763 8b3d 0278 753c
000001a0: 3c90 c13c 6644 933d 2607 513d ff5b 363d
000001b0: 817a 1abd 03da 0e3e 85f8 00be a2c8 cf3b
000001c0: ac56 723c 9cbb 8ebd cbe3 a5bd e755 cb3d
000001d0: 95f0 5f3d d408 90bd 2026 ffbd e4ba db3c
000001e0: 6565 b6bb 4d85 473d 8a63 c9bd d833 fdbd
000001f0: 587f fe3a 43a1 b03d 9e96 b3bd bf36 88bc
00000200: 4e9f 67bd 8ba4 2bbd a7ea 953d 851c b1bd
00000210: 77ea 4a3d 2cb4 8bbd 0280 4abd 48fe 973d
00000220: e03f 2d3d 2f03 8e3d 9b03 adbd d5b9 13be
00000230: 095e 943d d121 bb3c 8103 60bd 20e0 823d
00000240: 955f ecbc c106 1b3b 801a 583d 34bc ff3d
00000250: 12e0 e93d 03c2 00be b0e3 af3d e5f8 c0bd
00000260: 1adb 193e dce8 213d e869 113c 8066 41bc
00000270: 7b6a 333d a0bf 32bc fb26 553d 647a 843d
00000280: 706a 9ebd 8cdc 05bc 7ee0 343d 096b 023d
00000290: 33f3 af3d 3516 d73b dce2 cebd 07bd bf3d
000002a0: 442a 9f3d 8fe3 f1ba 9546 febb a4c1 95bd
000002b0: 1d2f 8b3d c54b b9bc 2d0a dfbd 262c 303d
000002c0: 58e0 28bd f1a4 11be 6712 3ebd 8b81 ee3d
000002d0: a91c 313e 91c3 b93d f5a1 293e 729e 4c3d
000002e0: e352 d43b af3f 9d3c e9a0 5d3d feb9 bebd
000002f0: fda1 98bd 063c 6bbc 1a9c 8ebc 3af8 95bd
00000300: 58e9 373d dab5 9cbd dac3 2cbd 14ef 1ebd
00000310: d85d 8f3b e8c7 f1bd e7f3 173d 80b1 77bc
00000320: 0d9d 79bd 8e14 bebd 3806 cebb d52a 6fbd
00000330: 1aeb abbc 7319 f13d 06d5 1fbc 7668 713d
00000340: 3d1c 67bd e007 f4bd f263 94bd c870 b63d
00000350: b76e 393e c9e8 593d 54d3 903c 8eb8 b0bc
00000360: 709c 80bd 03a5 483d a4ad 013d 799b ab3d
00000370: c22e 25bd 8d3e 813c 580b d03c f557 bcbd
00000380: bbaa 1d3d a779 30bc 6a9f 043d 5600 b73c
00000390: a3fb 173d a2e7 5f3d 2a5f 6abd be8a ad3c
000003a0: 884f e5bc b589 3dbd e197 14bd 0075 6abd
000003b0: 3de3 a7bd 165d f63d 86a1 ffbd b3b1 1fbd
000003c0: 1682 b2bd 33a3 91bd 0ffe 35bd f679 383b
000003d0: 7812 3e3d 3521 753d 8770 1d3d 2780 223b
000003e0: 0396 da3d 7a0e 3abe 8c8d e63c b447 14be
000003f0: 8ac0 a2bd cb7b 2fbc b933 383b 251b 0a3e
0.01208351 -0.011509155 0.09951958 0.030714793 -0.014833573 -0.013777739 -0.06556979 -0.087992445
0.060036883 0.07697376 0.0032592104 0.029667104 -0.0656215 -0.08139721 0.013854405 -0.11118293
0.03099423 0.021136852 0.08476453 -0.00064408773 -0.08627098 -0.032668237 -0.11927245 0.021170901
-0.06838784 -0.11732765 -0.0264221 -0.012422494 -0.01830677 -0.111015126 0.019124022 0.02489501
0.08810072 -0.022200458 0.04813719 0.06947726 -0.05244435 0.06846043 0.1452419 0.027398232
0.016936122 0.19526808 -0.10436784 -0.0732356 0.1100592 0.09965107 -0.01895509 0.078304514
0.07365896 -0.027588708 0.10592572 -0.09842266 -0.052174434 0.06740812 0.018912109 -0.05058266
-0.096830234 0.12289301 -0.0009552571 -0.0069272527 -0.055950876 0.056744345 0.13788918 0.09532137
-0.015682288 -0.081040114 0.06220407 -0.13985412 -0.072498426 0.17459671 -0.15971257 -0.060370702
-0.050726544 -0.06721277 -0.11308526 -0.026870633 0.06463912 -0.04021218 -0.0056016278 0.05556845
0.09079279 -0.005844895 -0.0752532 0.10501517 -0.030735403 0.06371603 -0.11788302 -0.012157724
0.041324016 -0.040970717 -0.080477595 0.042620532 -0.06792431 -0.09735687 0.015874038 -0.028794179
0.08862777 -0.10910405 0.06435239 0.028454442 0.04419302 0.01578899 0.068061404 0.014982225
0.023628347 0.0719078 0.051032208 0.044521328 -0.037714485 0.13950352 -0.12594803 0.006341056
0.014791172 -0.069693774 -0.08100089 0.09928494 0.054672796 -0.07032934 -0.12458444 0.026822515
-0.0055662864 0.04871111 -0.09833439 -0.12363404 0.0019416614 0.08624508 -0.08768962 -0.016627667
-0.05654841 -0.041904967 0.07320147 -0.08648018 0.04954001 -0.068214744 -0.049438484 0.07421547
0.042297244 0.06934201 -0.08447953 -0.14426358 0.07244498 0.022843273 -0.05469084 0.06390405
-0.02885417 0.0023655149 0.052759647 0.12487069 0.11419691 -0.1257401 0.0858835 -0.09422473
0.15024987 0.039528713 0.008875348 -0.011804223 0.04380272 -0.010909945 0.052039128 0.06468657
-0.07735145 -0.008170258 0.044159405 0.031840358 0.085913084 0.0065639266 -0.10101864 0.09362226
0.077717334 -0.0018454659 -0.007759879 -0.07312325 0.067960955 -0.022619138 -0.10890613 0.043010853
-0.041229576 -0.14223076 -0.04640427 0.11645802 0.17296089 0.090705045 0.16565688 0.049955793
0.0064796074 0.019195406 0.054108534 -0.09312819 -0.07452772 -0.014357572 -0.01740842 -0.07322736
0.04490027 -0.07651873 -0.042178966 -0.03880222 0.0043752007 -0.11805707 0.037097838 -0.015118003
-0.06094079 -0.09281264 -0.0062873624 -0.058390457 -0.020986129 0.11772432 -0.009755379 0.058937512
-0.056423414 -0.119155645 -0.072456256 0.0890823 0.1810864 0.053200517 0.017678894 -0.021572378
-0.06279838 0.048985492 0.031659737 0.083792634 -0.040327795 0.015776897 0.025396034 -0.09196464
0.0384929 -0.010771192 0.03237859 0.022339027 0.037105214 0.05466426 -0.05721966 0.021184321
-0.027992025 -0.046273906 -0.036277656 -0.057240486 -0.08197639 0.120294735 -0.1248198 -0.038987827
-0.08716218 -0.07111206 -0.044431742 0.0028148866 0.046404332 0.05984612 0.038437393 0.0024795623
0.10673144 -0.18169585 0.028143667 -0.14480478 -0.0794688 -0.010710667 0.0028107 0.13486917

lstm.bias_ih_l1 f4 [256]
00000000: d164 e93b 8bae 333d ab1d 743d 0762 593d
00000010: 58b1 803c d896 eb3b b09d e0bc 8940 8e3c
00000020: ea78 d13b 6c0a bf3c 34cd 16bd 1359 523d
00000030: 0582 3b3d 28d5 433c eac8 0d3c 1354 c43c
00000040: 87e4 793d e0d8 9a3c 98ea 863c 6d89 af3c
00000050: cfdf 8fbb bd56 4bbd 55c0 0abc 69fe a9bb
00000060: 4791 373b 1f8e 123b 6c55 adbc 88d1 e8bc
00000070: 41a2 a73c 7a1d f9bc 78a4 0d3c a7f6 4c3d
00000080: f8bb e8bc 36aa 873c a364 dc3b bdbf 3d3c
00000090: e931 7f3c 5a84 453d 37a1 503a 12d9 243d
000000a0: 0126 143d b760 40bd 7b0e 27bc 42b2 8c3c
000000b0: da1b ab3c 1ca0 22bc e873 4c3d 6dc3 523d
000000c0: 8d1c 973c 1042 293d 1b0d 6d3c a691 e23c
000000d0: 0203 e63b ed32 103d 2d1b 3e3d a5ca 61bd
000000e0: e192 863d 7d3f 193c 3ef8 8c3d ea3e 6b3c
000000f0: 2f42 9dbc 8350 ba3b 9999 5c3c e5f5 7d3c
00000100: 5c24 bdbb 165c e23c ecbf 4a3d e384 cb3c
00000110: 784b c6bb 38af 74b9 d871 1ebd d707 93bc
00000120: 1482 00bb bec0 00bc 80fc 01bd f3c1 443d
00000130: 2327 bd3c ec6c 0dbc e540 aabb 7894 523b
00000140: 9098 453d bf9f 233b f584 b4bc 87ce b13a
00000150: 47a7 8abc da7b 25bd 086b a4bc 5d8c 3dbc
00000160: e633 173a b2ad 0bbc cd11 58bb 9821 bcbc
00000170: 4a60 b4bb 15e4 3fbd 19ba e5bb d1ae 5c3d
00000180: 8195 f2bc fb14 54bb ccf5 8cbb 8df5 02ba
00000190: 3835 423b 59c0 f13c 5022 1bbc a5c8 ba3c
000001a0: e558 e23c fb54 a0bd 4f83 bfbc 934e 80bc
000001b0: 0e0e 273c 2a7c 67bc d1a7 523d ca15 0c3d
000001c0: dbe5 6cbc 2ba5 f33c 074b 92b9 35ab 153c
000001d0: 89e4 2dbc e666 7b3c 9be5 f33c 382e 1ebd
000001e0: b121 7d3d 8a87 153a d072 853d d259 babc
000001f0: fde3 ecbc 6c4f 96bc 9cdf 60b9 d267 8ebc
00000200: 15e4 30bd df25 65bd 1f30 543d 14ef 7bbd
00000210: af9f 563d 0d6c 9e3d c2f1 773d 84ae 2f3d
00000220: f39e 313d 96b4 b5bd fb9c 873d 30a5 54bd
00000230: 6297 893d 12e9 803d f751 36bd 3b23 5b3d
00000240: b778 80bd 8d11 31bd 93a0 9abd 0540 6e3d
00000250: acfb 913d d3fe b33c 78a6 773d f271 14bd
00000260: f044 6d3d 81ad 483d fe35 dc3c e916 f13c
00000270: 1b87 8ebd ca0f 333d ac6f 8fbd d93e 87bd
00000280: 5f3b 68bd 0cc9 4dbd d423 463d a9ac 74bd
00000290: 78c2 4d3d aba3 673d 6728 6cbd e805 813d
000002a0: 6d51 793d 3e3a 89bc 750d 793d a9a9 aa3d
000002b0: a7b0 5bbd af09 4cbd 0167 32bd d284 8cbd
000002c0: 95d3 90bd 762e 59bd 7bfa 70bd f408 653d
000002d0: 2821 4c3d 7743 843d d122 b43d 21d2 d83c
000002e0: ddb9 863d 4afa 35bd 7c20 723d b5b1 b13d
000002f0: 2c85 753d f501 7bbd fbfa acbd aa88 9ebd
00000300: 92d8 c5bc a850 18bc 7783 01ba 14db bb3b
00000310: b70e a4b9 4152 863b 4e35 abbc 69ff c9bb
00000320: 4829 b73b e6ea 9a3c b112 58bd ea19 e9bb
00000330: 7db6 79bc d1be 59bc e26d 5f3b 3ed7 433c
00000340: f0f7 6f3c bc5d b53a f3f4 8dbc 65af 313b
00000350: 2d0c 0dbc 597d 3cbd 4a65 13bd f810 50bc
00000360: 2a0e a9bb c378 71bc 1bd0 96bc 36be 03bd
00000370: 8a55 003b ec37 29bd 9706 80bb 028a e6bc
00000380: 3aed 1bbd 21c8 fdbb 1fc5 cfbb 4762 bd3a
00000390: 4492 8fbc 0ea1 43bc 9505 e0bc 4dba bd3c
000003a0: d465 953a 4dc6 68bd f62e fabc d0db f0bb
000003b0: cb6d 6cbc cfa6 23bc 05ea 1cbc 0c1f aa3b
000003c0: c9a7 6f3c 9f47 d4bc fe07 843b a9c0 9ebb
000003d0: 4a83 6ebc acde 613b f5a8 cd39 2b94 56bd
000003e0: 5c3f e73c e8ce 23bc 5b5a 083c 05e8 9eb9
000003f0: b8c5 f3bc b8d3 a5bb 7001 c0bb e720 acbb
0.007122614 0.04386763 0.059598606 0.053072 0.015709564 0.007189613 -0.027418941 0.017364757
0.006392588 0.0233204 -0.03681679 0.05135448 0.045778293 0.011952676 0.008653859 0.023965871
0.061008956 0.018902242 0.016469285 0.021427834 -0.0043906937 -0.049643267 -0.008468707 -0.0051877988
0.0028010176 0.0022362543 -0.021158896 -0.028420225 0.02046311 -0.030409563 0.008645169 0.050039914
-0.028409943 0.016560655 0.006725864 0.0115813585 0.015575864 0.048221923 0.0007958593 0.040246077
0.036169056 -0.046967234 -0.0101963235 0.017174844 0.020887304 -0.009925868 0.049915224 0.051455904
0.018446231 0.041322768 0.014468457 0.027657341 0.0070194015 0.035204817 0.046412636 -0.055124898
0.06570984 0.009353516 0.06883286 0.014358262 -0.019196598 0.0056858673 0.013464355 0.01550052
-0.0057721566 0.0276318 0.049499437 0.024843639 -0.006051477 -0.00023334927 -0.03868279 -0.017948074
-0.0019608783 -0.007858453 -0.031734943 0.048036527 0.02308995 -0.008631926 -0.0051957243 0.0032131951
0.048241198 0.0024967042 -0.022036055 0.0013565578 -0.016925467 -0.040401317 -0.020070568 -0.01156911
0.00057679263 -0.008525299 -0.0032969594 -0.022965237 -0.0055046426 -0.046848375 -0.00701071 0.053877655
-0.029612305 -0.0032361138 -0.004301762 -0.00049956964 0.0029633772 0.029510664 -0.00946863 0.022800753
0.027630279 -0.07828709 -0.023378043 -0.015662467 0.010196222 -0.014128724 0.051429573 0.034200467
-0.014459099 0.029741844 -0.0002790319 0.009135057 -0.010613569 0.015344357 0.02977257 -0.038618296
0.06179971 0.0005704096 0.06516039 -0.022747908 -0.028917307 -0.018348418 -0.00021445606 -0.01738349
-0.043186266 -0.05594432 0.051803704 -0.0615073 0.05239838 0.07735453 0.060533293 0.04289104
0.043364476 -0.08872335 0.066217385 -0.051915348 0.06718327 0.06294455 -0.04451176 0.053500395
-0.062730245 -0.04322963 -0.07550158 0.058166523 0.07128081 0.021972096 0.06046149 -0.03624148
0.057927072 0.04899359 0.026881214 0.02942987 -0.06959363 0.04371623 -0.070037216 -0.06603784
-0.056697246 -0.05024056 0.048374012 -0.059734974 0.050234288 0.05655257 -0.05765572 0.06299955
0.06086867 -0.016751405 0.06080385 0.08333141 -0.053635266 -0.049813922 -0.043555263 -0.06861271
-0.07071606 -0.053022824 -0.058832627 0.05591674 0.049836308 0.064581804 0.08795703 0.026467385
0.06578419 -0.044428147 0.05911301 0.08676473 0.059941456 -0.061281163 -0.08446308 -0.0774091
-0.02415112 -0.009296574 -0.0004940549 0.0057329033 -0.0003129148 0.004099161 -0.020899441 -0.0061644805
0.005589638 0.018910836 -0.0527522 -0.007113685 -0.0152412625 -0.013290123 0.0034092595 0.011953173
0.014646515 0.0013837139 -0.017328715 0.00271126 -0.00860886 -0.04601798 -0.03598527 -0.012699358
-0.005159159 -0.0147382645 -0.01840978 -0.03216382 0.0019582235 -0.041313097 -0.0039070356 -0.02814198
-0.038068034 -0.0077448045 -0.0063406373 0.0014448845 -0.0175258 -0.011940254 -0.027346412 0.023160124
0.0011398145 -0.05682974 -0.03053997 -0.0073504224 -0.014430474 -0.009988501 -0.009577279 0.0051916894
0.014627405 -0.025913058 0.004029273 -0.004844744 -0.014557669 0.0034464998 0.0003922653 -0.052387398
0.028228454 -0.009998061 0.008322324 -0.00030308976 -0.029757366 -0.005060639 -0.0058595464 -0.0052529457

lstm.bias_hh_l1 f4 [256]
00000000: d164 e93b 8bae 333d ab1d 743d 0762 593d
00000010: 58b1 803c d896 eb3b b09d e0bc 8940 8e3c
00000020: ea78 d13b 6c0a bf3c 34cd 16bd 1359 523d
00000030: 0582 3b3d 28d5 433c eac8 0d3c 1354 c43c
00000040: 87e4 793d e0d8 9a3c 98ea 863c 6d89 af3c
00000050: cfdf 8fbb bd56 4bbd 55c0 0abc 69fe a9bb
00000060: 4791 373b 1f8e 123b 6c55 adbc 88d1 e8bc
00000070: 41a2 a73c 7a1d f9bc 78a4 0d3c a7f6 4c3d
00000080: f8bb e8bc 36aa 873c a364 dc3b bdbf 3d3c
00000090: e931 7f3c 5a84 453d 37a1 503a 12d9 243d
000000a0: 0126 143d b760 40bd 7b0e 27bc 42b2 8c3c
000000b0: da1b ab3c 1ca0 22bc e873 4c3d 6dc3 523d
000000c0: 8d1c 973c 1042 293d 1b0d 6d3c a691 e23c
000000d0: 0203 e63b ed32 103d 2d1b 3e3d a5ca 61bd
000000e0: e192 863d 7d3f 193c 3ef8 8c3d ea3e 6b3c
000000f0: 2f42 9dbc 8350 ba3b 9999 5c3c e5f5 7d3c
00000100: 5c24 bdbb 165c e23c ecbf 4a3d e384 cb3c
00000110: 784b c6bb 38af 74b9 d871 1ebd d707 93bc
00000120: 1482 00bb bec0 00bc 80fc 01bd f3c1 443d
00000130: 2327 bd3c ec6c 0dbc e540 aabb 7894 523b
00000140: 9098 453d bf9f 233b f584 b4bc 87ce b13a
00000150: 47a7 8abc da7b 25bd 086b a4bc 5d8c 3dbc
00000160: e633 173a b2ad 0bbc cd11 58bb 9821 bcbc
00000170: 4a60 b4bb 15e4 3fbd 19ba e5bb d1ae 5c3d
00000180: 8195 f2bc fb14 54bb ccf5 8cbb 8df5 02ba
00000190: 3835 423b 59c0 f13c 5022 1bbc a5c8 ba3c
000001a0: e558 e23c fb54 a0bd 4f83 bfbc 934e 80bc
000001b0: 0e0e 273c 2a7c 67bc d1a7 523d ca15 0c3d
000001c0: dbe5 6cbc 2ba5 f33c 074b 92b9 35ab 153c
000001d0: 89e4 2dbc e666 7b3c 9be5 f33c 382e 1ebd
000001e0: b121 7d3d 8a87 153a d072 853d d259 babc
000001f0: fde3 ecbc 6c4f 96bc 9cdf 60b9 d267 8ebc
00000200: 15e4 30bd df25 65bd 1f30 543d 14ef 7bbd
00000210: af9f 563d 0d6c 9e3d c2f1 773d 84ae 2f3d
00000220: f39e 313d 96b4 b5bd fb9c 873d 30a5 54bd
00000230: 6297 893d 12e9 803d f751 36bd 3b23 5b3d
00000240: b778 80bd 8d11 31bd 93a0 9abd 0540 6e3d
00000250: acfb 913d d3fe b33c 78a6 773d f271 14bd
00000260: f044 6d3d 81ad 483d fe35 dc3c e916 f13c
00000270: 1b87 8ebd ca0f 333d ac6f 8fbd d93e 87bd
00000280: 5f3b 68bd 0cc9 4dbd d423 463d a9ac 74bd
00000290: 78c2 4d3d aba3 673d 6728 6cbd e805 813d
000002a0: 6d51 793d 3e3a 89bc 750d 793d a9a9 aa3d
000002b0: a7b0 5bbd af09 4cbd 0167 32bd d284 8cbd
000002c0: 95d3 90bd 762e 59bd 7bfa 70bd f408 653d
000002d0: 2821 4c3d 7743 843d d122 b43d 21d2 d83c
000002e0: ddb9 863d 4afa 35bd 7c20 723d b5b1 b13d
000002f0: 2c85 753d f501 7bbd fbfa acbd aa88 9ebd
00000300: 92d8 c5bc a850 18bc 7783 01ba 14db bb3b
00000310: b70e a4b9 4152 863b 4e35 abbc 69ff c9bb
00000320: 4829 b73b e6ea 9a3c b112 58bd ea19 e9bb
00000330: 7db6 79bc d1be 59bc e26d 5f3b 3ed7 433c
00000340: f0f7 6f3c bc5d b53a f3f4 8dbc 65af 313b
00000350: 2d0c 0dbc 597d 3cbd 4a65 13bd f810 50bc
00000360: 2a0e a9bb c378 71bc 1bd0 96bc 36be 03bd
00000370: 8a55 003b ec37 29bd 9706 80bb 028a e6bc
00000380: 3aed 1bbd 21c8 fdbb 1fc5 cfbb 4762 bd3a
00000390: 4492 8fbc 0ea1 43bc 9505 e0bc 4dba bd3c
000003a0: d465 953a 4dc6 68bd f62e fabc d0db f0bb
000003b0: cb6d 6cbc cfa6 23bc 05ea 1cbc 0c1f aa3b
000003c0: c9a7 6f3c 9f47 d4bc fe07 843b a9c0 9ebb
000003d0: 4a83 6ebc acde 613b f5a8 cd39 2b94 56bd
000003e0: 5c3f e73c e8ce 23bc 5b5a 083c 05e8 9eb9
000003f0: b8c5 f3bc b8d3 a5bb 7001 c0bb e720 acbb
0.007122614 0.04386763 0.059598606 0.053072 0.015709564 0.007189613 -0.027418941 0.017364757
0.006392588 0.0233204 -0.03681679 0.05135448 0.045778293 0.011952676 0.008653859 0.023965871
0.061008956 0.018902242 0.016469285 0.021427834 -0.0043906937 -0.049643267 -0.008468707 -0.0051877988
0.0028010176 0.0022362543 -0.021158896 -0.028420225 0.02046311 -0.030409563 0.008645169 0.050039914
-0.028409943 0.016560655 0.006725864 0.0115813585 0.015575864 0.048221923 0.0007958593 0.040246077
0.036169056 -0.046967234 -0.0101963235 0.017174844 0.020887304 -0.009925868 0.049915224 0.051455904
0.018446231 0.041322768 0.014468457 0.027657341 0.0070194015 0.035204817 0.046412636 -0.055124898
0.06570984 0.009353516 0.06883286 0.014358262 -0.019196598 0.0056858673 0.013464355 0.01550052
-0.0057721566 0.0276318 0.049499437 0.024843639 -0.006051477 -0.00023334927 -0.03868279 -0.017948074
-0.0019608783 -0.007858453 -0.031734943 0.048036527 0.02308995 -0.008631926 -0.0051957243 0.0032131951
0.048241198 0.0024967042 -0.022036055 0.0013565578 -0.016925467 -0.040401317 -0.020070568 -0.01156911
0.00057679263 -0.008525299 -0.0032969594 -0.022965237 -0.0055046426 -0.046848375 -0.00701071 0.053877655
-0.029612305 -0.0032361138 -0.004301762 -0.00049956964 0.0029633772 0.029510664 -0.00946863 0.022800753
0.027630279 -0.07828709 -0.023378043 -0.015662467 0.010196222 -0.014128724 0.051429573 0.034200467
-0.014459099 0.029741844 -0.0002790319 0.009135057 -0.010613569 0.015344357 0.02977257 -0.038618296
0.06179971 0.0005704096 0.06516039 -0.022747908 -0.028917307 -0.018348418 -0.00021445606 -0.01738349
-0.043186266 -0.05594432 0.051803704 -0.0615073 0.05239838 0.07735453 0.060533293 0.04289104
0.043364476 -0.08872335 0.066217385 -0.051915348 0.06718327 0.06294455 -0.04451176 0.053500395
-0.062730245 -0.04322963 -0.07550158 0.058166523 0.07128081 0.021972096 0.06046149 -0.03624148
0.057927072 0.04899359 0.026881214 0.02942987 -0.06959363 0.04371623 -0.070037216 -0.06603784
-0.056697246 -0.05024056 0.048374012 -0.059734974 0.050234288 0.05655257 -0.05765572 0.06299955
0.06086867 -0.016751405 0.06080385 0.08333141 -0.053635266 -0.049813922 -0.043555263 -0.06861271
-0.07071606 -0.053022824 -0.058832627 0.05591674 0.049836308 0.064581804 0.08795703 0.026467385
0.06578419 -0.044428147 0.05911301 0.08676473 0.059941456 -0.061281163 -0.08446308 -0.0774091
-0.02415112 -0.009296574 -0.0004940549 0.0057329033 -0.0003129148 0.004099161 -0.020899441 -0.0061644805
0.005589638 0.018910836 -0.0527522 -0.007113685 -0.0152412625 -0.013290123 0.0034092595 0.011953173
0.014646515 0.0013837139 -0.017328715 0.00271126 -0.00860886 -0.04601798 -0.03598527 -0.012699358
-0.005159159 -0.0147382645 -0.01840978 -0.03216382 0.0019582235 -0.041313097 -0.0039070356 -0.02814198
-0.038068034 -0.0077448045 -0.0063406373 0.0014448845 -0.0175258 -0.011940254 -0.027346412 0.023160124
0.0011398145 -0.05682974 -0.03053997 -0.0073504224 -0.014430474 -0.009988501 -0.009577279 0.0051916894
0.014627405 -0.025913058 0.004029273 -0.004844744 -0.014557669 0.0034464998 0.0003922653 -0.052387398
0.028228454 -0.009998061 0.008322324 -0.00030308976 -0.029757366 -0.005060639 -0.0058595464 -0.0052529457

fc.weight f4 [1, 64]
00000000: 3995 afbd d15a 56bd 2d1c 233d bd86 89bd
00000010: 4781 a93d 3ee5 c73d 5cf0 8b3d 3975 843d
00000020: ef08 513d 0ba8 8ebd e54f 953d aa4d 66bd
00000030: 712b 4d3d 84e4 b33d 2c8d a6bd ede4 623d
00000040: 25c2 44bd f586 84bd be42 59bd 9116 b83d
00000050: d475 883d 1e02 223d e27e a63d da30 00bd
00000060: 9968 e73d e398 803d 1c4e 833c 3b3b e73c
00000070: 6d74 83bd bbf6 283d a017 cebd b26c d7bd
00000080: e516 8ebd 8844 a4bd 555e 943d f9f2 63bd
00000090: 0de2 613d 4aee b13d 8c88 9bbd 3204 493d
000000a0: 9227 463d 4188 29bd b0f2 c93d c055 8c3d
000000b0: 8d5a c0bd 9fee a9bd dd5e 53bd 4f4d 15bd
000000c0: a03e 87bd ce73 85bd fa8d 53bd 237b 4b3d
000000d0: 6779 bd3d ed86 e83d 23e3 923d af15 6a3c
000000e0: 4777 283d 7124 f6bd 44ee 503d 640b 9b3d
000000f0: ef5b 8f3d 721e 86bd 2bbe 9ebd b1c9 6ebd
-0.08573384 -0.052332703 0.039821792 -0.067151524 0.08276611 0.09760521 0.06832954 0.06467671
0.05103391 -0.069656454 0.07290629 -0.05622641 0.050090257 0.0878382 -0.08132395 0.055394102
-0.048036713 -0.064710535 -0.053042166 0.08988679 0.06663099 0.0395528 0.0812967 -0.03129659
0.11299247 0.06279161 0.016028456 0.028226485 -0.06418691 0.041250926 -0.100631 -0.10518779
-0.069379605 -0.08020884 0.07244555 -0.05565164 0.05514722 0.08688028 -0.075944036 0.049076267
0.04837758 -0.041389707 0.09860742 0.06852293 -0.09392271 -0.082974665 -0.05160414 -0.03645068
-0.06603742 -0.065162286 -0.05164907 0.04967798 0.09251671 0.1135386 0.07172229 0.014287396
0.041129377 -0.120186694 0.051008478 0.07570532 0.06999957 -0.06548776 -0.077511154 -0.058297817
