ML/models/SOL/4h/gru_model.pth (torch, 168883 bytes, 9 tensors)

gru.weight_ih_l0 f4 [192, 19]
00000000: f8cf 85bb a316 0b3e 427d ad3c 1177 1bbe
00000010: 034f ab3c c1ef 283e 1a11 733d 1105 b3bd
00000020: 98b8 60bd 7e93 fcbd 634a a63c 5aeb 4e3c
00000030: 48fd c8bd ee47 283e f3f5 cd3c 58e2 163e
00000040: 085e 2cbe c8f8 2cbd 6aaf 8ebc 344b 16be
00000050: 3a9d 93bc e2ad 15be c551 cd3d d66a 743d
00000060: 7e21 c63b 0e5f 1a3e 2c1a 793d 393f 1ebe
00000070: 6c72 be3c b994 c3bc f1b7 c6bd 6492 0bbe
00000080: ed24 7cbd b582 143e ab84 23ba 3417 29be
00000090: c247 963c 6ab7 0dbe 28fe 9c3d 6a84 fe3c
000000a0: d5fd 26bd 89f2 95bd 27ad cb3d d3ef 66bd
000000b0: f477 17be 27d1 febd a016 0a3e e377 c9bd
000000c0: 0779 e7bd 1fa0 cfbd 0fc1 adbd 45ab 973c
000000d0: b7c7 cebd b62e c93d eb7f 2e3d a534 2bbe
000000e0: 8973 223e b8ad d0bc 5f78 40bd 2210 bdbb
000000f0: a977 f5bd 55f1 f9bd 2ce6 fabc 0552 f93d
00000100: fa27 f7bc 2791 00be de78 c93c 2494 d3bd
00000110: fa78 d83d 0496 273e 3ca4 f53d 2889 5abd
00000120: ad60 acbd cc9f 1abe 6e91 be3d ae5e 973d
00000130: b778 483d a945 093e 28a6 78bd 507b b73d
00000140: 4a78 82bd 0bf0 e43d fd8b b93d 9dc5 11bd
00000150: 7237 dbbd 1488 203d d36d babc 4018 913d
00000160: 9011 8dbd dc9e c03d 0993 9cbd 7822 bb3c
00000170: 5045 60bc 22b0 a2bd cf96 e43d 848e 023d
00000180: e480 a03c 7ba2 cfbb 7727 b43d 51fc b9bd
00000190: dce0 afbd e804 25be 28ba 653d 498b 863d
000001a0: e0f9 613d e7ed 18be 431c 203d 5321 88bd
000001b0: e2cc 113d 6887 aa3d fb84 683b 031d c5bd
000001c0: 74ca ddbd 019b 253e 5644 25be f625 b63d
000001d0: b776 f6bd 1d16 8a3d 995e b4bd 6230 e03d
000001e0: bcb3 0f3e e97a 233d 32ab 25be fef1 99bd
000001f0: dd55 1c3e 499f 423c 2d7d ad3c 240f bcbb
00000200: f69c 27be 6088 6abd 75c7 00be 0542 2a3e
00000210: 70e4 2bbd c418 c8bc 208a a23d 730c f83d
00000220: eb1c 5bbd 48ac 843c 52b1 cf3d 5067 013e
00000230: 09d5 b1bc 4d07 abbc 9bd5 d638 40c0 1b3d
00000240: 77f8 2e3d 7676 073e ec22 cf3d d3b9 d63c
00000250: 155f 7bbd d4ac 5f3d a9d4 9a3d 678b ac3c
00000260: efb4 a83d d798 26be efa5 183e fb3b 243e
00000270: 2429 fdbd 43ef febd 8df8 1b3d 6495 e8bd
00000280: c6a5 08bd a772 5f3d 1505 02bd 7317 dcbd
00000290: 3e68 1abd bfa9 90bd 8be4 973d 7caf 0c3e
000002a0: 863d 853d a35a 113d 2f46 f8bc 2e26 4dbd
000002b0: fb79 16be 0bed 42bd f1ff 723d 232a cbbd
000002c0: afd5 ecbd a0fd 1c3e 196a 983d cf71 c5bd
000002d0: 4bde d73d d9a0 d83d 6250 f6bc fb77 c83d
000002e0: 2bc0 9e3c 65d4 5fbd 3f26 11be df1d 19be
000002f0: a761 16be e699 10be 383c ecbb 7165 05be
00000300: 5992 223d d3d8 99bd 7fce 643c 75eb 053d
00000310: f0ca 0fbe 79d4 233e 0b6d 9e3d e41d 143e
00000320: 9bc7 53bd 30b9 063e fe19 23be 4bcc f5bd
00000330: beea c93d 4e1e 30bc 4a55 0c3e d5c3 afbb
00000340: 3d8b 2a3e ac27 e73d b319 27be dc63 c8bd
00000350: 7639 b83c d11d 2a3e 45e1 263d 1599 083d
00000360: e74d 17be 13dd 143e ea9f 20be 0b84 a2bd
00000370: f6ee 9e3c b7ca d2bd 7ea7 053e a212 493d
00000380: 6cec 223e 82b1 8d3d 1e89 24bc b481 2bbd
00000390: 66b9 ae3a 4951 ab3c 0edc ccbd dd75 0cbd
000003a0: 5839 e23d 960e 47bc f709 bbbd 66a2 bc3d
000003b0: a5fc 21bd 616e b73d a096 0ebb 4ebc c7bd
000003c0: 1969 0abe 6077 183d 6cf8 d2bb 18b2 dbbc
000003d0: e0c0 0d3e a1d3 1a3e 337d cb3d e633 cdbd
000003e0: d220 26be 03d7 02be 6afb aabd 3f66 0d3e
000003f0: 28c4 1ebe 8acd eebc 404f ccbd bd1b 253b
-0.0040836297 0.13582854 0.021177892 -0.15182139 0.0209117 0.16497709 0.05934248 -0.08741201
-0.054863542 -0.123328194 0.020299142 0.012629354 -0.098139346 0.16433689 0.025141692 0.14734781
-0.16832745 -0.042229444 -0.017417628 -0.14677125 -0.018019307 -0.14617112 0.10025362 0.0596722
0.006046473 0.15075323 0.060815975 -0.15453805 0.02324792 -0.023874627 -0.09703053 -0.13630062
-0.061558653 0.14502986 -0.00062377256 -0.16512758 0.018344764 -0.13839498 0.07665664 0.031069
-0.040769417 -0.073216505 0.099451356 -0.056381058 -0.14791852 -0.124422364 0.13485193 -0.0983732
-0.11302381 -0.101379625 -0.08484089 0.018514285 -0.10096686 0.098233625 0.04260246 -0.16719301
0.15864386 -0.02547346 -0.046989795 -0.0057697454 -0.11985714 -0.122042336 -0.030627333 0.12173847
-0.03017043 -0.12555371 0.024593767 -0.1033099 0.105699494 0.1636582 0.11994216 -0.05335346
-0.08416877 -0.1510002 0.09305082 0.073911056 0.048943248 0.1340548 -0.060705334 0.08959067
-0.063705996 0.11178597 0.09059904 -0.03558885 -0.10703935 0.039192274 -0.022757446 0.070847034
-0.068881154 0.094053 -0.07645232 0.022843584 -0.0136884 -0.07943751 0.11161577 0.031874195
0.01959271 -0.006336508 0.0879659 -0.09081329 -0.085878104 -0.16115153 0.056085736 0.06569535
0.05516994 -0.14934503 0.039089452 -0.06646981 0.035595782 0.08326608 0.0035479653 -0.09624674
-0.108296305 0.1617241 -0.1613935 0.08893959 -0.12034362 0.06742499 -0.088071056 0.10946728
0.14033407 0.039912138 -0.16178587 -0.075168595 0.15267129 0.011878797 0.021177853 -0.0057391096
-0.1636847 -0.057258964 -0.12576087 0.16626747 -0.0419659 -0.024425872 0.079365015 0.121117495
-0.053494375 0.016195431 0.10141243 0.12637067 -0.021708028 -0.020877505 0.00010244102 0.03802514
0.042717423 0.13228783 0.10114083 0.026211655 -0.061369974 0.05460818 0.07560093 0.021062566
0.08237635 -0.16269241 0.14907049 0.16038506 -0.123613626 -0.12447979 0.038078833 -0.11356619
-0.03336122 0.0545527 -0.031743128 -0.1074666 -0.03769707 -0.070636265 0.07416638 0.13738817
0.06505875 0.03548683 -0.030306904 -0.05008524 -0.1469497 -0.047589343 0.059326116 -0.09920146
-0.115641944 0.15331125 0.074421115 -0.09640848 0.10540446 0.10577554 -0.030067626 0.097885095
0.019378742 -0.054645915 -0.14174746 -0.14952801 -0.14685689 -0.14121208 -0.007209327 -0.13026978
0.03969035 -0.07512059 0.013965248 0.032695252 -0.14042258 0.1599902 0.07735642 0.14464527
-0.05170403 0.13156581 -0.15927884 -0.120018564 0.09859227 -0.010749413 0.1370441 -0.005363921
0.16654678 0.11286864 -0.16318397 -0.09784672 0.022488337 0.16612937 0.040742178 0.033349115
-0.14775811 0.14537458 -0.15686002 -0.079353414 0.019401055 -0.10292571 0.13052174 0.049090035
0.159105 0.069186226 -0.010042457 -0.04187174 0.00133304 0.020912783 -0.100029096 -0.03429209
0.11046094 -0.012149474 -0.0913276 0.092106625 -0.03954758 0.089566 -0.002175726 -0.09752713
-0.13516654 0.03722322 -0.0064383056 -0.02681832 0.13843107 0.15119793 0.09935989 -0.100196645
-0.16223457 -0.12777333 -0.08348735 0.13808535 -0.15504515 -0.029150743 -0.09976053 0.0025193535

gru.weight_hh_l0 f4 [192, 64]
00000000: 403a 223d b48a adbd e4aa 2bbc d043 413c
00000010: 43a5 e43c 7421 903c c1cc bb3d 741e 1f3d
00000020: 931d 723d 22ff edbd ac41 b73c ed46 733d
00000030: 3be5 54bd f25c cbbd f8d1 213d b10b e9bd
00000040: 7c65 d73d 169c aabd 38b4 58bd a45d 1a3d
00000050: aa48 81bd e626 c3bd ac13 80bc bd33 a8bd
00000060: 1853 3b3d dabf c9bd 87fc 033e b57a 96bd
00000070: 8b17 babd 2078 3a3d 21d6 813d bd2c 653d
00000080: 0c31 033d 6a3c 09bd dc87 03bd 1ec7 313e
00000090: 9235 b23c 7aba 29bd 8702 1dbd cd1e e0bd
000000a0: 7c03 1e3c d0f0 37bd f184 0b3d 506a dabd
000000b0: 4b27 6d3d 2891 d8bc 2e55 4d3c 861e 01bd
000000c0: c50b 3fbb b464 bd3c 7991 b83d d34b 803c
000000d0: 5799 f83d 48d4 dbbc 463b d7bc 05e6 193c
000000e0: ee74 6b3c 7bb8 49bd 40ce de3a 5288 f23c
000000f0: 208f 163b 130d edbd 84dd e03d d23b 7fbd
00000100: a624 e63c 606b 2ebd 0046 113c 2f80 cebc
00000110: 0d4e b0bd 1e1a 49b9 cc60 2fbe 3511 27be
00000120: 05fa 1e3c 7ce9 afbc 0f34 ab3b be6b 8abd
00000130: 2b1b 853d 3c6c f3bc bcf2 e5bc 1dd9 7bbd
00000140: ce1d 66bc 5c80 49bc 5b37 a73d 368d 483d
00000150: fad0 6abd 46fb f4bc d01c 03be ea50 edbc
00000160: 4de1 17bc ab80 a63d 0d93 21bd 878c 273b
00000170: f067 73bd 9d82 133d 9ce8 b6bb 4dd6 d03d
00000180: 8c54 903d 47ae c83d 96f9 7a3d 6285 37bd
00000190: b045 8cbd 02cb 0d3d 0712 873d 9061 91bd
000001a0: d5a6 153c 3845 1b3c bb89 99bd f011 3739
000001b0: 15a9 babc 37a0 153e 4454 2e3a d9ef 01be
000001c0: 3f21 593d 0b4c 323d a06e 8f3c c959 00bd
000001d0: 3b85 083d 7e22 61bd e62f b5bb 8b28 80bd
000001e0: f8d0 85bd 60c4 9a3d e38b 14bd cac0 6f3d
000001f0: 51ca eebd 54a9 1b3e 897a d53c 5878 34bd
00000200: 1fa5 6dbd a44e 973d 0003 153c fccd b9bb
00000210: f06f 46bd ae0d b1bd 0d51 afbd 5e91 8dbd
00000220: 9e24 20be e906 5dbd 3bc0 3b3d b61b 583d
00000230: 9b31 723d 29d6 a33c 8ca6 cb3d 3fc3 82bc
00000240: f715 3dbe 64d1 e5bc ec1a 92bc b51f 0bbe
00000250: 970e 88bd 3d5b 26bd ccdf d03c db8f 93bd
00000260: d52a eb3c a6cc d8bd 4de5 ffbc 3138 2bbe
00000270: 6390 92bc b0a6 9abb b57f 18bd 35ba 353d
00000280: 368d fdbc 6abf 02bb b5fb 75bd af71 aebd
00000290: 910c 5bbe 5545 2d3d 0816 f43c 44bc 0e3d
000002a0: 52e1 9abc c94e 55bb a142 b63c cada 8dbd
000002b0: e0fe 8bbd 4f0b ddbd 843c 6b3c 9557 d33b
000002c0: 84af 5d3d d6db 883b fce1 d3bc 54df c6bb
000002d0: 413d b13b 897e 1e3d 3afb a43d 499b c63c
000002e0: 84ee 81bd 79d7 e2bd 1ee4 b33d 6311 d1bc
000002f0: 31d4 6abd 0cfe 70bd dcc5 91bd d085 023e
00000300: d4a2 d03c 39f6 f5bc 079f c5bc 380b 29be
00000310: 7678 d73d 1f50 c3bd 90c1 123c 0b6f 753d
00000320: 3d17 06bc 3b65 713d 9691 203d 7d96 1fbd
00000330: adf6 cabc 2b0f 323d 71b2 2bbd 2319 7a3c
00000340: 0145 38be 6457 763d 58f4 843b effe cabc
00000350: 3b7a b03d 9efe 673c 55c7 303d 90c3 543d
00000360: 1766 f3bd d302 ce3c efb9 4c3d c83d 8a3d
00000370: b531 8a3d e6d0 673c ef5e 28bd a4d8 25bb
00000380: c1db 2d3d 8875 59bc 8e4a 913d d3ad 8a3d
00000390: 128d 113d f704 09bd 2641 e13d aa09 513d
000003a0: 0cc4 88bd 5877 89bd d086 953c add1 923d
000003b0: 2382 ae3d 3ad0 b0bd 701b b3bc 011f 683d
000003c0: ffd9 5b3d efec bfbd 95a7 403d dbda 82bd
000003d0: 443c e5bd 89a1 183d 8538 e3bb 70b6 1ebd
000003e0: 63ee a43c a232 133d f766 3b3e c2b7 8dbd
000003f0: d0f2 9fbd 2c91 fb3c e314 1cbe 922d 1ebd
0.039606333 -0.08473721 -0.010477755 0.011795953 0.027910834 0.017594077 0.09169913 0.0388474
0.059110235 -0.11620928 0.022370182 0.059393812 -0.051976424 -0.09929837 0.039506882 -0.11379183
0.105174035 -0.08330552 -0.052906245 0.03768696 -0.06312688 -0.09528904 -0.01563438 -0.08212993
0.04573354 -0.09851046 0.128893 -0.07347623 -0.09086522 0.045524716 0.0633967 0.05595087
0.032029197 -0.03350488 -0.032111987 0.17361113 0.02175406 -0.041437604 -0.03833249 -0.10943375
0.009644385 -0.04490739 0.03406233 -0.10664809 0.0578988 -0.026436403 0.012532515 -0.03152325
-0.0029151302 0.023119308 0.09012122 0.015661156 0.12138622 -0.026834622 -0.026273381 0.00939322
0.01437114 -0.0492482 0.0016998723 0.029606018 0.0022973493 -0.11574759 0.10979751 -0.06231291
0.028093647 -0.04258287 0.008866787 -0.025207607 -0.08608637 -0.00019178583 -0.17126769 -0.16315158
0.009703164 -0.021473639 0.0052247117 -0.067588314 0.064993225 -0.029714696 -0.028069846 -0.061486352
-0.014045192 -0.01229867 0.08164855 0.048962794 -0.0573282 -0.029904973 -0.1280396 -0.028969247
-0.0092700245 0.0813001 -0.03944688 0.0025565939 -0.059425294 0.036013234 -0.0055819284 0.10197125
0.07047376 0.09798866 0.06127318 -0.04480494 -0.06849229 0.03461743 0.06595235 -0.07098687
0.009134014 0.009476952 -0.07496973 0.00017458922 -0.022785703 0.14611898 0.000665013 -0.12689151
0.05301022 0.04352955 0.017508805 -0.031335626 0.033330183 -0.054964535 -0.0055293916 -0.06257733
-0.06533998 0.07556987 -0.03626622 0.058533467 -0.116596825 0.15201312 0.026059406 -0.04406008
-0.0580188 0.073880464 0.009094954 -0.005670307 -0.048446596 -0.08645187 -0.08560381 -0.06912492
-0.15638968 -0.05396167 0.045837622 0.052760802 0.05912934 0.01999958 0.09943876 -0.015962241
-0.1846541 -0.028053947 -0.017835103 -0.13586314 -0.06643408 -0.040614355 0.02549734 -0.07205173
0.028706947 -0.105859086 -0.031237269 -0.16720654 -0.017891115 -0.0047195777 -0.037231166 0.044367034
-0.030951124 -0.0019950517 -0.0600545 -0.08517777 -0.21391512 0.04230245 0.029795662 0.034847513
-0.01890627 -0.003254818 0.022248568 -0.06926496 -0.06835723 -0.107931726 0.01435769 0.0064496496
0.054122463 0.004176597 -0.025864594 -0.0060691033 0.0054089134 0.038694892 0.0805573 0.024243968
-0.06344321 -0.110762544 0.08783744 -0.025520986 -0.057331268 -0.058836028 -0.07117817 0.12746358
0.025468268 -0.030024635 -0.024123682 -0.16508186 0.10521023 -0.09536766 0.008957282 0.059920352
-0.008184251 0.05893443 0.03920134 -0.038961876 -0.024775827 0.043471497 -0.04191822 0.015264782
-0.17995073 0.060141936 0.0040574484 -0.024779765 0.086170636 0.014159827 0.043158848 0.051944315
-0.118847065 0.025147831 0.049982008 0.06750065 0.06747762 0.014148926 -0.04110616 -0.002530613
0.0424459 -0.013272651 0.07094298 0.067714356 0.035534926 -0.033452 0.10998754 0.051034607
-0.06678018 -0.06712216 0.01825276 0.07168899 0.08520915 -0.08633466 -0.02186367 0.056670193
0.053674694 -0.09371363 0.04703482 -0.063893996 -0.111931354 0.037263427 -0.006934228 -0.038748205
0.020133203 0.03593696 0.18300997 -0.06919815 -0.07809985 0.030708872 -0.15242343 -0.038617678

gru.bias_ih_l0 f4 [192]
00000000: 0000 0000 0000 0000 0000 0000 0000 0000
00000010: 0000 0000 0000 0000 0000 0000 0000 0000
00000020: 0000 0000 0000 0000 0000 0000 0000 0000
00000030: 0000 0000 0000 0000 0000 0000 0000 0000
00000040: 0000 0000 0000 0000 0000 0000 0000 0000
00000050: 0000 0000 0000 0000 0000 0000 0000 0000
00000060: 0000 0000 0000 0000 0000 0000 0000 0000
00000070: 0000 0000 0000 0000 0000 0000 0000 0000
00000080: 0000 0000 0000 0000 0000 0000 0000 0000
00000090: 0000 0000 0000 0000 0000 0000 0000 0000
000000a0: 0000 0000 0000 0000 0000 0000 0000 0000
000000b0: 0000 0000 0000 0000 0000 0000 0000 0000
000000c0: 0000 0000 0000 0000 0000 0000 0000 0000
000000d0: 0000 0000 0000 0000 0000 0000 0000 0000
000000e0: 0000 0000 0000 0000 0000 0000 0000 0000
000000f0: 0000 0000 0000 0000 0000 0000 0000 0000
00000100: 0000 0000 0000 0000 0000 0000 0000 0000
00000110: 0000 0000 0000 0000 0000 0000 0000 0000
00000120: 0000 0000 0000 0000 0000 0000 0000 0000
00000130: 0000 0000 0000 0000 0000 0000 0000 0000
00000140: 0000 0000 0000 0000 0000 0000 0000 0000
00000150: 0000 0000 0000 0000 0000 0000 0000 0000
00000160: 0000 0000 0000 0000 0000 0000 0000 0000
00000170: 0000 0000 0000 0000 0000 0000 0000 0000
00000180: 0000 0000 0000 0000 0000 0000 0000 0000
00000190: 0000 0000 0000 0000 0000 0000 0000 0000
000001a0: 0000 0000 0000 0000 0000 0000 0000 0000
000001b0: 0000 0000 0000 0000 0000 0000 0000 0000
000001c0: 0000 0000 0000 0000 0000 0000 0000 0000
000001d0: 0000 0000 0000 0000 0000 0000 0000 0000
000001e0: 0000 0000 0000 0000 0000 0000 0000 0000
000001f0: 0000 0000 0000 0000 0000 0000 0000 0000
00000200: 0000 0000 0000 0000 0000 0000 0000 0000
00000210: 0000 0000 0000 0000 0000 0000 0000 0000
00000220: 0000 0000 0000 0000 0000 0000 0000 0000
00000230: 0000 0000 0000 0000 0000 0000 0000 0000
00000240: 0000 0000 0000 0000 0000 0000 0000 0000
00000250: 0000 0000 0000 0000 0000 0000 0000 0000
00000260: 0000 0000 0000 0000 0000 0000 0000 0000
00000270: 0000 0000 0000 0000 0000 0000 0000 0000
00000280: 0000 0000 0000 0000 0000 0000 0000 0000
00000290: 0000 0000 0000 0000 0000 0000 0000 0000
000002a0: 0000 0000 0000 0000 0000 0000 0000 0000
000002b0: 0000 0000 0000 0000 0000 0000 0000 0000
000002c0: 0000 0000 0000 0000 0000 0000 0000 0000
000002d0: 0000 0000 0000 0000 0000 0000 0000 0000
000002e0: 0000 0000 0000 0000 0000 0000 0000 0000
000002f0: 0000 0000 0000 0000 0000 0000 0000 0000
0.0 0.0 0.0 0.0 0.0 0.0 0.0 0.0
0.0 0.0 0.0 0.0 0.0 0.0 0.0 0.0
0.0 0.0 0.0 0.0 0.0 0.0 0.0 0.0
0.0 0.0 0.0 0.0 0.0 0.0 0.0 0.0
0.0 0.0 0.0 0.0 0.0 0.0 0.0 0.0
0.0 0.0 0.0 0.0 0.0 0.0 0.0 0.0
0.0 0.0 0.0 0.0 0.0 0.0 0.0 0.0
0.0 0.0 0.0 0.0 0.0 0.0 0.0 0.0
0.0 0.0 0.0 0.0 0.0 0.0 0.0 0.0
0.0 0.0 0.0 0.0 0.0 0.0 0.0 0.0
0.0 0.0 0.0 0.0 0.0 0.0 0.0 0.0
0.0 0.0 0.0 0.0 0.0 0.0 0.0 0.0
0.0 0.0 0.0 0.0 0.0 0.0 0.0 0.0
0.0 0.0 0.0 0.0 0.0 0.0 0.0 0.0
0.0 0.0 0.0 0.0 0.0 0.0 0.0 0.0
0.0 0.0 0.0 0.0 0.0 0.0 0.0 0.0
0.0 0.0 0.0 0.0 0.0 0.0 0.0 0.0
0.0 0.0 0.0 0.0 0.0 0.0 0.0 0.0
0.0 0.0 0.0 0.0 0.0 0.0 0.0 0.0
0.0 0.0 0.0 0.0 0.0 0.0 0.0 0.0
0.0 0.0 0.0 0.0 0.0 0.0 0.0 0.0
0.0 0.0 0.0 0.0 0.0 0.0 0.0 0.0
0.0 0.0 0.0 0.0 0.0 0.0 0.0 0.0
0.0 0.0 0.0 0.0 0.0 0.0 0.0 0.0

gru.bias_hh_l0 f4 [192]
00000000: 0000 0000 0000 0000 0000 0000 0000 0000
00000010: 0000 0000 0000 0000 0000 0000 0000 0000
00000020: 0000 0000 0000 0000 0000 0000 0000 0000
00000030: 0000 0000 0000 0000 0000 0000 0000 0000
00000040: 0000 0000 0000 0000 0000 0000 0000 0000
00000050: 0000 0000 0000 0000 0000 0000 0000 0000
00000060: 0000 0000 0000 0000 0000 0000 0000 0000
00000070: 0000 0000 0000 0000 0000 0000 0000 0000
00000080: 0000 0000 0000 0000 0000 0000 0000 0000
00000090: 0000 0000 0000 0000 0000 0000 0000 0000
000000a0: 0000 0000 0000 0000 0000 0000 0000 0000
000000b0: 0000 0000 0000 0000 0000 0000 0000 0000
000000c0: 0000 0000 0000 0000 0000 0000 0000 0000
000000d0: 0000 0000 0000 0000 0000 0000 0000 0000
000000e0: 0000 0000 0000 0000 0000 0000 0000 0000
000000f0: 0000 0000 0000 0000 0000 0000 0000 0000
00000100: 0000 0000 0000 0000 0000 0000 0000 0000
00000110: 0000 0000 0000 0000 0000 0000 0000 0000
00000120: 0000 0000 0000 0000 0000 0000 0000 0000
00000130: 0000 0000 0000 0000 0000 0000 0000 0000
00000140: 0000 0000 0000 0000 0000 0000 0000 0000
00000150: 0000 0000 0000 0000 0000 0000 0000 0000
00000160: 0000 0000 0000 0000 0000 0000 0000 0000
00000170: 0000 0000 0000 0000 0000 0000 0000 0000
00000180: 0000 0000 0000 0000 0000 0000 0000 0000
00000190: 0000 0000 0000 0000 0000 0000 0000 0000
000001a0: 0000 0000 0000 0000 0000 0000 0000 0000
000001b0: 0000 0000 0000 0000 0000 0000 0000 0000
000001c0: 0000 0000 0000 0000 0000 0000 0000 0000
000001d0: 0000 0000 0000 0000 0000 0000 0000 0000
000001e0: 0000 0000 0000 0000 0000 0000 0000 0000
000001f0: 0000 0000 0000 0000 0000 0000 0000 0000
00000200: 0000 0000 0000 0000 0000 0000 0000 0000
00000210: 0000 0000 0000 0000 0000 0000 0000 0000
00000220: 0000 0000 0000 0000 0000 0000 0000 0000
00000230: 0000 0000 0000 0000 0000 0000 0000 0000
00000240: 0000 0000 0000 0000 0000 0000 0000 0000
00000250: 0000 0000 0000 0000 0000 0000 0000 0000
00000260: 0000 0000 0000 0000 0000 0000 0000 0000
00000270: 0000 0000 0000 0000 0000 0000 0000 0000
00000280: 0000 0000 0000 0000 0000 0000 0000 0000
00000290: 0000 0000 0000 0000 0000 0000 0000 0000
000002a0: 0000 0000 0000 0000 0000 0000 0000 0000
000002b0: 0000 0000 0000 0000 0000 0000 0000 0000
000002c0: 0000 0000 0000 0000 0000 0000 0000 0000
000002d0: 0000 0000 0000 0000 0000 0000 0000 0000
000002e0: 0000 0000 0000 0000 0000 0000 0000 0000
000002f0: 0000 0000 0000 0000 0000 0000 0000 0000
0.0 0.0 0.0 0.0 0.0 0.0 0.0 0.0
0.0 0.0 0.0 0.0 0.0 0.0 0.0 0.0
0.0 0.0 0.0 0.0 0.0 0.0 0.0 0.0
0.0 0.0 0.0 0.0 0.0 0.0 0.0 0.0
0.0 0.0 0.0 0.0 0.0 0.0 0.0 0.0
0.0 0.0 0.0 0.0 0.0 0.0 0.0 0.0
0.0 0.0 0.0 0.0 0.0 0.0 0.0 0.0
0.0 0.0 0.0 0.0 0.0 0.0 0.0 0.0
0.0 0.0 0.0 0.0 0.0 0.0 0.0 0.0
0.0 0.0 0.0 0.0 0.0 0.0 0.0 0.0
0.0 0.0 0.0 0.0 0.0 0.0 0.0 0.0
0.0 0.0 0.0 0.0 0.0 0.0 0.0 0.0
0.0 0.0 0.0 0.0 0.0 0.0 0.0 0.0
0.0 0.0 0.0 0.0 0.0 0.0 0.0 0.0
0.0 0.0 0.0 0.0 0.0 0.0 0.0 0.0
0.0 0.0 0.0 0.0 0.0 0.0 0.0 0.0
0.0 0.0 0.0 0.0 0.0 0.0 0.0 0.0
0.0 0.0 0.0 0.0 0.0 0.0 0.0 0.0
0.0 0.0 0.0 0.0 0.0 0.0 0.0 0.0
0.0 0.0 0.0 0.0 0.0 0.0 0.0 0.0
0.0 0.0 0.0 0.0 0.0 0.0 0.0 0.0
0.0 0.0 0.0 0.0 0.0 0.0 0.0 0.0
0.0 0.0 0.0 0.0 0.0 0.0 0.0 0.0
0.0 0.0 0.0 0.0 0.0 0.0 0.0 0.0

gru.weight_ih_l1 f4 [192, 64]
00000000: 8b51 5e3c 0b94 c53d 0662 99bd 0d95 23bd
00000010: ec14 563d c3ac 153e 95e9 c1bd 2c31 db3d
00000020: 3cf0 38bd 4ad6 343d fe98 823d 4d9c 833d
00000030: 0897 0bbd 8434 873c 91b4 b2bd 5d67 ed3c
00000040: 56e1 76bd 5c25 e8bd 4b8b 0abd 3f11 acbc
00000050: 944b 9cbc 0b55 2fbd 7812 40bd 6623 04bd
00000060: 5e4c 09be a6f9 f7bd de65 b0bd f6c2 85bd
00000070: cb6c 05be 129f d0bc ce1e 15be f2d5 243e
00000080: c58d 113e 353d 8ebd 6e6b 913d d835 f63d
00000090: 35d8 003e cf66 6dbd 3642 ee3c 3e95 df3d
000000a0: 7076 9d3d dba2 48bd 8b98 b43d dde1 0ebe
000000b0: d031 f83d 063f 253e 8bb3 17be 44a3 963d
000000c0: 4b55 59bd c591 673d 6bbe 07be 7bc3 b6bd
000000d0: 85e3 1b3e b16d 083e e946 bfbc 49e5 d63c
000000e0: 2ed9 42bd 69fa daba f228 133e ccef e8bc
000000f0: 5152 2abd 0354 2bbd 3994 dabd 6aa8 903d
00000100: d2e8 2ebe d816 7d3b b884 8abd bf29 a7bd
00000110: 24dd d1bd 5e7a 5a3d 5e86 db3d a604 d4bd
00000120: 3dd9 743d 5b43 8b3d 8cba e23d d47d b73d
00000130: ff4d d33d ad48 7dbc 2068 b43d f4ce f03d
00000140: 0404 57bd a99b 76ba 7ca5 8bbd f388 0a3e
00000150: 3988 a6bd f7ee 533d bd6c 41bd a52c 1abe
00000160: 3894 81bd 1985 b5bd fabf 173d 17aa 083b
00000170: bb09 063e 0ead 7c3c 6cdc 8e3d 42c5 1b3e
00000180: 8957 ce3d 5afe 58bd e065 9f3d 52cb ff3c
00000190: bdb2 7e3d 7cbd b13d b514 e3bd 66a8 8dbd
000001a0: 2e3c 363e d45b 803d 3f51 e13d aa8a a93d
000001b0: 41e1 e4bd d0db 38bd 776b 083c 34c1 643d
000001c0: c2be c83b b92e 183e b5e2 7fbd 8b85 2a3e
000001d0: 965d c33c 90a6 1bbd 05e2 8b3d 323f 173e
000001e0: 4db5 623d 54d2 25bd cbb2 833d 298d 8ebd
000001f0: 7dc5 bcbd b3d5 183e 47e2 17be 6b3d 27bd
00000200: 2e77 8f3d 6810 073e 19ff 4d3d 2bf8 ccbc
00000210: 12b2 b63d 02f9 1a3e c390 ce3d 5adb 8f3c
00000220: 9bd0 93bd 68b3 073d 7ae2 fcbd 85bf c2bd
00000230: 217c 3f3d b79d debd 066c a73d 666c bdbd
00000240: 3700 03bd 26ea 073d 2560 a4bd dc6c 573d
00000250: 3fc2 043e d715 e03d 6450 f53c 783b 1b3e
00000260: a7d6 35be 519b b5ba 3f88 93bb 17ec fc3d
00000270: 552f 6f3d 43af 0bbc b82b 0d3e fd99 80bb
00000280: 6687 0fbe f429 50bd a5a7 103e ba94 993d
00000290: 2c80 b7bd 9713 1a3e a283 4bbd b50e 42bd
000002a0: 4b4d e33d e5ee 19be 7d5e 793d 1112 01bd
000002b0: 4fb5 b03d f079 043e bb31 063c a6c7 8a3d
000002c0: 2d54 b23d 4d0c e73d 238e dcbd dfc9 0c3e
000002d0: f0c2 bebd 8e9f 083d 45c6 023d 58db 12be
000002e0: 4c3e f5bd 2573 8fbd d09f 263e e298 163d
000002f0: 6cf2 55bd d4c9 79bd 5548 da3d 4275 e2bd
00000300: 939b a2bc 7d8f 1abd 2749 a8bd a4b3 0e3e
00000310: 4a03 0c3d e7dd fb3d 631d 343d 9adc 6abd
00000320: 6052 c6bd 700f 24bd 1542 cbbd 3500 b7bd
00000330: 9947 f3bd 141f f0bd 9529 aa3d 83ca aabd
00000340: a33f 3fbd d311 d3bc c871 3d3d 487b 16be
00000350: 5286 f53d 097c 983d 25a7 003e 5330 053e
00000360: 2682 323d 415a a5bd 28a3 abbc 2b9f d43b
00000370: fc41 dcbd 1c8c 303d f4c7 323c 0365 01be
00000380: 6648 05bd 3fe6 013e 84f1 38bb f00e c7bd
00000390: afaf 0d3d a55b 94bb d7b8 d9bc e467 0d3e
000003a0: 68eb d83d 3aca 16be 87bd 10bd 19b0 963b
000003b0: 2117 ec3d bb31 67bd a119 f13d cd46 e93d
000003c0: 372f 17be 0dff e93d 4167 95bb f7a8 bbbd
000003d0: 05f7 34bd 2273 68bc 38d1 153e d90a bb3d
000003e0: cdf7 f7bd b4e7 51bd c9d1 3d3d 08f8 c6bc
000003f0: d9f6 cebc 9cb4 a33d 18ef 05be 0478 d1bd
0.013569246 0.096473776 -0.074893996 -0.039937068 0.052266046 0.14616685 -0.0946838 0.10702738
-0.04515098 0.044149674 0.06376837 0.064262964 -0.03407958 0.016504534 -0.087258466 0.028979952
-0.06027349 -0.11335251 -0.033824246 -0.021004317 -0.019079007 -0.042805713 -0.046892613 -0.03226032
-0.13408038 -0.121081635 -0.086131796 -0.065313265 -0.13029782 -0.025466476 -0.14562532 0.16097239
0.14214237 -0.06945268 0.07100569 0.12021989 0.12582476 -0.057959374 0.029084306 0.109171376
0.07688606 -0.048983436 0.08818158 -0.13953348 0.12118876 0.16137323 -0.14814584 0.07355359
-0.053059857 0.0565355 -0.13256232 -0.08924004 0.1522351 0.13323094 -0.023349242 0.026232379
-0.0475704 -0.0016706708 0.14371088 -0.028434657 -0.04158241 -0.041828167 -0.106728025 0.070633724
-0.17081001 0.0038618352 -0.06763595 -0.08162259 -0.10247257 0.053339355 0.10718988 -0.10352449
0.059777487 0.067999564 0.11070737 0.08959547 0.10317611 -0.015459222 0.08808923 0.11758223
-0.052494064 -0.00094073504 -0.06818673 0.13528804 -0.08131451 0.051741567 -0.04722284 -0.15056093
-0.063270986 -0.08863277 0.037048317 0.0020853335 0.1308965 0.015422119 0.06975636 0.15211967
0.1007529 -0.052976944 0.07783103 0.03122488 0.062182177 0.086787194 -0.11087934 -0.06916885
0.17796394 0.06267515 0.110018246 0.08278401 -0.11175776 -0.045131505 0.008326403 0.055848315
0.0061262557 0.14861573 -0.062472064 0.16652505 0.023848336 -0.038000643 0.06830219 0.14770201
0.055348683 -0.040483788 0.064305864 -0.06960518 -0.092173554 0.1492527 -0.14832412 -0.040830057
0.070051536 0.13189852 0.05029211 -0.02502068 0.08920683 0.15134051 0.10086205 0.01756065
-0.07217523 0.03313008 -0.123478845 -0.09509186 0.046749238 -0.108699255 0.08174901 -0.09249191
-0.031982627 0.033182286 -0.080261506 0.05259405 0.12964724 0.109416656 0.02994556 0.15159404
-0.17757665 -0.0013855492 -0.004502326 0.12349718 0.05839475 -0.008525672 0.13786209 -0.003924607
-0.14016494 -0.05082126 0.14126451 0.074990705 -0.08959994 0.15046535 -0.04968608 -0.047377307
0.11098727 -0.15032537 0.060881127 -0.03151137 0.08628332 0.1293714 0.008190568 0.06776361
0.087074615 0.11281643 -0.10769298 0.13748883 -0.09314525 0.03335529 0.031927366 -0.14341486
-0.11974773 -0.07004384 0.16271901 0.036766894 -0.052233145 -0.060983494 0.106583275 -0.110575214
-0.019849574 -0.037734497 -0.08217078 0.13935715 0.034182824 0.12298184 0.043973338 -0.05733929
-0.096836805 -0.040053785 -0.099247135 -0.08935586 -0.118788905 -0.11724678 0.083087124 -0.08339407
-0.046691548 -0.025765335 0.04625109 -0.14695466 0.1198851 0.07445533 0.1256376 0.13006715
0.04358115 -0.08073855 -0.020951822 0.006488701 -0.10754773 0.04310237 0.01091193 -0.12636189
-0.032539748 0.12685488 -0.0028220126 -0.09719646 0.034591373 -0.0045275264 -0.026577396 0.13809162
0.10591775 -0.14725581 -0.035336997 0.004598629 0.11527849 -0.05644391 0.117724665 0.11390457
-0.14764105 0.114256 -0.004559428 -0.09163087 -0.04418089 -0.014187606 0.14630592 0.091329284
-0.12107811 -0.05124636 0.046342645 -0.024288192 -0.02526419 0.07993433 -0.13079488 -0.10227969

gru.weight_hh_l1 f4 [192, 64]
00000000: 9c0a b0bb 6741 ef3d bcf3 b7bd f817 64b8
00000010: 78cd 1dbd 61eb 953d 4076 1b3e 74ac b63d
00000020: f8b2 15be 173c 63bd 8a10 94bb 863e 95bd
00000030: e746 abbd 984a 3bbc c6ca 203d e407 8f3d
00000040: 3b47 8fbd 068d 9e3d 479b 42be 6959 d33c
00000050: 7dd1 39bd 4dbe 84bc bc6b 84bd c744 883c
00000060: 83d6 0a3e 8618 92bd b328 d63d 1190 533d
00000070: 31f8 d73d 43b4 daba 0444 bb3c 8bfd 6eb8
00000080: 67e0 4dbd c344 9f3d 0da4 9bbc bfed 8d3a
00000090: 53d9 f43c 6b16 a3bd b617 173d aa78 a2bb
000000a0: 1910 003d 3795 6dbd f714 e9bd 3343 ccbd
000000b0: 5bec b8bb 2e0c e9bb 6ca8 24be 30e3 243d
000000c0: c1b6 66bd 1a64 30bd 3ee6 573d 6ec4 18bb
000000d0: 511d 073c 988d 07be 372b cc3d 9a38 73bd
000000e0: 3d25 ed3d 18e0 863b 9cd7 c83d 3685 493e
000000f0: cc68 febc e92b 1ebe c7fe 3dbd 6a0c c03d
00000100: 0adf 873d 113e 13bd 32fb 593c a58d 8b3b
00000110: 0cd9 c5bb 3081 72be b3a0 7d3b e1e6 8fbc
00000120: a34d 8dbd c1e3 2d3e 1c94 a1bd d9f5 773d
00000130: 2bff fdbd e699 913d 3707 1a3d 7abb af3c
00000140: 4a8a 17bd b2dd 893d ac47 7abd 2752 b53a
00000150: 5624 a5bd 13b8 903c d2d0 043c 915c 1dbd
00000160: f37c d53d 2a06 94bd 2cf3 b7bc 97fc b1bd
00000170: 1717 c83c bb1b e9bb fe68 a5bc 5da7 bdbd
00000180: 7b07 77bd 8b97 a83a 7a07 a93d dab4 15bb
00000190: 2567 203c c7e3 e3bd c1e3 0cbe 24d0 f2bc
000001a0: 8461 95bd 0203 e5bc 99db d9bd e795 cd3d
000001b0: fc7c f1bc fd97 e23d e162 03be c7b5 3fbc
000001c0: a8a9 a5bc 31d8 bb3c 90a0 ceba 01ef 93bc
000001d0: 2c1b a8bd c38d bc3d dc4c d6bc d771 2c3d
000001e0: f151 f2bd bdca be3b 3421 1e3d 4a0a c53c
000001f0: 34d5 173d 86c1 883d 058d ccbd 1f6d 613d
00000200: 3a10 7fbc 5148 b6bd b865 d0bd 816d 1e3d
00000210: 1e0d 20bd 65ab 64bb 222d 60bd 1836 95bd
00000220: 38b3 283e 2273 00be ae9d ff3d 54e0 eabc
00000230: f9c4 323c fc4d bbbd 62a3 0abe d863 dcbd
00000240: ff17 743d aa48 ec3c b3ba 3bbd d6f3 bd3d
00000250: 4490 95bd 0e55 42bd eb28 b9bc 8adf 49bb
00000260: 6b76 eabb 0fb7 573d 67b8 183d f9af bebd
00000270: aa3b 6f3d 7b9c 223e fb3c f8bc b445 7e3c
00000280: 6d2d c53d de5c 2bbd ec9f eb3c ffa4 5e3e
00000290: 9077 6e3c 6405 35bd 9c8b 00bd 3a43 62bc
000002a0: b5da b4bd e5ad 9b3d f051 2dbd 14fb d1bc
000002b0: 550c 21bc 6718 363e 12ea ccbd 5dcb 77bd
000002c0: a317 603d 1506 083d 48b9 9ebd 3038 c83c
000002d0: 4195 3b3d 620a 443d 76be 1e3d 58d8 2abd
000002e0: 9125 8f3c 8d37 b43c 5790 f7bc fbd2 bcbc
000002f0: 3896 b53c df65 db3d 42fe b8bd 4c18 e73d
00000300: 8ae1 88bd 49a4 8e3c f3b8 b1bd 6861 443d
00000310: c20a 53bd ed24 b7bb 11fb 99bc 930e 873d
00000320: 5351 59bd 6dba cbbd 5a55 0c3c b902 5bbd
00000330: 3d46 0a3e bec3 a63c 6d29 0fbe 12c8 b23d
00000340: 9488 8d3d 0919 4a3d 57c6 2fbd 398f a33d
00000350: c800 913d 8be9 cfbd 7f44 1d3e 2a9b 303e
00000360: e818 923d 69e3 1f3a 620d 253e ec44 323e
00000370: 63bf 983c 4822 30bd a62d 0cbd 4278 3abd
00000380: adc5 2ebb 9374 ab3d 493c a2bd 156c 9fbd
00000390: cc3b 263d ea24 94bd 1555 22bc 648a 4c3d
000003a0: 13b0 39bd d39b 3e3d e5b5 d6bd cca1 263c
000003b0: c051 b5bd 94ce 78bc 7fa5 a23d bb41 5bbc
000003c0: ab4e 44bc 721f 94bd de27 2cbc 6d92 073e
000003d0: 63c0 243c ea8e da3d 9d0f 123e cc10 803d
000003e0: 1b19 33bc 844c 94bd d886 24bd 55bd cdbc
000003f0: 7664 37bd 9035 883b bc61 853a e89c b2bc
-0.0053723585 0.116823964 -0.089820355 -5.438176e-05 -0.03852603 0.073202856 0.15181828 0.089196116
-0.14619052 -0.055477228 -0.004518573 -0.07287316 -0.08363133 -0.011431359 0.03925588 0.06983927
-0.06996008 0.07741742 -0.19004546 0.02579947 -0.0453658 -0.016204024 -0.06465861 0.016634358
0.13558392 -0.07133584 0.104569815 0.051651064 0.10545386 -0.0016685802 0.02285958 -5.6979752e-05
-0.050262835 0.07776787 -0.018999124 0.00108283 0.029888785 -0.0796326 0.036887847 -0.004958232
0.031265352 -0.05800363 -0.11380952 -0.09973755 -0.00564341 -0.0071120476 -0.16079873 0.040255725
-0.05632663 -0.043064214 0.05270981 -0.002331044 0.008246736 -0.13237607 0.0996918 -0.05938015
0.11579368 0.0041160695 0.09806749 0.19679722 -0.03105583 -0.15446438 -0.046385553 0.09377368
0.06634338 -0.035947863 0.013304519 0.0042588287 -0.006037837 -0.23682094 0.003870052 -0.017566146
-0.06899574 0.16981412 -0.07889578 0.060537193 -0.12402185 0.07109432 0.037604537 0.0214517
-0.036997117 0.06731738 -0.061103508 0.0013833687 -0.08063571 0.017665898 0.008106427 -0.038418356
0.10424223 -0.07227738 -0.02245482 -0.08690756 0.024425073 -0.0071139014 -0.020191666 -0.09260438
-0.06030987 0.0012862546 0.08253379 -0.0022843392 0.009790217 -0.111274295 -0.13758756 -0.029640265
-0.0729399 -0.027955536 -0.10637588 0.10038357 -0.029478543 0.11064146 -0.12830688 -0.011701054
-0.0202225 0.022930237 -0.0015764404 -0.018058302 -0.082083076 0.092067264 -0.026159696 0.042100754
-0.11832035 0.005822508 0.038605884 0.024052758 0.03706856 0.06677537 -0.09987835 0.055035707
-0.015567834 -0.08900512 -0.10175651 0.03867865 -0.03907501 -0.0034892198 -0.054730542 -0.07285708
0.16474617 -0.1254392 0.12481247 -0.028671421 0.01091122 -0.09145734 -0.13538888 -0.10761231
0.059593197 0.028843243 -0.045832347 0.09275024 -0.07302907 -0.047444396 -0.022602519 -0.0030803406
-0.00715523 0.052664813 0.037285235 -0.09310908 0.05840651 0.15880005 -0.030302515 0.015519548
0.09627805 -0.041836612 0.02876278 0.21742629 0.014554873 -0.044194594 -0.031383142 -0.013809973
-0.088307776 0.07601527 -0.04231447 -0.025632419 -0.0098296 0.17782746 -0.10005583 -0.060496677
0.05471004 0.033208925 -0.07750183 0.024440855 0.045796636 0.047861464 0.038755856 -0.041710228
0.017473968 0.021999145 -0.030220194 -0.023049822 0.022166356 0.1071279 -0.09032871 0.11283931
-0.06683643 0.017412322 -0.086778544 0.047944456 -0.05152393 -0.0055891187 -0.018796476 0.06594577
-0.053056072 -0.09947667 0.008565271 -0.053469393 0.13503356 0.020357009 -0.13980646 0.08729567
0.06910816 0.04934028 -0.04291376 0.07986302 0.07080227 -0.10151967 0.1535816 0.1724669
0.07133657 0.00060992554 0.16118386 0.17409104 0.018645948 -0.043001443 -0.03422322 -0.045524843
-0.0026668117 0.08371844 -0.07921655 -0.07784287 0.04058437 -0.07233603 -0.00990798 0.049936667
-0.045333933 0.046535324 -0.104839124 0.010170411 -0.08853483 -0.015185971 0.07941722 -0.013382371
-0.0119816465 -0.0723256 -0.010507552 0.13239451 0.010055634 0.1067179 0.14263768 0.06253204
-0.010931279 -0.07241157 -0.04016766 -0.025114695 -0.04477354 0.004156776 0.0010176222 -0.021803334

gru.bias_ih_l1 f4 [192]
00000000: aa91 1ebc d4e3 13bd 9ca1 d7bb 1cff 0dbc
00000010: e1a3 3fbc 8b39 33bd 5504 31bd 5a59 49bc
00000020: d5fc 91bc e1a5 08bd d7e4 5dbd 2891 3ebd
00000030: d9af 2cbd 5a03 89bd bbcb 09bd 3fc3 05bd
00000040: 23a6 903b f533 27bd 5fd3 0fbd a6ec d9bc
00000050: e0e8 253d 54fc 473c bb03 9fbc 37a2 c33c
00000060: 42ab 88bd 7c3b d1bc 1f0c ccbc 6995 b9bc
00000070: 8c08 3dbc 7cc5 ecbc 87a2 c33b 8df2 29bd
00000080: f0e8 b33b 48ca 8dbb 2be7 73bc a7ef 06bd
00000090: 63ef 1dbd 66f0 c8bc f0af 16bd 0a04 073c
000000a0: ce57 10bc c688 933d a17a 15bd b27c 49bd
000000b0: 8db8 d13a 9d44 a4bc 702b 523c d93d 04bd
000000c0: 09a8 dfbc f6c3 c2bc f40e cc3c 23ac bbbc
000000d0: 3172 cabc da39 c6bb d032 b4bb 7b88 f23b
000000e0: 32e1 8ebc 13b1 353b 4d52 99bc 39e2 84bb
000000f0: 7049 f5bc 19e5 05bd 52e0 35bd 66e0 afba
00000100: 3ae0 843d 55c3 603d 6975 d83c 83cb c33c
00000110: a769 193d ba4c 8a3b b16d a23d 5f0d 9e3c
00000120: 41d1 3c3d 009e a43d acb4 4f3d b98b 3a3c
00000130: 54db 053d bb3e 203d 7311 9e3d 5978 ec3a
00000140: cb31 df3d 03ee a23d 37d7 043d e110 143d
00000150: 9208 543c 4c58 6a3c bc60 ce3b cf37 133d
00000160: c76e 843d 016c 8b3c 6e18 fe3c 3844 223c
00000170: bf28 f53c 44be b53c e97e 173d a464 193d
00000180: 0c32 2a3d 2c1a 833d 8790 013d 144d 0b3d
00000190: 5c1f 2cbc 078a c03c 7741 d13c e1c6 4f3d
000001a0: 5d70 5b3b 7da0 3abb 3b61 bd3c 1f1a 8a3c
000001b0: f3e9 df3b dffd dcbc 4143 413d b140 133d
000001c0: e3fd 8c3d 82bc 953c 2f1b 2c3c 98cc c23c
000001d0: 4003 6e3d 7848 923d c40f 9b3d da0c b43c
000001e0: 5e1d 8c3d 94b5 4b3c 674f ad3d d78d 15bc
000001f0: 4285 e03c a48e 8d3d 616a 903c af79 003d
00000200: c1e6 37bc a0ce 4b3c fcb2 43bd 0add 89bc
00000210: fea2 02bd b270 803c 7d21 a7bb 77e0 06bd
00000220: 6a91 973c 487d 303d 87f9 913c 0584 b53c
00000230: 2404 ba3c dc43 13bb a880 87bb 143b f4bc
00000240: 7840 e63a 4138 d5bc c1cf 023d b1da c3bc
00000250: 7ffd 673d c737 303d 236b 023d 8524 1fbd
00000260: 5d63 90bc b47d 83bc 7d7f ddbc 4c31 053c
00000270: 4d97 dbbc 2cf0 33bd 90de e73c c8d8 7c3b
00000280: 1331 a6bc 32e4 c1bc 8f84 993b 1178 0dbd
00000290: afb1 d4bc 8ac6 b83c 5d5c c33c f7c5 033d
000002a0: e096 fd3c d465 93bd 25dd b13c 1423 043d
000002b0: ef0c 78bc 79f8 81bc 7c22 db3c e37d ddbc
000002c0: 93cc 013d c1d2 8dbb 80f4 36bd 3124 133d
000002d0: a27c e1bc ec20 f03c 57c1 34bd b0dc 2a3d
000002e0: 1769 053c 3470 3b3d 5ed3 caba c597 8abc
000002f0: 30b2 8f3c f767 4b3c 3bd4 eabc 35a1 b9bc
-0.009678284 -0.036105946 -0.0065805446 -0.00866678 -0.011696787 -0.04375605 -0.043217022 -0.0122893695
-0.017820755 -0.03336132 -0.054173317 -0.04652515 -0.04215989 -0.066900924 -0.03364156 -0.032656904
0.0044143363 -0.040821034 -0.03511369 -0.0266021 0.04050529 0.012206156 -0.019410959 0.023881061
-0.0667329 -0.02554106 -0.024908124 -0.022654252 -0.011537682 -0.028902762 0.0059703025 -0.04149108
0.005490415 -0.0043270923 -0.014886658 -0.032943394 -0.038558375 -0.024528693 -0.03678888 0.008240709
-0.008809997 0.07203822 -0.0364939 -0.049191184 0.0016000435 -0.020052249 0.012827739 -0.032285545
-0.027301805 -0.023775082 0.024909474 -0.02290923 -0.024712654 -0.006049377 -0.0054992214 0.0074015236
-0.017441366 0.0027723953 -0.018716002 -0.004055288 -0.029942244 -0.032689188 -0.04440338 -0.0013418316
0.0648808 0.054873783 0.026423173 0.023900753 0.037454274 0.0042205723 0.07931078 0.019293485
0.046097998 0.080379486 0.05070941 0.011385852 0.03267987 0.039122324 0.07718172 0.0018041237
0.10898169 0.079555534 0.032431807 0.03614891 0.012941496 0.014303278 0.0062981527 0.035941895
0.064664416 0.017019274 0.031017508 0.00990396 0.029926656 0.022185452 0.036986265 0.037449494
0.041551635 0.06401476 0.031631973 0.034009054 -0.0105055235 0.023503317 0.025543911 0.050726775
0.0033483722 -0.0028477006 0.023117652 0.016858159 0.006833309 -0.026976524 0.04718328 0.035950366
0.068843625 0.018278364 0.010504528 0.023779199 0.05810857 0.071427286 0.075713664 0.021978784
0.06841539 0.012433428 0.084624104 -0.009128056 0.027407292 0.06911972 0.01762885 0.031366047
-0.01122445 0.0124394 -0.047778115 -0.016829032 -0.031893723 0.015678737 -0.0051004277 -0.03292891
0.018501956 0.043088228 0.01781918 0.022157678 0.022707053 -0.0022470867 -0.00413521 -0.029813327
0.0017566821 -0.0260278 0.03193641 -0.023907991 0.056638237 0.043021943 0.031840455 -0.038853187
-0.017625505 -0.01605115 -0.02703833 0.008129429 -0.026805544 -0.043930218 0.028304368 0.003858136
-0.020287072 -0.023668382 0.0046849917 -0.034538332 -0.025963632 0.022555608 0.023847753 0.032171216
0.030955732 -0.071971565 0.021711895 0.032260016 -0.015139802 -0.015865551 0.026749842 -0.027037567
0.031689238 -0.0043281023 -0.044666767 0.035923187 -0.02752525 0.029312573 -0.044129696 0.04171437
0.008142731 0.045761302 -0.0015474369 -0.016918072 0.017541021 0.012414924 -0.028665652 -0.022659877

gru.bias_hh_l1 f4 [192]
00000000: aa91 1ebc d4e3 13bd 9ca1 d7bb 1cff 0dbc
00000010: e1a3 3fbc 8b39 33bd 5504 31bd 5a59 49bc
00000020: d5fc 91bc e1a5 08bd d7e4 5dbd 2891 3ebd
00000030: d9af 2cbd 5a03 89bd bbcb 09bd 3fc3 05bd
00000040: 23a6 903b f533 27bd 5fd3 0fbd a6ec d9bc
00000050: e0e8 253d 54fc 473c bb03 9fbc 37a2 c33c
00000060: 42ab 88bd 7c3b d1bc 1f0c ccbc 6995 b9bc
00000070: 8c08 3dbc 7cc5 ecbc 87a2 c33b 8df2 29bd
00000080: f0e8 b33b 48ca 8dbb 2be7 73bc a7ef 06bd
00000090: 63ef 1dbd 66f0 c8bc f0af 16bd 0a04 073c
000000a0: ce57 10bc c688 933d a17a 15bd b27c 49bd
000000b0: 8db8 d13a 9d44 a4bc 702b 523c d93d 04bd
000000c0: 09a8 dfbc f6c3 c2bc f40e cc3c 23ac bbbc
000000d0: 3172 cabc da39 c6bb d032 b4bb 7b88 f23b
000000e0: 32e1 8ebc 13b1 353b 4d52 99bc 39e2 84bb
000000f0: 7049 f5bc 19e5 05bd 52e0 35bd 66e0 afba
00000100: 3ae0 843d 55c3 603d 6975 d83c 83cb c33c
00000110: a769 193d ba4c 8a3b b16d a23d 5f0d 9e3c
00000120: 41d1 3c3d 009e a43d acb4 4f3d b98b 3a3c
00000130: 54db 053d bb3e 203d 7311 9e3d 5978 ec3a
00000140: cb31 df3d 03ee a23d 37d7 043d e110 143d
00000150: 9208 543c 4c58 6a3c bc60 ce3b cf37 133d
00000160: c76e 843d 016c 8b3c 6e18 fe3c 3844 223c
00000170: bf28 f53c 44be b53c e97e 173d a464 193d
00000180: 0c32 2a3d 2c1a 833d 8790 013d 144d 0b3d
00000190: 5c1f 2cbc 078a c03c 7741 d13c e1c6 4f3d
000001a0: 5d70 5b3b 7da0 3abb 3b61 bd3c 1f1a 8a3c
000001b0: f3e9 df3b dffd dcbc 4143 413d b140 133d
000001c0: e3fd 8c3d 82bc 953c 2f1b 2c3c 98cc c23c
000001d0: 4003 6e3d 7848 923d c40f 9b3d da0c b43c
000001e0: 5e1d 8c3d 94b5 4b3c 674f ad3d d78d 15bc
000001f0: 4285 e03c a48e 8d3d 616a 903c af79 003d
00000200: d5d5 5ebc b4ae d43c fb87 fdbc 729e d5bc
00000210: 27ca efbc 265e 773c aa01 bebc 2623 eebc
00000220: b68f 883c 6d9b 0b3d 5c6c aa3c 1b15 093d
00000230: 7b03 a73c 4ea4 313b 6838 1cbc c017 85bc
00000240: 6554 db3b f470 bfbc 05d3 ec3c ee65 fcbc
00000250: 6b17 583d 4d91 0a3d 53bc d33c 525b 0abd
00000260: 6d28 c1bc 6281 603a ed92 c3bc 8237 cebb
00000270: 0aa2 d1bc 28b1 2dbd 0804 cf3c 3df3 8cba
00000280: 316d b7bc f2a6 8ebc ba82 583c 6c95 f0bc
00000290: 6070 aebc b05f 463c c11d a13c 9e62 be3c
000002a0: c569 f93c f69d 95bd af4c a53c c0fe 5b3c
000002b0: 43e7 babb 526e 71bc 1ab2 b23c ee57 b8bc
000002c0: c52e c03c 156c 12bc 56ec 1bbd 85b5 d43c
000002d0: 4a3f a5bc be33 a73c 8c1c e0bc 5a09 0d3d
000002e0: 2b62 af3c a6cb 073d b01b 2dbc 769d 32bc
000002f0: 993f ce3c 33a3 ad3c 8032 eebc 77fc 91bc
-0.009678284 -0.036105946 -0.0065805446 -0.00866678 -0.011696787 -0.04375605 -0.043217022 -0.0122893695
-0.017820755 -0.03336132 -0.054173317 -0.04652515 -0.04215989 -0.066900924 -0.03364156 -0.032656904
0.0044143363 -0.040821034 -0.03511369 -0.0266021 0.04050529 0.012206156 -0.019410959 0.023881061
-0.0667329 -0.02554106 -0.024908124 -0.022654252 -0.011537682 -0.028902762 0.0059703025 -0.04149108
0.005490415 -0.0043270923 -0.014886658 -0.032943394 -0.038558375 -0.024528693 -0.03678888 0.008240709
-0.008809997 0.07203822 -0.0364939 -0.049191184 0.0016000435 -0.020052249 0.012827739 -0.032285545
-0.027301805 -0.023775082 0.024909474 -0.02290923 -0.024712654 -0.006049377 -0.0054992214 0.0074015236
-0.017441366 0.0027723953 -0.018716002 -0.004055288 -0.029942244 -0.032689188 -0.04440338 -0.0013418316
0.0648808 0.054873783 0.026423173 0.023900753 0.037454274 0.0042205723 0.07931078 0.019293485
0.046097998 0.080379486 0.05070941 0.011385852 0.03267987 0.039122324 0.07718172 0.0018041237
0.10898169 0.079555534 0.032431807 0.03614891 0.012941496 0.014303278 0.0062981527 0.035941895
0.064664416 0.017019274 0.031017508 0.00990396 0.029926656 0.022185452 0.036986265 0.037449494
0.041551635 0.06401476 0.031631973 0.034009054 -0.0105055235 0.023503317 0.025543911 0.050726775
0.0033483722 -0.0028477006 0.023117652 0.016858159 0.006833309 -0.026976524 0.04718328 0.035950366
0.068843625 0.018278364 0.010504528 0.023779199 0.05810857 0.071427286 0.075713664 0.021978784
0.06841539 0.012433428 0.084624104 -0.009128056 0.027407292 0.06911972 0.01762885 0.031366047
-0.013600786 0.025962211 -0.03094863 -0.02607653 -0.029271198 0.01509813 -0.023194153 -0.029069494
0.01667009 0.034083772 0.020803623 0.033467393 0.020387402 0.002710599 -0.009534933 -0.016246676
0.00669341 -0.02336929 0.028909216 -0.030810323 0.052756708 0.033829976 0.025846636 -0.033778496
-0.023578847 0.00085642014 -0.02387377 -0.006293238 -0.025589962 -0.042405277 0.025270477 -0.0010753643
-0.022390934 -0.01741359 0.013214761 -0.029368125 -0.021293819 0.012107775 0.019667508 0.023240384
0.030445943 -0.07305519 0.020178167 0.013427436 -0.005703838 -0.014735775 0.021813441 -0.022502866
0.023459801 -0.008936902 -0.038067184 0.025965462 -0.02017178 0.020410415 -0.027357362 0.034432746
0.021409115 0.0331532 -0.010565683 -0.010901799 0.02517681 0.021195984 -0.029076815 -0.01782058

fc.weight f4 [1, 64]
00000000: f31a dbbb 3cbf c33c 7507 04bd 2f14 f1bc
00000010: 3c26 8bbc e641 8b3c a3a1 83bd 67df 34bd
00000020: 35ff 1f3d 65ea 3e3d 9b96 3a3d 914a eb3b
00000030: 90cc 333d 33dd f63a c31e 64bd a92e 60bb
00000040: 4afc 853d d2e3 9cbc 6ff8 ba3c d023 cebc
00000050: 87b8 be3c a07e 623c 4bad 4b3c 1929 afbc
00000060: d7c6 83bc 92f9 82ba 12c3 2dbd 8241 c0bc
00000070: fe98 fcbc 2c74 0ebd 4aff 543c c075 0c3c
00000080: 3c68 2dbd b7fd f0bc 10f3 413d 75b0 dcbc
00000090: 4dad f9bb 4308 793c fab9 413c 5cfb dc3c
000000a0: 8ae5 6b3c efd7 bcbc b90c d03c 1456 a13c
000000b0: 9c1a 38bb ea4d 253b 068e c53c 2662 b8bc
000000c0: 5c27 ba3c 9431 03bd ac57 d5bc 3a3b 4f3d
000000d0: 71b5 01bd edab ca3c ab4e e5bc 9e2c 103d
000000e0: d193 693d 0066 d43c 62fc 7bbd b2f0 08bc
000000f0: e63b 663d 6e96 b03c 6387 c4bc 8d21 d2bc
-0.006686562 0.023894899 -0.032233674 -0.02942857 -0.016986005 0.016999196 -0.06427314 -0.044158366
0.039061744 0.046610255 0.045553785 0.00718052 0.043896258 0.0018834233 -0.0556934 -0.00342075
0.06542261 -0.019151602 0.02282354 -0.025163561 0.023281349 0.013824135 0.012431453 -0.021381902
-0.016086025 -0.0009992591 -0.04242236 -0.023468737 -0.030834671 -0.03477876 0.013000319 0.008572996
-0.042335734 -0.029417856 0.047350943 -0.02693961 -0.007619536 0.015199724 0.011824125 0.026975326
0.014397988 -0.023052184 0.025396692 0.019694366 -0.0028092032 0.0025223442 0.024115574 -0.022507738
0.022723846 -0.032029703 -0.026042782 0.050593592 -0.031667177 0.024740184 -0.027991613 0.0351988
0.057025734 0.025927544 -0.061519988 -0.0083581675 0.056209467 0.021556105 -0.023990339 -0.025650764
