ML/models/SOL/4h/gru_model.pth (torch, 169011 bytes, 9 tensors)

gru.weight_ih_l0 f4 [192, 19]
00000000: 8bef 11be 45cd 013e 409d dc3c 7941 183e
00000010: 17cd b2bd 0aed e33d efd0 27be f506 9b3d
00000020: 46d2 0cbd 79c3 283e 0db6 9ebc 14cf ee3d
00000030: 936c b53c ddd6 f63c 75a9 12be 51f0 ad3d
00000040: e4f3 adbd 9b86 1abe 0759 a43d 278c 013e
00000050: 78b2 7bbd f48b ee3d 320a 1abe 6a67 00be
00000060: 4859 b0bc 25f9 963d 3340 d43c 6bcc 59bd
00000070: a29b 0f3e 7573 9a3d 3c5f 173e dd26 25be
00000080: 6902 ea3d 1beb d53d cb9e b3bd 0515 4b3d
00000090: ceeb 993d f0c7 2a3d 7b35 17bc 8db5 803c
000000a0: c85a 343d c0cf 923d 0d8e 273e 78f2 ad3d
000000b0: 8ec5 d5bd 81e1 03be 99a1 cfbd e286 5dbb
000000c0: 0698 d63d d004 4ebd a11f 92bd fd15 14be
000000d0: 934e 793d e492 ddbd 0532 923d 0088 1d3e
000000e0: e948 153e 7979 86bd fb7b 133e 4e39 debd
000000f0: d7d1 00bd e27b 193e 8a84 01be 6589 babc
00000100: a892 303d 8df0 e53d c87c 463d 2c56 0e3e
00000110: da57 323b ef37 793d f9d8 edbd 4b3e 04bc
00000120: 49de c83d f8c2 f03d b2bb 3f3d fe1f 183e
00000130: 86a9 883d 8aa6 8ebd 04fa ed3d 21de a7bd
00000140: 9465 b8bd daec 883d 3634 243d ecd3 aabd
00000150: c75c 0abe 1bc3 173e 5745 db3d 7a2d 903d
00000160: 32a0 a1bb a43a 11bd a942 20be b876 3b3d
00000170: 640f 8d3d ed80 23be 86f0 f13d 56ac 213d
00000180: 6558 c2bd d828 0b3e 9371 14be 2285 493d
00000190: 9ca3 1c3e 0648 d0bd ce44 f9bd c59a 073e
000001a0: 6c43 c1bd c72a c7bd 4800 d03c 07d1 c0bd
000001b0: 6e18 89bd c6cb 21be bdce c93c 8dcf e33d
000001c0: fe47 a13d 7e1d 27bd 0d14 4ebd 3f04 f73d
000001d0: 08ec d3bd 524b f4bc 8380 84bd eed9 8e3d
000001e0: 4945 803c 0598 17be bef0 93bc 7ec2 1abe
000001f0: 0f83 d4bd 14cf c23d ce7c c83d 5e4f 613d
00000200: fa27 1cbc a7eb 663d 3754 093e 1c10 bdbd
00000210: 766d 113e 1c72 77bd ec8d 243e 8b61 e7bd
00000220: 07b7 213e 63af 24be 86b0 13be 6b45 063d
00000230: 5c4e 40bd 4507 7e3d fe86 b03d 33cd fd3d
00000240: 1146 b73d f1ff 96bc 7b3f 19be a4a9 0e3e
00000250: 3540 5cbd 11cc 283d d4a4 c33d a222 a6bb
00000260: 576b ebbd 5248 b7bd 6136 c73b 506d ed3d
00000270: 172f 8a3d f252 afbd 6740 60bd 2c09 233e
00000280: f7a9 0fbe 234b 2a3e 5f47 adbd bc1a 173e
00000290: b990 c7bc f9e9 acbd e1c1 34bc b5aa 0b3e
000002a0: 539a ab3d b48e 1f3e 1a88 14be 5b74 363c
000002b0: 8004 413d 228e 92bd dd93 273e e18d 083e
000002c0: b2ab 74bd b8c9 13be fff8 04be 0d7b 2cbe
000002d0: b95c f63d 6c5d 8b3d 960f 08be 9b66 f3bd
000002e0: ff83 01bc 48aa f5bd a760 973c fd89 abbd
000002f0: 7d7a 23be 0f65 053c 828c 853d 5ea2 7fbc
00000300: 53a0 dcbd a680 733d d0a6 6b3d e80c 863d
00000310: b590 4bbd fe31 693d e609 67bd 82a3 93bb
00000320: c57d 8b3c a4ab 10be 976c 8d3d b1ee 1b3e
00000330: 21e3 113e 543d dbbd e5e8 263e 5aaa 9fbb
00000340: 85d3 c43c e042 b93d ccdd 29be 4804 03be
00000350: c863 b1bd 8102 d93d 5538 0ebe 23c1 1ebb
00000360: 7dc8 88bd a9f4 1b3e 11e2 213d fe18 31bd
00000370: 7be9 f7bd 5367 ebbd 161a a7bd 9a4a 3abd
00000380: 0524 57bc e65c 9f3d 678a 24bd 0ef8 ff3d
00000390: 99fe 52bd 8fd1 1abe 72af acbc 3f36 da3d
000003a0: cc4e f3bd 1ca1 a0bd 25fd 133e 7d07 cfbd
000003b0: bab6 0fbe 25bb ea3d 0e5f 083d 8053 17bd
000003c0: d50e 073e c840 99bc e3e3 04bc 4e20 de3d
000003d0: d099 0a3e ca87 133d 200c 2a3e 0260 183e
000003e0: 70b4 9ebd bbb1 d83d b193 e63c ad88 39bd
000003f0: 8152 cabd 7e85 a63c 0760 c1bc 91e4 d13d
-0.14251535 0.1267596 0.026930451 0.14868726 -0.08730524 0.11129196 -0.16388296 0.07569686
-0.03438022 0.16480817 -0.019373918 0.11660591 0.022146499 0.030131752 -0.14322455 0.08493102
-0.08493784 -0.1509041 0.08024793 0.1265112 -0.061449498 0.11647788 -0.15042952 -0.1253945
-0.021526948 0.07371739 0.025909519 -0.053173464 0.14024213 0.07541553 0.14782423 -0.16128106
0.11426241 0.104452334 -0.08770522 0.049580593 0.07515679 0.04169458 -0.009229059 0.01571157
0.04403189 0.071685314 0.16362782 0.08493513 -0.10438071 -0.12878992 -0.10138244 -0.003380232
0.10478215 -0.05029756 -0.07134939 -0.14461513 0.06086595 -0.10819033 0.07138447 0.15383911
0.14578594 -0.06566138 0.14402764 -0.10850774 -0.03145012 0.14988664 -0.12648216 -0.022770593
0.043108612 0.11227522 0.048458844 0.1390006 0.0027213008 0.060844358 -0.1161365 -0.008071492
0.098080225 0.11755937 0.04680986 0.14855954 0.06672959 -0.069653586 0.11619952 -0.081966646
-0.090037495 0.06685801 0.040088855 -0.08341202 -0.13511954 0.1482052 0.10706585 0.07039924
-0.004932427 -0.035456315 -0.15650429 0.045767516 0.06887701 -0.1596715 0.11813454 0.039470993
-0.09489516 0.135898 -0.1449645 0.04919923 0.15296787 -0.101699874 -0.121713266 0.13242634
-0.09436688 -0.09724956 0.02539076 -0.09414869 -0.06694113 -0.1580039 0.024634713 0.111235715
0.078750595 -0.04079961 -0.05031209 0.12061357 -0.10347754 -0.029821072 -0.06469824 0.069751605
0.015658038 -0.14804085 -0.01805913 -0.15113255 -0.1037656 0.09512153 0.097894296 0.05500733
-0.0095310155 0.05637708 0.13411032 -0.09231588 0.14201912 -0.060411558 0.16069764 -0.11297902
0.15792476 -0.1608253 -0.14422807 0.032781046 -0.04694973 0.06201865 0.08619498 0.12392654
0.08948911 -0.01843259 -0.14965622 0.139319 -0.05377217 0.041210238 0.09552923 -0.0050700465
-0.11495083 -0.08949341 0.0060794805 0.11593115 0.06747263 -0.085607424 -0.05474892 0.15921468
-0.1402968 0.16630225 -0.084608786 0.14756292 -0.024361001 -0.08443064 -0.011032552 0.13639338
0.083790444 0.1558178 -0.14505044 0.01113614 0.047123432 -0.07156016 0.16364999 0.13335373
-0.059734054 -0.14432418 -0.1298561 -0.16843815 0.12029404 0.06804928 -0.13287196 -0.11884805
-0.0079050055 -0.11995369 0.018478705 -0.083759286 -0.15964694 0.00814177 0.0652094 -0.015602676
-0.10772767 0.05944886 0.05753213 0.065454304 -0.04969855 0.056932442 -0.056405924 -0.0045055756
0.017027745 -0.14127976 0.069054775 0.15227772 0.14246799 -0.10705057 0.1629978 -0.0048726024
0.024026642 0.090459585 -0.16588515 -0.12794602 -0.0866161 0.10596181 -0.13888676 -0.0024224005
-0.06678865 0.15230049 0.039522234 -0.043236725 -0.1210508 -0.11494317 -0.081592724 -0.0454813
-0.013131146 0.07781391 -0.040171053 0.124984846 -0.051512334 -0.15119003 -0.021079753 0.10654878
-0.11880264 -0.07843229 0.14452036 -0.1010885 -0.14034548 0.11461476 0.033293776 -0.036944866
0.13189252 -0.018707648 -0.008110973 0.108460054 0.13535237 0.03601817 0.16606188 0.14880374
-0.077492595 0.105807744 0.028146597 -0.04529636 -0.098790176 0.020327326 -0.02360536 0.10248674

gru.weight_hh_l0 f4 [192, 64]
00000000: b0b1 cd3d e683 2b3d 0d01 543e c0ec 813b
00000010: 500e 583d 69f3 093d 9112 3b3e 64ff 67bd
00000020: 5e95 d03d e7ee 0d3d d2bb d6bd d8af 10bc
00000030: 624a 81bd b867 9fbc 0a9c 423e 5652 623c
00000040: e0cc 323b ec65 c3bd 44a5 9d3c 07a9 7f3c
00000050: ac4b 133b df79 9d3d ae34 8a3d 48cf 313d
00000060: fe6b b63d 77d5 cabc 2892 debc 786d 08bd
00000070: 1e47 c8bd bdf9 f43a e3b5 3b3d 2345 173d
00000080: 96dc a0bd 1e0e bdbc e8be 8cbc 968a 153c
00000090: 10d3 a73d 14c1 9d3b 4590 813d e027 503d
000000a0: ee3f 2e3d 4386 f43c 2adf 24bd 6540 5f3c
000000b0: 021f 8ebd ba91 933d 3e05 9ebd 8279 cc3d
000000c0: 85a2 933d 5fd7 cebc 4f64 43bd 9aed debb
000000d0: aee8 dbbb 2423 62bc 1cb9 2cbd 61ab 91bd
000000e0: 5342 883c 8b99 493d ae34 12bd b755 2bbd
000000f0: 0e0f d2bd c053 7cbc affe cebd 48d5 17bd
00000100: e1ef dc3d 8079 79bc b669 6fbd 6d5f 2a3c
00000110: 304f 03bd dfa4 03be 045f 82bc 6744 4e3d
00000120: 091e cb3d 02d5 55bd 17af 5bbd 960b 0cbc
00000130: 3a5f 313b 86b0 38bd e597 803d 6c3e 82bd
00000140: 02a7 183d 05ed 013e e16e 0e3d f538 74bd
00000150: a74f 0d3d 2a18 54bd 74ca 7cbd a3a9 d0bd
00000160: f39c a3bd e622 4abd a67b b43d 2e0a 1b3d
00000170: b521 a0bd 6d39 0e3e 4eaa 453c acb7 8a3c
00000180: 4024 b83d d54e e4bd b79c 273d 924b 693d
00000190: 1db8 f0bd 6434 d23a e0c1 f73c d467 bf3b
000001a0: 28ba 6aba d234 613d 0f9a 89bd 77b0 9f3d
000001b0: 113f 873d bcdf 173e ec36 57bc f5f1 ebbd
000001c0: d008 5d3d f0ba c93d 309c 913d 2102 d33c
000001d0: f609 27bb 0893 7bb9 9bcb 30be 0352 26be
000001e0: f17e bebc 646b 50bd 1fa5 48bd f4ce 3dbe
000001f0: ea91 87bc 98d7 48bc eacf a43c a872 083e
00000200: 4baa e33b 3ae6 aa3d 502e 983d f88b 243e
00000210: 50ae a6bd 2379 08be 1dca df3d 7bde 4abd
00000220: 95ee 9fbd 5e1e d93b 2434 903c 3c7c 063e
00000230: 42f5 5dbd 5f46 20bd fe84 343d cd9e 5cba
00000240: 8374 2fbe 2543 4bbd 9e8d 673d c53d 4e3e
00000250: 2d8e 11bc 065b 0cbc 26b3 89bd 1428 0ebd
00000260: 8d41 883d ea10 babc cc36 763d d701 4d3d
00000270: 5012 123e 98e7 6a3d 3cdb c13c 36ae 183d
00000280: 62c4 98bc ef31 86bd 25b4 053e 0c59 033e
00000290: 7313 b73c 1335 ab3b 0cce 55bd ea5f 29bd
000002a0: 4464 5ebd de97 623d d6c8 ecbc 39e9 87bb
000002b0: 5f07 f63d 2661 b0bd 970b edbd aa52 cd3b
000002c0: c090 123d eed2 40bd 2d1c e63d 4cb2 c5bd
000002d0: c057 d1bd 3078 e4bc 3cdc 62bc 91c4 883d
000002e0: 80c5 ebbb 16cd 93bc 5202 2e3d 4b9f 893c
000002f0: 928a b1bc 2811 413c 71de c53d 48c1 94bd
00000300: 8846 22bd e572 f6bd 9141 693d 5080 aebd
00000310: 04cd d93c 19d1 e2bd 8ae5 73bd 47f8 c3bd
00000320: f958 7cbb 939e a03d bc36 663c 685f b93c
00000330: b829 753d 271d ae3d 9452 d03c ab07 c2bc
00000340: d11f 173c 496c cebd ab91 653d 0dce e13d
00000350: e2ff f93c ca5d edbc 8640 8c3d a9ca c0bc
00000360: 946f 72bd 2f6d ba3c 5778 a0bd ee9e f33d
00000370: 08cd 023d cf5f e2bd 7ab5 9d3d 9e97 bf3c
00000380: 8ae4 4abd 80bd 8ebd 7641 a03d b90b 673d
00000390: 0e43 913b 8d6f e7bd 6eb7 dabb e2c2 053c
000003a0: 8352 833d 32f3 6d3c b143 20be 5a10 453d
000003b0: 8211 cbbc 51d2 8a3d 5cb7 07bd 8133 49be
000003c0: d884 97bd 08f6 a9bd 0a60 ec3b e086 8cbd
000003d0: f9f2 0e3d 5f7c febd 9dc6 8bbd c414 233d
000003e0: 856c 3abe c5a8 32bd 6aa4 c03b bb4a e8bc
000003f0: 1df9 5c3d 08d5 66bb b0d3 3939 1895 47bd
0.10043657 0.041873835 0.20703526 0.0039649904 0.052748024 0.0336794 0.18268801 -0.056640044
0.101847395 0.034651663 -0.10485043 -0.008830987 -0.063130155 -0.019458637 0.19004837 0.013813576
0.002728276 -0.095409244 0.019243844 0.015604264 0.0022475524 0.07689261 0.06748329 0.04341057
0.089073166 -0.024759991 -0.027169302 -0.033307523 -0.097791895 0.001869015 0.045827758 0.03693117
-0.078545734 -0.02307802 -0.017180875 0.00912728 0.08194554 0.0048142765 0.06326345 0.050819278
0.042541437 0.029849177 -0.04025189 0.013626193 -0.06939508 0.072055295 -0.077158436 0.09984113
0.072087325 -0.025249181 -0.047703084 -0.0068032267 -0.006711087 -0.0138023235 -0.04216872 -0.07112766
0.016633188 0.049218696 -0.03569477 -0.04182979 -0.10256778 -0.015400827 -0.10107171 -0.037068635
0.10787941 -0.015226722 -0.058450423 0.010398728 -0.03205794 -0.12855862 -0.015914448 0.050358202
0.09917838 -0.052205093 -0.053633776 -0.008547684 0.0027064816 -0.04509022 0.062789716 -0.06359562
0.037268646 0.12688072 0.03477371 -0.05962463 0.03449979 -0.051780857 -0.06171651 -0.10188606
-0.0798892 -0.049349688 0.088126466 0.037851505 -0.07818929 0.13889094 0.01206453 0.016933285
0.08991289 -0.111478485 0.04092094 0.056956835 -0.11753867 0.0016037342 0.030243814 0.0058412347
-0.0008954131 0.054982014 -0.067188375 0.0779733 0.06603826 0.14831442 -0.013135653 -0.11520759
0.053963482 0.098501086 0.071098685 0.025757851 -0.0025488115 -0.00023991999 -0.1726517 -0.16242222
-0.02325389 -0.050883666 -0.048985597 -0.18535978 -0.01654907 -0.012258433 0.020118672 0.13324988
0.0069477907 0.083446935 0.074307084 0.16069019 -0.08138716 -0.1332746 0.10927222 -0.04952858
-0.07809178 0.0066259345 0.017602988 0.13133329 -0.054188974 -0.03912961 0.044072144 -0.0008415997
-0.1713429 -0.04962458 0.05653154 0.2014075 -0.008883995 -0.008566624 -0.06723623 -0.03470619
0.06653128 -0.022713143 0.060110852 0.050050583 0.14264798 0.05734977 0.02366411 0.037275515
-0.01864833 -0.06552493 0.13057001 0.12826937 0.022348141 0.005224833 -0.052198455 -0.041351236
-0.05429484 0.055320613 -0.02890436 -0.0041476754 0.12013125 -0.086122796 -0.11574476 0.006265958
0.035782576 -0.04707616 0.11235843 -0.09653148 -0.10221815 -0.027889341 -0.013846453 0.06678117
-0.0071951747 -0.018042129 0.04248268 0.01679959 -0.02167252 0.0117838755 0.09661568 -0.07263428
-0.039618045 -0.12033633 0.056947295 -0.085205674 0.026587017 -0.110750385 -0.059545077 -0.095688395
-0.003850518 0.07842746 0.014051136 0.022628501 0.05985424 0.08501654 0.025430001 -0.023685297
0.009223894 -0.100792475 0.056047123 0.11025629 0.030517522 -0.028975386 0.06848244 -0.023534136
-0.05918844 0.02275714 -0.07835453 0.11895548 0.031933814 -0.1105343 0.077006295 0.023387726
-0.049534358 -0.06969738 0.07824986 0.056407664 0.0044330424 -0.113005735 -0.0066746986 0.008164139
0.06412222 0.014523314 -0.15650822 0.048111297 -0.024788622 0.06778396 -0.03313385 -0.19648553
-0.07398385 -0.0829888 0.007213597 -0.06861663 0.034899686 -0.12426066 -0.06824992 0.039814726
-0.1820546 -0.043617982 0.0058789747 -0.028355947 0.05394851 -0.0035222191 0.00017721835 -0.04872617

gru.bias_ih_l0 f4 [192]
00000000: 0000 0000 0000 0000 0000 0000 0000 0000
00000010: 0000 0000 0000 0000 0000 0000 0000 0000
00000020: 0000 0000 0000 0000 0000 0000 0000 0000
00000030: 0000 0000 0000 0000 0000 0000 0000 0000
00000040: 0000 0000 0000 0000 0000 0000 0000 0000
00000050: 0000 0000 0000 0000 0000 0000 0000 0000
00000060: 0000 0000 0000 0000 0000 0000 0000 0000
00000070: 0000 0000 0000 0000 0000 0000 0000 0000
00000080: 0000 0000 0000 0000 0000 0000 0000 0000
00000090: 0000 0000 0000 0000 0000 0000 0000 0000
000000a0: 0000 0000 0000 0000 0000 0000 0000 0000
000000b0: 0000 0000 0000 0000 0000 0000 0000 0000
000000c0: 0000 0000 0000 0000 0000 0000 0000 0000
000000d0: 0000 0000 0000 0000 0000 0000 0000 0000
000000e0: 0000 0000 0000 0000 0000 0000 0000 0000
000000f0: 0000 0000 0000 0000 0000 0000 0000 0000
00000100: 0000 0000 0000 0000 0000 0000 0000 0000
00000110: 0000 0000 0000 0000 0000 0000 0000 0000
00000120: 0000 0000 0000 0000 0000 0000 0000 0000
00000130: 0000 0000 0000 0000 0000 0000 0000 0000
00000140: 0000 0000 0000 0000 0000 0000 0000 0000
00000150: 0000 0000 0000 0000 0000 0000 0000 0000
00000160: 0000 0000 0000 0000 0000 0000 0000 0000
00000170: 0000 0000 0000 0000 0000 0000 0000 0000
00000180: 0000 0000 0000 0000 0000 0000 0000 0000
00000190: 0000 0000 0000 0000 0000 0000 0000 0000
000001a0: 0000 0000 0000 0000 0000 0000 0000 0000
000001b0: 0000 0000 0000 0000 0000 0000 0000 0000
000001c0: 0000 0000 0000 0000 0000 0000 0000 0000
000001d0: 0000 0000 0000 0000 0000 0000 0000 0000
000001e0: 0000 0000 0000 0000 0000 0000 0000 0000
000001f0: 0000 0000 0000 0000 0000 0000 0000 0000
00000200: 0000 0000 0000 0000 0000 0000 0000 0000
00000210: 0000 0000 0000 0000 0000 0000 0000 0000
00000220: 0000 0000 0000 0000 0000 0000 0000 0000
00000230: 0000 0000 0000 0000 0000 0000 0000 0000
00000240: 0000 0000 0000 0000 0000 0000 0000 0000
00000250: 0000 0000 0000 0000 0000 0000 0000 0000
00000260: 0000 0000 0000 0000 0000 0000 0000 0000
00000270: 0000 0000 0000 0000 0000 0000 0000 0000
00000280: 0000 0000 0000 0000 0000 0000 0000 0000
00000290: 0000 0000 0000 0000 0000 0000 0000 0000
000002a0: 0000 0000 0000 0000 0000 0000 0000 0000
000002b0: 0000 0000 0000 0000 0000 0000 0000 0000
000002c0: 0000 0000 0000 0000 0000 0000 0000 0000
000002d0: 0000 0000 0000 0000 0000 0000 0000 0000
000002e0: 0000 0000 0000 0000 0000 0000 0000 0000
000002f0: 0000 0000 0000 0000 0000 0000 0000 0000
0.0 0.0 0.0 0.0 0.0 0.0 0.0 0.0
0.0 0.0 0.0 0.0 0.0 0.0 0.0 0.0
0.0 0.0 0.0 0.0 0.0 0.0 0.0 0.0
0.0 0.0 0.0 0.0 0.0 0.0 0.0 0.0
0.0 0.0 0.0 0.0 0.0 0.0 0.0 0.0
0.0 0.0 0.0 0.0 0.0 0.0 0.0 0.0
0.0 0.0 0.0 0.0 0.0 0.0 0.0 0.0
0.0 0.0 0.0 0.0 0.0 0.0 0.0 0.0
0.0 0.0 0.0 0.0 0.0 0.0 0.0 0.0
0.0 0.0 0.0 0.0 0.0 0.0 0.0 0.0
0.0 0.0 0.0 0.0 0.0 0.0 0.0 0.0
0.0 0.0 0.0 0.0 0.0 0.0 0.0 0.0
0.0 0.0 0.0 0.0 0.0 0.0 0.0 0.0
0.0 0.0 0.0 0.0 0.0 0.0 0.0 0.0
0.0 0.0 0.0 0.0 0.0 0.0 0.0 0.0
0.0 0.0 0.0 0.0 0.0 0.0 0.0 0.0
0.0 0.0 0.0 0.0 0.0 0.0 0.0 0.0
0.0 0.0 0.0 0.0 0.0 0.0 0.0 0.0
0.0 0.0 0.0 0.0 0.0 0.0 0.0 0.0
0.0 0.0 0.0 0.0 0.0 0.0 0.0 0.0
0.0 0.0 0.0 0.0 0.0 0.0 0.0 0.0
0.0 0.0 0.0 0.0 0.0 0.0 0.0 0.0
0.0 0.0 0.0 0.0 0.0 0.0 0.0 0.0
0.0 0.0 0.0 0.0 0.0 0.0 0.0 0.0

gru.bias_hh_l0 f4 [192]
00000000: 0000 0000 0000 0000 0000 0000 0000 0000
00000010: 0000 0000 0000 0000 0000 0000 0000 0000
00000020: 0000 0000 0000 0000 0000 0000 0000 0000
00000030: 0000 0000 0000 0000 0000 0000 0000 0000
00000040: 0000 0000 0000 0000 0000 0000 0000 0000
00000050: 0000 0000 0000 0000 0000 0000 0000 0000
00000060: 0000 0000 0000 0000 0000 0000 0000 0000
00000070: 0000 0000 0000 0000 0000 0000 0000 0000
00000080: 0000 0000 0000 0000 0000 0000 0000 0000
00000090: 0000 0000 0000 0000 0000 0000 0000 0000
000000a0: 0000 0000 0000 0000 0000 0000 0000 0000
000000b0: 0000 0000 0000 0000 0000 0000 0000 0000
000000c0: 0000 0000 0000 0000 0000 0000 0000 0000
000000d0: 0000 0000 0000 0000 0000 0000 0000 0000
000000e0: 0000 0000 0000 0000 0000 0000 0000 0000
000000f0: 0000 0000 0000 0000 0000 0000 0000 0000
00000100: 0000 0000 0000 0000 0000 0000 0000 0000
00000110: 0000 0000 0000 0000 0000 0000 0000 0000
00000120: 0000 0000 0000 0000 0000 0000 0000 0000
00000130: 0000 0000 0000 0000 0000 0000 0000 0000
00000140: 0000 0000 0000 0000 0000 0000 0000 0000
00000150: 0000 0000 0000 0000 0000 0000 0000 0000
00000160: 0000 0000 0000 0000 0000 0000 0000 0000
00000170: 0000 0000 0000 0000 0000 0000 0000 0000
00000180: 0000 0000 0000 0000 0000 0000 0000 0000
00000190: 0000 0000 0000 0000 0000 0000 0000 0000
000001a0: 0000 0000 0000 0000 0000 0000 0000 0000
000001b0: 0000 0000 0000 0000 0000 0000 0000 0000
000001c0: 0000 0000 0000 0000 0000 0000 0000 0000
000001d0: 0000 0000 0000 0000 0000 0000 0000 0000
000001e0: 0000 0000 0000 0000 0000 0000 0000 0000
000001f0: 0000 0000 0000 0000 0000 0000 0000 0000
00000200: 0000 0000 0000 0000 0000 0000 0000 0000
00000210: 0000 0000 0000 0000 0000 0000 0000 0000
00000220: 0000 0000 0000 0000 0000 0000 0000 0000
00000230: 0000 0000 0000 0000 0000 0000 0000 0000
00000240: 0000 0000 0000 0000 0000 0000 0000 0000
00000250: 0000 0000 0000 0000 0000 0000 0000 0000
00000260: 0000 0000 0000 0000 0000 0000 0000 0000
00000270: 0000 0000 0000 0000 0000 0000 0000 0000
00000280: 0000 0000 0000 0000 0000 0000 0000 0000
00000290: 0000 0000 0000 0000 0000 0000 0000 0000
000002a0: 0000 0000 0000 0000 0000 0000 0000 0000
000002b0: 0000 0000 0000 0000 0000 0000 0000 0000
000002c0: 0000 0000 0000 0000 0000 0000 0000 0000
000002d0: 0000 0000 0000 0000 0000 0000 0000 0000
000002e0: 0000 0000 0000 0000 0000 0000 0000 0000
000002f0: 0000 0000 0000 0000 0000 0000 0000 0000
0.0 0.0 0.0 0.0 0.0 0.0 0.0 0.0
0.0 0.0 0.0 0.0 0.0 0.0 0.0 0.0
0.0 0.0 0.0 0.0 0.0 0.0 0.0 0.0
0.0 0.0 0.0 0.0 0.0 0.0 0.0 0.0
0.0 0.0 0.0 0.0 0.0 0.0 0.0 0.0
0.0 0.0 0.0 0.0 0.0 0.0 0.0 0.0
0.0 0.0 0.0 0.0 0.0 0.0 0.0 0.0
0.0 0.0 0.0 0.0 0.0 0.0 0.0 0.0
0.0 0.0 0.0 0.0 0.0 0.0 0.0 0.0
0.0 0.0 0.0 0.0 0.0 0.0 0.0 0.0
0.0 0.0 0.0 0.0 0.0 0.0 0.0 0.0
0.0 0.0 0.0 0.0 0.0 0.0 0.0 0.0
0.0 0.0 0.0 0.0 0.0 0.0 0.0 0.0
0.0 0.0 0.0 0.0 0.0 0.0 0.0 0.0
0.0 0.0 0.0 0.0 0.0 0.0 0.0 0.0
0.0 0.0 0.0 0.0 0.0 0.0 0.0 0.0
0.0 0.0 0.0 0.0 0.0 0.0 0.0 0.0
0.0 0.0 0.0 0.0 0.0 0.0 0.0 0.0
0.0 0.0 0.0 0.0 0.0 0.0 0.0 0.0
0.0 0.0 0.0 0.0 0.0 0.0 0.0 0.0
0.0 0.0 0.0 0.0 0.0 0.0 0.0 0.0
0.0 0.0 0.0 0.0 0.0 0.0 0.0 0.0
0.0 0.0 0.0 0.0 0.0 0.0 0.0 0.0
0.0 0.0 0.0 0.0 0.0 0.0 0.0 0.0

gru.weight_ih_l1 f4 [192, 64]
00000000: e1d5 32be 3d54 283e 1e21 75bd bcf8 033e
00000010: 9d89 7cbc e6d5 a6bc 7275 e93d 97db db3d
00000020: 747b 9d3d f8c8 863c 9cd3 bc3c ca51 c4bd
00000030: 7fbf 0cba 44a4 61bd 0afc 00be d73e b53d
00000040: 9a28 323d 665e 273e 37a1 d53b 1771 aa3d
00000050: 4238 a2bd 18ed 97bd a659 13be 90ab f8bc
00000060: b9c5 9cbd 1573 f4bd 5f1a 003e 398a d9bb
00000070: b16c ff3d fe86 5f3d e277 193e 8379 51bd
00000080: 981e fb3d 1c75 173e 26dd a2bd 7f71 82bd
00000090: 9b86 26be 070d b63d b085 dcbd 2b76 02bb
000000a0: 7ff8 bdbd 4c89 5a3d 5707 bcbd 5248 1ebd
000000b0: ce57 17be 9a43 a53d 60b5 fe3d a3ed 3c3d
000000c0: 57f8 7e3d 03ee ad3d e14a 853c 324f 1a3c
000000d0: 0566 983d 0df1 03be bbd7 483d e34a a43d
000000e0: 76c2 1bbd 63a3 a8bd 6082 a53d e8d6 e3bc
000000f0: 1bc5 2cbe 0384 8fbd 2b49 d93d 05a6 95bb
00000100: 072c a3ba 534d 21bd a78f 023d f923 383d
00000110: 808c 44bb 4439 98bd 47e3 a13c a90e 04bd
00000120: a09c f33d d173 443d 8af5 bdbd d6ea f8bd
00000130: d968 a5bd 0738 e23c dfba 8abd a7b4 b3bd
00000140: d401 a83c 8da4 72bd fa8d 273d 52b8 2b3e
00000150: a93c a03d 0fc3 8fbd 5391 ffbc 6d30 063e
00000160: 45c4 483b a6e6 30be bfe4 8b3d 4f22 08be
00000170: ad59 093e 6873 e63d fd13 17be 098b c13d
00000180: 215f 2dbe 9095 953c e823 22bc 0f63 3f3d
00000190: 13e0 d2bc 165b 1d3d 6f7f b63d 54b3 183d
000001a0: 72a9 ef3c 21c1 033e cfaf 7dbd c18f 94bd
000001b0: d7ae 3dbd a336 a53d 828f dabd eb9d 48bc
000001c0: ae9e c13d 763c 8dbd f958 233e b9ea f53c
000001d0: 3aac cf3c e5f1 debb 345f a7bc e8d1 083e
000001e0: 3a0c 0abe 154b d6bc 5a6e dcbd 38ff b73d
000001f0: 8ae8 e2bd d983 00bd a53b 1d3c a3f9 0cbe
00000200: 7367 363d 2b5a d93d 9aec a53d 196f 00bd
00000210: 3599 f6bd 2bcf edbd 7a8e 233d c8fa 8bbd
00000220: c0e9 923c 11f7 0b3e 6b27 a2bd 71f1 13be
00000230: f1b9 253d 16db 213e c473 9bbd 3f26 fcbd
00000240: e7a4 03bd e52a aa3d e2d0 90bd 3615 a83d
00000250: da35 a93d b3d2 9f3d 2a15 27bd ffed fabd
00000260: 3de2 963d 9e17 3cbe 0dd7 d8bd 3433 9d3d
00000270: 56ad 8bbd 5b58 5d3d 5234 aa3d 457d c33d
00000280: e923 19be c449 1f3d 2a2b f93a 4c72 2ebe
00000290: 6777 da3d da4a bcbd 921e a53d 1072 3c3e
000002a0: 10cf b6bd 464b c3bd 19db 31be 9385 07be
000002b0: 8947 e63d 98fa 323d 9e4b 04bd fe2c 61bc
000002c0: 8267 bf3d 8ba7 dd3d 1877 6cbd 4db2 d13d
000002d0: 269e e0bd e7f1 0c3d 43f8 7a3d eabf 96bd
000002e0: a843 1cbe 63f7 283d 222b 05be 85bf a93c
000002f0: 1e8b cf3d 4459 34be 1f8a 2d3e a35f ac3d
00000300: 21cd b73d 4d9b 993d c622 13be d71c ce3d
00000310: e34b f7bd a87f e63d 32bb 37be b9ec e23c
00000320: 8894 0a3e c7ed cebc a28b 4dbb 8ea8 c33d
00000330: b3e3 dcbd 0c6c 543d 67da 893d fd0e 39bd
00000340: acd6 1b3e 348b c8bd 73d6 a63c 833f 76bb
00000350: a08e 113e d153 8abd eaad 6b3d c1e7 0d3d
00000360: d722 8cbd f6fb c83c 4966 be3c e3bb ca3d
00000370: db7c 713d 7bd9 e23d adcd 1dbc 87cd 3ebd
00000380: 7f88 fe3d d0d2 11be cdd1 e93c 347a 1f3b
00000390: cf38 2f3d 159b 8c3d ce4f 0d3c afd4 913d
000003a0: c4bc b03d 98a9 ce3d 91f0 b53d 0872 08bb
000003b0: 1c52 b23d ec1c 9dbd 18c2 1cbd a34d 04be
000003c0: c51e 553d ec0f debd 7c83 c2bc 88b2 03be
000003d0: 7fc2 003d d2ec 90bd 44ea 8abd 6f68 8b3d
000003e0: c459 36bb 2243 c43d 21fa e23d b20d b6bd
000003f0: 5012 bdbc d4a3 1dbe 228e 9cbd 963a d83d
-0.17464401 0.16438384 -0.059846036 0.12887853 -0.015413669 -0.020365667 0.11399354 0.10735243
0.076895624 0.016453251 0.023050122 -0.095859125 -0.00053691113 -0.055088297 -0.12596145 0.088498764
0.043495752 0.16344604 0.0065194624 0.083223514 -0.079208866 -0.07418269 -0.14389667 -0.030355245
-0.076549 -0.11936013 0.1251006 -0.006638792 0.12471903 0.054572098 0.14987138 -0.051141273
0.12261695 0.14790767 -0.07952337 -0.06369304 -0.16262285 0.088892035 -0.10767686 -0.001990686
-0.092759125 0.053353593 -0.091810875 -0.03864319 -0.14779589 0.080695346 0.12436938 0.046125066
0.062248554 0.08492663 0.016271057 0.009418296 0.07441334 -0.12884922 0.04903386 0.08022096
-0.03802725 -0.082342885 0.08081508 -0.027812436 -0.16872065 -0.07007601 0.10609659 -0.00456691
-0.0012449034 -0.039380383 0.03187528 0.04495618 -0.002999097 -0.074327976 0.019761695 -0.032240544
0.11895108 0.047962014 -0.092753485 -0.121541664 -0.08076639 0.027614607 -0.06773924 -0.08774691
0.020508684 -0.05923896 0.040906884 0.16769531 0.0782407 -0.07019626 -0.031197226 0.1310441
0.0030634564 -0.17275485 0.06830739 -0.13294338 0.13413115 0.11252481 -0.14753719 0.09450347
-0.1693082 0.018259794 -0.009896256 0.04672533 -0.025741613 0.038416944 0.08911025 0.037280396
0.029255603 0.12866642 -0.061935242 -0.072539814 -0.04630932 0.08067062 -0.10671903 -0.012244682
0.09454094 -0.06896298 0.15951909 0.030019151 0.025350679 -0.0068037384 -0.020431139 0.13361323
-0.13481227 -0.026158849 -0.107632354 0.08984226 -0.110795096 -0.03137574 0.00959674 -0.13767104
0.04453225 0.10612901 0.08101769 -0.03135595 -0.12040941 -0.1161178 0.039930798 -0.06834942
0.017933726 0.13668467 -0.07917675 -0.14447571 0.04046053 0.15806231 -0.0759044 -0.12311982
-0.032139685 0.08308963 -0.07071091 0.08207171 0.082622245 0.078038596 -0.040791668 -0.122524254
0.0736737 -0.18368384 -0.10587893 0.07675782 -0.068201706 0.05403934 0.083107606 0.09545378
-0.14955105 0.038888708 0.0019010056 -0.17035788 0.106673054 -0.09193964 0.080624714 0.18402886
-0.08926213 -0.09535842 -0.17368735 -0.13234548 0.11244113 0.043696016 -0.032298677 -0.013743637
0.093459144 0.10822972 -0.057730764 0.10239086 -0.109676644 0.034410384 0.061271917 -0.073608235
-0.15260184 0.04125155 -0.13004735 0.020721206 0.101339564 -0.17612177 0.1694722 0.08416679
0.08974672 0.075003244 -0.14368734 0.100640945 -0.12075021 0.11254817 -0.17942503 0.027700769
0.13533223 -0.025259865 -0.0031363745 0.09553634 -0.10785618 0.051860854 0.0673111 -0.04518031
0.1521861 -0.09792176 0.02036593 -0.0037574477 0.14214563 -0.06754268 0.057538904 0.034644846
-0.06842583 0.024534207 0.023242133 0.09899118 0.058956962 0.11076637 -0.009631556 -0.046582725
0.12428378 -0.14240575 0.028542424 0.0024334313 0.042778786 0.06865517 0.008624984 0.07120644
0.08629754 0.10090941 0.08883775 -0.002081992 0.08707067 -0.07671532 -0.03827104 -0.12920241
0.052031297 -0.108428806 -0.023744337 -0.12861073 0.031435486 -0.0707642 -0.06782964 0.068070285
-0.00278245 0.09583117 0.110828646 -0.08889331 -0.023080021 -0.15394527 -0.07644297 0.105580494

gru.weight_hh_l1 f4 [192, 64]
00000000: 40b7 b83d f0fb 283d 5f94 aebc 6b44 47bc
00000010: 3d9b 063e d850 133d 7189 51bd 40d2 10be
00000020: 5758 ae3d 2c90 98bd 6bad 7bbd 1c20 873d
00000030: 2824 e23d 4141 f5ba f636 0ebe f94b 68bd
00000040: 0231 11bd d9be 0cbe a044 96bb 3c47 293d
00000050: 30da aa3d eac5 5839 7d15 c03b 7229 31bd
00000060: 8955 883d 4450 fc3d 422c 09be df0a 7a3d
00000070: 8b76 99bc 2362 7e3d 81c4 9f3d 1be9 fe3d
00000080: 2ff6 923d 8bb8 87bd 5dfb f93d 88a6 563e
00000090: 65d8 093e 7fd5 b73d 0f6b 573c e631 6c3d
000000a0: 2c35 9b3c 2cac 7dbd 16ca da3d 0021 f3bd
000000b0: 9f7c 7abb e330 cc3d 19d0 2e3d 121e df3d
000000c0: b522 223c a554 4ebd 0454 d6bd 58ed a3bd
000000d0: a735 a4bc b6cd f9bd 4fd8 953c 3e6f e8bd
000000e0: 6775 063e e1f5 213e e0b9 e7bd c41e 11bb
000000f0: 3f52 193e d572 7fbd 7806 36bd 27ff 6e3d
00000100: 807c 893d ec53 b33c 8311 9a3c d366 163e
00000110: 18da 393d a0b0 fe3c 0a1c e6bd 7a32 1abd
00000120: f10a 923b c4de eebd 3849 2cbc 0353 7abc
00000130: 773e 6ebc 31c6 b93c 10f1 063d b130 08bc
00000140: ca9c 17be 88d3 acbd 5969 193e a0c8 0a3d
00000150: 1552 193d bc85 52bd 36ed afbd c824 2f3b
00000160: 4b0b ae3a fc46 2dbd de04 cebd 49fa ba3d
00000170: 36bb 1c3b 7e88 283d 0ed7 04bc a45d 0c3d
00000180: d980 3cbe bbda c83d 20fa 1b3c 89f6 75bb
00000190: e86e 05bd 66ba 003e f1b6 6c3d 4544 4abc
000001a0: 3c5c a3bc 50b5 1a3e 0d3b d3bc 549a c1bc
000001b0: c782 aabc 7133 a03c d5e7 603d fb28 3abc
000001c0: 3755 593c 9c04 0f3e d3d0 95bc fdb5 d1bd
000001d0: 42ac bb3c fafb 63be ad6d 00bd b800 b8bd
000001e0: 9775 f93a 9825 cdbd 235c 943c 0e3d ff3d
000001f0: 009b 9fbd 3aab d93b 4f15 dd3d 52db 16bd
00000200: 5114 ba3d 4ccd 163e 218f 12bd 9d35 25bc
00000210: e91a fb3d 4cf3 b73d 3ad3 0bbc de9a abbc
00000220: a28a d73d 5127 c5bd 194d eebd 2d2d d23d
00000230: 524b 133d 3683 bb3d 2cf1 f73c eacb 0abd
00000240: 2acf 99bd fe8f 9b3d 3da6 063d 6179 69bd
00000250: fa5c 863b fef4 bfbd bc44 58bd 786e ce3c
00000260: 6a59 e5bb 401c 943c 1d9b 013b eaa5 bd3d
00000270: ad41 cebd 55b0 dd39 ac22 47bd cfff 103d
00000280: 092a 61be b35d d03c a8a1 213e 49cd d93d
00000290: 8afb 4cbe e3c6 5cbd faa0 653d 08a0 bbbc
000002a0: d693 73bc 4381 313e 26a6 e03c 84ac 2f3d
000002b0: 6811 9a3c 3959 45bc 9bcd 5d3d dbbe d6bc
000002c0: 2f12 383e 2e9b 1cbe 9dd4 d93c 155e 573d
000002d0: dbcb 243e a581 42bc d93e c53d 2ca9 e13c
000002e0: e756 d8bb 9dbb 4bbd 6580 c5bd 69c2 803d
000002f0: e856 21bd 3cce 3abd a8a4 133d 56d0 b73c
00000300: 0b1a 543d 2896 6cbd bb3c 26bc b209 6d3d
00000310: 6de8 183c dc8b 0b3e 79f8 a83c 1af0 873d
00000320: 19aa 8a3d 4227 233d a0f3 2a3d 5f35 aabd
00000330: 31fb 683d 5dbf 843d 8752 573d 9829 59bc
00000340: 1925 32be f2e7 6a3c 72cc b83d 5e6b f03d
00000350: f54a 9fbd 2982 edb8 f1fa c1bc 526b 383e
00000360: bd13 533d 7daa 02be 62a7 5fbd 5eca f43d
00000370: ae6b 4a38 1608 e8bd 64af 033a cf8d 1f3e
00000380: de3e 6e3d a844 82bd ff49 10bc 01be e1ba
00000390: 287d efbd ab41 c2bc eb52 e8bd a2c7 843c
000003a0: 5b63 a23d e728 983d b37c 7d3c 3d8c a43b
000003b0: 7471 adbd 2194 e83c 8880 683d c2fe 0d3e
000003c0: f52a ad3a 480a a23d 3d31 57ba bb83 673c
000003d0: 2777 65bc 1e40 843d 4b7f 82bd 3376 67bd
000003e0: 7f7c 403d 0b4e cabd 742a c0bb 47f9 16be
000003f0: bc39 2ebe 1b4f a73d 963c c5bd 194e 983c
0.09019327 0.04125589 -0.021310983 -0.012162308 0.13145156 0.03596577 -0.051156465 -0.14142704
0.08512943 -0.074493736 -0.06144468 0.06597921 0.110420525 -0.0018711464 -0.13888153 -0.05671308
-0.035447128 -0.13744678 -0.0045858175 0.0413277 0.08342397 0.00020673094 0.0058619366 -0.043252416
0.066569395 0.12319997 -0.1339579 0.061045524 -0.018733284 0.06210531 0.07801152 0.12446805
0.07175862 -0.06626996 0.12206147 0.20961964 0.13461454 0.08976268 0.013148083 0.057664774
0.018946253 -0.061931774 0.10683076 -0.118715286 -0.0038221253 0.09970262 0.042678926 0.10894407
0.00989597 -0.050373692 -0.104652435 -0.08004254 -0.020045115 -0.121974394 0.01829162 -0.11349343
0.13130723 0.15816452 -0.1131475 -0.0022143582 0.1497278 -0.06236537 -0.044439763 0.0583488
0.067131996 0.021890603 0.018807178 0.14687662 0.045374006 0.03109008 -0.11235817 -0.037645794
0.0044568707 -0.11663583 -0.010515504 -0.015278581 -0.01454126 0.022677513 0.03294474 -0.00831239
-0.14805904 -0.08438784 0.14981593 0.033882737 0.037431795 -0.05139707 -0.08590166 0.0026724804
0.0013278512 -0.042304024 -0.10059522 0.09129769 0.0023915297 0.041145794 -0.008107914 0.03426899
-0.18408526 0.098073445 0.009520084 -0.003753098 -0.03257647 0.12571105 0.057791654 -0.012345378
-0.019941442 0.15108228 -0.025784994 -0.02363316 -0.020814313 0.01955578 0.054908592 -0.01136231
0.013264946 0.13966602 -0.018288052 -0.1023979 0.022909287 -0.2226409 -0.031354595 -0.08984512
0.0019032237 -0.10016936 0.01811034 0.12462817 -0.07793236 0.0066427262 0.1079508 -0.036830254
0.09085906 0.14726752 -0.03578103 -0.010083583 0.12260992 0.08981952 -0.008534247 -0.02094787
0.10524489 -0.0962664 -0.11635799 0.10262523 0.035960503 0.09155886 0.030266367 -0.033885874
-0.075102165 0.07595824 0.03287338 -0.05700052 0.004100439 -0.093729004 -0.052799925 0.02519916
-0.0069991844 0.018079877 0.0019776293 0.09260161 -0.100711204 0.00042283782 -0.04861705 0.035400208
-0.21988691 0.025435304 0.15784323 0.10634858 -0.2001783 -0.05390061 0.056061722 -0.022903457
-0.01486679 0.17334466 0.027422976 0.042889133 0.018807128 -0.012045198 0.05415116 -0.026214054
0.17975686 -0.15293571 0.02659064 0.052579958 0.1609339 -0.01187173 0.09631128 0.027546488
-0.0066021564 -0.04973947 -0.0964363 0.06287081 -0.03938952 -0.045606837 0.0360457 0.02243821
0.05178265 -0.057760388 -0.010146315 0.057870574 0.009332758 0.13627571 0.020626293 0.066375926
0.06770725 0.03983236 0.041736245 -0.08310961 0.05688018 0.06481812 0.05256894 -0.013254546
-0.17396964 0.014337527 0.0902337 0.11739229 -0.07777969 -0.00011325285 -0.023679228 0.1800969
0.051532496 -0.12760349 -0.054602988 0.11952661 4.8260838e-05 -0.11329667 0.00050233887 0.1558144
0.058165424 -0.063607514 -0.008806705 -0.0017222763 -0.116937935 -0.023712954 -0.1134394 0.016208474
0.07929107 0.074296765 0.015471625 0.0050216005 -0.08468905 0.028390946 0.056763202 0.13866714
0.0013211655 0.07912117 -0.0008208936 0.014130528 -0.014005459 0.06457542 -0.063719355 -0.056509208
0.04699373 -0.09878167 -0.005864436 -0.1474353 -0.17014211 0.08169385 -0.096306965 0.018591927

gru.bias_ih_l1 f4 [192]
00000000: 1453 a9bc 0def 78bd 9075 49bd a8ef 01bd
00000010: ab30 d1bb 194c 36bd 7435 0ebd c5fe f3bc
00000020: 5bbb e7bc 4126 3abd 3df4 8abd ce33 9cbd
00000030: fcc6 b43b 61f2 01bd 02ba 23bc 34d1 dbbb
00000040: 9e67 74bd d7e2 67bd 3b46 25bc cb94 dd3a
00000050: 99eb 9dbb 3011 13bd 4bc8 16ba f5bf 42bd
00000060: 0ad4 a33c 25ef 48bd 6a94 b73c 4f73 20bd
00000070: a536 26bd 452e cebc caac 08bd 49a8 5bbd
00000080: de53 2dbd 8fb6 16bd 4e04 b0bc 7f0c 14bd
00000090: 576d 2abd 191b 0cbd 1783 2cbd df23 36bd
000000a0: b361 a6bc 470a 2abd 424c 84bd 5f19 7cbc
000000b0: 9175 cbbc 5c1a e1bc 6468 2ebd 11a4 59bc
000000c0: c9d0 28bd 2476 703c c3a2 71bd de29 15bd
000000d0: 82b5 8ebc f002 03bc a654 a2bc 9d7f a1bc
000000e0: 78ab bbbc a8c6 583c f795 29bd 8b66 f7bc
000000f0: 67d1 f9bc fcb9 acbb 686b b0bd 2fb8 ecbc
00000100: 37df b33d 7c14 223d ae65 0e3d 49b3 583d
00000110: 5f16 453d f432 3c3d 2305 c13d 59a9 3d3c
00000120: eb53 bb3d c644 a13d f378 cf39 9324 963d
00000130: 3714 d33d d329 c03d 47d1 f03c 6d2f 3c3d
00000140: d106 8a3d 35d5 f93c 6407 153d d0b2 af3d
00000150: c655 ad3c ca3c 6b3d 2c67 a03d a0ae c13d
00000160: 0d30 f73c 7e24 813d 82f7 ed3d 54af 213d
00000170: 16a7 8a3d 43ee 073d 2db8 9b3d 0aef 963d
00000180: f9ac 073d ceab 6e3d 6801 ce3d 8f16 953d
00000190: ffa7 273d d8eb c1bc 57d7 ab3c 9231 113d
000001a0: 026c 0b3a bfb6 983d 5c4a 5a3d fb15 a43d
000001b0: a2ba 9c3d 9a31 d03c 62f8 cf3c f1c5 963d
000001c0: b901 463d 066f 9e3b 67e1 a93d d7ac 083d
000001d0: 11e0 343c fb69 c53d 736d 8a3d c572 cb3c
000001e0: 93f0 313c fc15 303d 6a52 323d fe60 8d3d
000001f0: 60c5 973d 4d3d 743d 63e3 813c f103 513d
00000200: bef4 c6bc 340a 76bc c84e 003c ffb7 a7bc
00000210: bff1 17bd ebec cabc 9d4f 5f3c a921 e13c
00000220: a2ab 8a3a ebaa 183d a778 113d e8ca e3bc
00000230: 6ecd bfbc 3b56 8fbc 9bad c73c d065 a5bc
00000240: b04d be3b 2855 ee3c 4ffc 4ebd bc33 8dbc
00000250: 48de fbbc 7818 25bc cc59 203d dd6c cbbc
00000260: f795 18bd b85f 24bd ca06 253c b4f7 5c3c
00000270: 4cf4 b0bc ba97 7ebd 7653 e83c e679 70bc
00000280: 82df 163d 130b 20bd 77da dbbc fc6f 13bd
00000290: b8ed 3c3d e22a 50bd 45f9 e6bc 9da7 053d
000002a0: 13a9 0fbd 4e83 83b9 11e7 5abb 1b5e 833c
000002b0: 3cf0 3f3d e0f3 8dbc 8318 d3bc 6372 31bd
000002c0: 27fc e7bc e453 8ebd da5a 293d a5ac cfbb
000002d0: a773 71bc 9ccc f13c cc22 71bc 093e 0a3d
000002e0: 1a40 2dbd bcd4 27bd dd43 7cbc 1d2c c03b
000002f0: 0238 3fbd b048 6e3d ed8f 0cbd 05ea a9bc
-0.020669498 -0.06077485 -0.049184382 -0.031722695 -0.0063839755 -0.044506166 -0.034718946 -0.02978457
-0.02828758 -0.045446638 -0.06784866 -0.076270685 0.005516885 -0.03172529 -0.009993078 -0.0067082886
-0.05966913 -0.056612816 -0.010087545 0.0016905306 -0.004819345 -0.035905063 -0.0005751892 -0.047546346
0.019998569 -0.04905619 0.022409637 -0.039172467 -0.040579457 -0.025168547 -0.03336791 -0.053627286
-0.04231631 -0.036795195 -0.021486428 -0.03614473 -0.04160818 -0.03420553 -0.042117205 -0.044467803
-0.020310258 -0.041513707 -0.064598575 -0.015386908 -0.024836333 -0.02747839 -0.042580023 -0.013283745
-0.041214738 0.014676604 -0.058993112 -0.03641688 -0.017420534 -0.007996306 -0.019815754 -0.019714171
-0.022908911 0.013230957 -0.041402783 -0.030200263 -0.030495359 -0.0052711945 -0.08614236 -0.02889642
0.08782809 0.039570317 0.034764938 0.052905355 0.048117038 0.04594703 0.09424808 0.01157602
0.091468655 0.078744456 0.0003957223 0.07331195 0.1030659 0.09382977 0.029396666 0.045943666
0.067395814 0.030497173 0.036384 0.08579028 0.021159064 0.05743102 0.078321785 0.09457135
0.03017428 0.063057885 0.11619474 0.039473847 0.0677015 0.03318621 0.07603488 0.07369812
0.033123944 0.058269314 0.10058862 0.07279693 0.040931698 -0.02367203 0.020976705 0.035447665
0.00053185236 0.07456731 0.05329357 0.08012005 0.07652785 0.025414277 0.025386993 0.07361973
0.048341487 0.0048350124 0.08294945 0.033367958 0.01103975 0.09639355 0.06759157 0.024835
0.01086058 0.042989716 0.043535627 0.069032654 0.07410693 0.059628773 0.015855497 0.05102915
-0.024286624 -0.015017081 0.007831283 -0.020473478 -0.03709578 -0.024771174 0.013629821 0.02748187
0.0010579715 0.037272375 0.035515454 -0.027806714 -0.023413386 -0.017497173 0.024374774 -0.02019015
0.005807601 0.02909334 -0.05053359 -0.017236583 -0.03074564 -0.010076635 0.039148137 -0.024832183
-0.037252393 -0.040130347 0.010072419 0.013486791 -0.021600865 -0.062156416 0.02836011 -0.0146775
0.036834247 -0.03907306 -0.02683757 -0.03599547 0.046125144 -0.050822146 -0.028195033 0.03263055
-0.03507335 -0.00025084097 -0.0033401886 0.016036084 0.046859965 -0.017328203 -0.025768524 -0.04332198
-0.028318478 -0.069495946 0.04134641 -0.0063377195 -0.014737046 0.02951651 -0.014717769 0.033750568
-0.04229746 -0.040974364 -0.015397039 0.0058646337 -0.046684273 0.05817479 -0.034316946 -0.020741472

gru.bias_hh_l1 f4 [192]
00000000: 1453 a9bc 0def 78bd 9075 49bd a8ef 01bd
00000010: ab30 d1bb 194c 36bd 7435 0ebd c5fe f3bc
00000020: 5bbb e7bc 4126 3abd 3df4 8abd ce33 9cbd
00000030: fcc6 b43b 61f2 01bd 02ba 23bc 34d1 dbbb
00000040: 9e67 74bd d7e2 67bd 3b46 25bc cb94 dd3a
00000050: 99eb 9dbb 3011 13bd 4bc8 16ba f5bf 42bd
00000060: 0ad4 a33c 25ef 48bd 6a94 b73c 4f73 20bd
00000070: a536 26bd 452e cebc caac 08bd 49a8 5bbd
00000080: de53 2dbd 8fb6 16bd 4e04 b0bc 7f0c 14bd
00000090: 576d 2abd 191b 0cbd 1783 2cbd df23 36bd
000000a0: b361 a6bc 470a 2abd 424c 84bd 5f19 7cbc
000000b0: 9175 cbbc 5c1a e1bc 6468 2ebd 11a4 59bc
000000c0: c9d0 28bd 2476 703c c3a2 71bd de29 15bd
000000d0: 82b5 8ebc f002 03bc a654 a2bc 9d7f a1bc
000000e0: 78ab bbbc a8c6 583c f795 29bd 8b66 f7bc
000000f0: 67d1 f9bc fcb9 acbb 686b b0bd 2fb8 ecbc
00000100: 37df b33d 7c14 223d ae65 0e3d 49b3 583d
00000110: 5f16 453d f432 3c3d 2305 c13d 59a9 3d3c
00000120: eb53 bb3d c644 a13d f378 cf39 9324 963d
00000130: 3714 d33d d329 c03d 47d1 f03c 6d2f 3c3d
00000140: d106 8a3d 35d5 f93c 6407 153d d0b2 af3d
00000150: c655 ad3c ca3c 6b3d 2c67 a03d a0ae c13d
00000160: 0d30 f73c 7e24 813d 82f7 ed3d 54af 213d
00000170: 16a7 8a3d 43ee 073d 2db8 9b3d 0aef 963d
00000180: f9ac 073d ceab 6e3d 6801 ce3d 8f16 953d
00000190: ffa7 273d d8eb c1bc 57d7 ab3c 9231 113d
000001a0: 026c 0b3a bfb6 983d 5c4a 5a3d fb15 a43d
000001b0: a2ba 9c3d 9a31 d03c 62f8 cf3c f1c5 963d
000001c0: b901 463d 066f 9e3b 67e1 a93d d7ac 083d
000001d0: 11e0 343c fb69 c53d 736d 8a3d c572 cb3c
000001e0: 93f0 313c fc15 303d 6a52 323d fe60 8d3d
000001f0: 60c5 973d 4d3d 743d 63e3 813c f103 513d
00000200: c04f e6bc 4900 8abc 7d57 803c 5ea6 edbc
00000210: 3ae5 00bd 545a d7bc 9c31 143d 3e88 6a3c
00000220: c155 57bc ea15 f63c 0c9a 1f3d 08b4 28bd
00000230: 6224 ccbc 08c4 8cbc d5de 9d3c 0a71 d7bc
00000240: 486a 8d3c 9c69 d13c 4336 16bd e2b9 cdbc
00000250: ca40 d6bc 35ba a9bc 6b43 043d bda4 2dbd
00000260: be08 eebc 7c9b 41bd a66f 543c 79d6 13b9
00000270: cc67 03bd aae8 36bd 2bc6 c23c edbf b1bc
00000280: dd12 dc3c f01e 20bd 258d 12bd a817 17bd
00000290: 41a7 243d 65fb 05bd e4cb 27bd 40a1 f53c
000002a0: 129e f1bc fb7f 79bc e3e7 51bc 67b6 8f3c
000002b0: 8b4f 383d 4033 acbc be9d 7ebc 7c8f 00bd
000002c0: 6570 1bbd 8279 55bd e403 e73c c8b7 273c
000002d0: 5f70 4ebc 7e4a 343d 17f0 b8bc a3a2 f03c
000002e0: 540c cebc 0bab edbc 85ae a1bc 0de8 4f3c
000002f0: 8111 60bd f8db 323d 0b5f fcbc 8499 21bd
-0.020669498 -0.06077485 -0.049184382 -0.031722695 -0.0063839755 -0.044506166 -0.034718946 -0.02978457
-0.02828758 -0.045446638 -0.06784866 -0.076270685 0.005516885 -0.03172529 -0.009993078 -0.0067082886
-0.05966913 -0.056612816 -0.010087545 0.0016905306 -0.004819345 -0.035905063 -0.0005751892 -0.047546346
0.019998569 -0.04905619 0.022409637 -0.039172467 -0.040579457 -0.025168547 -0.03336791 -0.053627286
-0.04231631 -0.036795195 -0.021486428 -0.03614473 -0.04160818 -0.03420553 -0.042117205 -0.044467803
-0.020310258 -0.041513707 -0.064598575 -0.015386908 -0.024836333 -0.02747839 -0.042580023 -0.013283745
-0.041214738 0.014676604 -0.058993112 -0.03641688 -0.017420534 -0.007996306 -0.019815754 -0.019714171
-0.022908911 0.013230957 -0.041402783 -0.030200263 -0.030495359 -0.0052711945 -0.08614236 -0.02889642
0.08782809 0.039570317 0.034764938 0.052905355 0.048117038 0.04594703 0.09424808 0.01157602
0.091468655 0.078744456 0.0003957223 0.07331195 0.1030659 0.09382977 0.029396666 0.045943666
0.067395814 0.030497173 0.036384 0.08579028 0.021159064 0.05743102 0.078321785 0.09457135
0.03017428 0.063057885 0.11619474 0.039473847 0.0677015 0.03318621 0.07603488 0.07369812
0.033123944 0.058269314 0.10058862 0.07279693 0.040931698 -0.02367203 0.020976705 0.035447665
0.00053185236 0.07456731 0.05329357 0.08012005 0.07652785 0.025414277 0.025386993 0.07361973
0.048341487 0.0048350124 0.08294945 0.033367958 0.01103975 0.09639355 0.06759157 0.024835
0.01086058 0.042989716 0.043535627 0.069032654 0.07410693 0.059628773 0.015855497 0.05102915
-0.0281142 -0.01684584 0.015666718 -0.029009994 -0.031468607 -0.026288189 0.036180124 0.014314709
-0.013143004 0.030039746 0.03896527 -0.041187316 -0.024919692 -0.017183319 0.019271294 -0.026299018
0.017262593 0.025563054 -0.03667284 -0.02511305 -0.02615394 -0.020718673 0.032290857 -0.042393435
-0.029056903 -0.047267422 0.012966072 -0.0001409891 -0.03208141 -0.04465548 0.023776134 -0.021697963
0.026864463 -0.039092004 -0.035779137 -0.036887795 0.04019857 -0.03271045 -0.04096593 0.029984117
-0.02949432 -0.015228267 -0.012811634 0.01754303 0.044997733 -0.021020532 -0.015540538 -0.031386837
-0.037948985 -0.052117832 0.028200097 0.010236688 -0.012600034 0.044016354 -0.022575421 0.029374426
-0.025152363 -0.029012224 -0.019736538 0.012689603 -0.054704193 0.04366681 -0.030807039 -0.039453045

fc.weight f4 [1, 64]
00000000: fc5e d8bc 2e69 03bc d6ee 3b3d ef99 13bd
00000010: 7112 09bd 9051 d8bc 3c9c 113d e7b3 973c
00000020: 7596 12bd df21 913c 361c 063d 495a 9cbc
00000030: 506e 02bd 8e49 1ebd a6e1 3e3b e7ae 06bd
00000040: 58dc 123d 104c c03c 318a 2ebd f2fc 3bbd
00000050: 71b3 48bc de67 72bc 7340 e33c fa76 fbbc
00000060: 0814 e2bb aff4 2cbd bd92 b23c fdcf 703b
00000070: a7d8 b5bc 56a5 6cbc 6a3f cc3c cb91 07bd
00000080: e35a 0e3c cd0e 7bbc db9d aabc dbc6 fabc
00000090: cff8 b23c 3943 bcbc 6d5c 16bb bb97 d13c
000000a0: ab97 c4bc 443a 29bc e0a9 11bd 3ef6 583c
000000b0: 44ec 9a3c dff0 02bd ffea 33bc fab2 08bd
000000c0: 9164 d7bc 3026 37bd 09f5 2c3d 9df1 9c3c
000000d0: 9f86 493b 4d64 cc3c aa49 1fbd 6a1f a43c
000000e0: 3174 00bd 0670 babc 6cfc d5ba 40f5 4e3b
000000f0: badb 11bd c52b 1a3d 4674 07bc 4dee 08bd
-0.02641248 -0.008020682 0.04588207 -0.036035474 -0.033464853 -0.02640608 0.035549387 0.018518401
-0.03578802 0.017716346 0.032741748 -0.01908602 -0.031843483 -0.038644366 0.0029126196 -0.032881644
0.035854667 0.02347377 -0.04261226 -0.045895524 -0.012249813 -0.014795272 0.027740693 -0.03069638
-0.0068993606 -0.042225536 0.021798486 0.0036745064 -0.022198034 -0.014443716 0.024932582 -0.033098023
0.008688661 -0.015323353 -0.020827224 -0.0306124 0.021847157 -0.022981273 -0.0022943274 0.025585046
-0.023998102 -0.010328833 -0.035562396 0.013242302 0.018911488 -0.031967994 -0.01098132 -0.03337381
-0.026293071 -0.044714153 0.04222587 0.019158179 0.0030750406 0.02495017 -0.03888861 0.02003451
-0.03136081 -0.022758495 -0.0016325838 0.0031579286 -0.03560994 0.037639398 -0.008267468 -0.033430386
