ML/models/SOL/4h/lstm_model.pth (torch, 223996 bytes, 9 tensors)

lstm.weight_ih_l0 f4 [256, 19]
-0.031208491 -0.14688636 0.04343892 0.0028775965 0.008514285 -0.09911866 -0.10841456 0.009517645
-0.043633174 -0.14229892 -0.016671173 -0.088864066 -0.085554026 -0.08967234 0.09645718 0.0049647
-0.014505924 -0.059912685 0.118488856 0.05733739 0.041250285 -0.0046030767 -0.117824316 0.0092324605
0.015448147 0.05039696 -0.015925 -0.07419223 0.04064077 0.13509437 -0.065726146 -0.0657846
0.061163638 -0.085726604 -0.12613477 0.057588026 -0.014632827 0.06698449 0.1262399 0.11714407
-0.1153084 -0.03237084 0.04693547 0.12650774 -0.097287945 -0.09637018 0.090075135 -0.14429942
0.0393234 0.069894485 0.07487505 -0.094188325 0.051845193 -0.040936433 0.094287865 -0.1314706
-0.081135765 0.12661394 -0.098473094 0.10209828 -0.12446365 -0.09356564 0.07792875 0.1322533
0.022128573 -0.08010888 -0.018796135 0.13125026 0.08918688 -0.11774383 0.101774104 0.003574272
-0.055344667 -0.034157455 0.04844081 0.1229822 -0.115588106 0.14224689 0.1448314 0.055138174
0.06672757 0.062018752 0.017651835 0.08659616 0.08527172 -0.029483223 0.107977465 0.12034927
0.103239596 -0.094095476 -0.11849934 -0.08538437 0.12358279 0.113122545 0.0006061684 -0.115955256
-0.105200976 0.071635656 0.041768923 0.11079037 -0.0881994 0.10166427 0.06549579 -0.10600557
-0.069233365 0.118258506 0.10037957 -0.099173084 0.1071924 0.1323816 -0.14228879 -0.13856737
0.024054172 0.11900401 0.106728874 0.011566328 0.02398807 0.08847751 0.08099867 -0.1442776
0.008273491 0.062923715 0.036152996 0.009810684 -0.06307096 0.13941544 0.03233564 -0.03953546
-0.11297101 -0.10659408 -0.044975955 -0.12558289 0.051804695 -0.0709869 0.05307384 0.016520621
-0.06326819 0.062061314 -0.095177814 0.03767332 0.13158822 0.07221888 0.08965637 -0.033524893
0.09628302 -0.07548414 -0.057541735 -0.08211526 -0.114293166 -0.02842517 -0.049152467 -0.07046528
0.080555215 -0.10785211 0.115411445 0.031046934 -0.024518628 -0.026431004 -0.07715557 -0.057929505
-0.003917829 -0.066365965 -0.037256848 0.095455214 -0.05142534 0.10276769 0.12245379 -0.003993052
-0.003630073 -0.051605403 0.015472183 0.07676836 0.086014464 0.11483237 -0.1097342 -0.041230213
0.11785638 -0.073726565 -0.077280864 0.07000991 0.030877225 -0.14362435 -0.097763516 -0.13831645
-0.0006165398 -0.05502826 0.09189378 0.08178819 0.1475764 0.10497774 -0.11521006 -0.09069715
0.13558854 -0.13181661 -0.12981388 0.044806756 0.09987358 0.092517875 -0.1304963 0.09471309
-0.12011021 0.036182437 -0.05979177 0.11572478 -0.06472118 -0.14628662 -0.13080461 0.007940674
-0.0047447183 0.06739547 0.044831127 -0.03470504 -0.0525857 0.1176245 0.14500201 -0.14602567
0.09345996 -0.12995668 0.05658139 0.021702256 0.010858911 0.05130483 0.13052128 -0.006538167
0.028821517 0.010445132 -0.1154496 -0.08206905 0.05413569 -0.13009599 -0.084364064 -0.06026753
0.09286166 -0.14102565 0.118289955 0.0046101026 -0.13190646 -0.14616 -0.1240795 -0.0398357
-0.12378206 -0.08089305 -0.12159651 0.059393324 -0.081489906 0.09619293 -0.14489007 -0.14754184
-0.06152945 0.10026188 0.14678878 0.0022604757 0.004614628 -0.014953053 0.0015126126 0.021352325
00000000: f3a8 ffbc 6169 16be 02ed 313d 0f96 3c3b
00000010: 807f 0b3c b9fe cabd 7408 debd e6ef 1b3c
00000020: b3b8 32bd cfb6 11be fc91 88bc 5dfe b5bd
00000030: f336 afbd 22a6 b7bd 588b c53d ecae a23b
00000040: 41aa 6dbc 0167 75bd 49aa f23d 9cda 6a3d
00000050: 0ff6 283d 68d5 96bb e04d f1bd bf43 173c
00000060: 3a1a 7d3c 0b6d 4e3d 2575 82bc 19f2 97bd
00000070: f076 263d 2e56 0a3e 6e9b 86bd 14ba 86bd
00000080: b986 7a3d 6e91 afbd 7929 01be 6ce1 6b3d
00000090: 86be 6fbc 2a2f 893d 0845 013e 3be9 ef3d
000000a0: cf26 ecbd 4997 04bd 683f 403d 3f8b 013e
000000b0: e73e c7bd bb5d c5bd 5079 b83d 3ac3 13be
000000c0: 9311 213d d724 8f3d 1758 993d cfe5 c0bd
000000d0: a05b 543d f6ac 27bd ff19 c13d 3ba0 06be
000000e0: 822a a6bd 16a7 013e 43ac c9bd e718 d13d
000000f0: cce6 febd 589f bfbd 1c99 9f3d 696d 073e
00000100: fb46 b53c 2010 a4bd 5afa 99bc 7866 063e
00000110: 9ca7 b63d ad23 f1bd f16e d03d 553e 6a3b
00000120: 17b1 62bd b0e8 0bbd df69 463d 17de fb3d
00000130: 75b9 ecbd 2ba9 113e af4e 143e 91d8 613d
00000140: 77a8 883d 6007 7e3d 959a 903c 5459 b13d
00000150: f1a2 ae3d cd86 f1bc 4a23 dd3d ae79 f63d
00000160: 486f d33d 21b5 c0bd c8af f2bd 00de aebd
00000170: f918 fd3d cbac e73d 46e7 1e3a f379 edbd
00000180: 9c73 d7bd b7b5 923d e415 2b3d 10e6 e23d
00000190: e3a1 b4bd 5b35 d03d a822 863d 7319 d9bd
000001a0: 39ca 8dbd 8431 f23d ce93 cd3d 421b cbbd
000001b0: b087 db3d 0b8f 073e 27b4 11be 9be4 0dbe
000001c0: 410d c53c 60b8 f33d ab94 da3d b280 3d3c
000001d0: a182 c43c b233 b53d a1e2 a53d 82bd 13be
000001e0: 898d 073c 26de 803d 2a15 143d febc 203c
000001f0: 592b 81bd ecc2 0e3e 6072 043d efef 21bd
00000200: 585d e7bd ff4d dabd b538 38bd cd98 00be
00000210: 2931 543d 9461 91bd f463 593d 4156 873c
00000220: c192 81bd 0134 7e3d 96ec c2bd 574f 1a3d
00000230: 10bf 063e 7ee7 933d c29d b73d 6651 09bd
00000240: 0830 c53d 6e97 9abd e2b0 6bbd 0c2c a8bd
00000250: 8912 eabd e7db e8bc 1954 49bd 1a50 90bd
00000260: 22fa a43d 91e1 dcbd d65c ec3d 2456 fe3c
00000270: 4adb c8bc d585 d8bc bd03 9ebd 7d47 6dbd
00000280: 2261 80bb e1ea 87bd a39a 18bd 067e c33d
00000290: 61a3 52bd de77 d23d 0dc9 fa3d 26d8 82bb
000002a0: 85e6 6dbb 3060 53bd 0a7f 7d3c bb38 9d3d
000002b0: 5a28 b03d 3c2d eb3d 53bc e0bd 03e1 28bd
000002c0: b05e f13d f4fd 96bd 6e45 9ebd 5b61 8f3d
000002d0: 3cf2 fc3c 4312 13be 3d38 c8bd d4a2 0dbe
000002e0: 499f 21ba 5065 61bd ce32 bc3d 9180 a73d
000002f0: 451e 173e 92fe d63d 40f3 ebbd 6dbf b9bd
00000300: b9d7 0a3e effa 06be eeed 04be 4a87 373d
00000310: 858a cc3d 037a bd3d d2a0 05be f0f8 c13d
00000320: 57fc f5bd 0934 143d 37e8 74bd 1d01 ed3d
00000330: 8a8c 84bd 29cc 15be a5f1 05be 9a19 023c
00000340: 9579 9bbb a306 8a3d d8a0 373d df26 0ebd
00000350: 1a64 57bd 1de5 f03d 687b 143e c187 15be
00000360: ef67 bf3d 5d13 05be e3c1 673d eec8 b13c
00000370: 93e9 313c 0325 523d 5fa7 053e 1f3e d6bb
00000380: 1a1b ec3c 0f22 2b3c d770 ecbd d113 a8bd
00000390: 63bd 5d3d e237 05be 11c7 acbd 16db 76bd
000003a0: 412e be3d 0769 10be 0142 f23d 5810 973b
000003b0: 7d12 07be f8aa 15be 651d febd c22a 23bd
000003c0: 7381 fdbd 41ab a5bd 9707 f9bd 6a46 733d
000003d0: 2ee4 a6bd cd00 c53d 105e 14be 3515 17be
000003e0: 4e06 7cbd 1a56 cd3d cc4f 163e 7d24 143b
000003f0: 4e36 973b a6fd 74bc db42 c63a 12eb ae3c

lstm.weight_hh_l0 f4 [256, 64]
-0.025752068 -0.0018263543 -0.11794388 0.022269934 0.07713004 0.08177191 -0.11568921 -0.03977236
-0.08361413 0.07084752 -0.04681453 0.09986248 -0.024491929 -0.06245679 -0.058104597 -0.17684843
-0.0081595555 0.016408997 -0.08151992 0.082918316 0.1046598 0.1228071 0.016183509 -0.05797074
-0.017449018 0.0034737159 -0.10183936 -0.036723588 0.029054867 0.012058176 -0.07152666 -0.022234347
-0.006026607 -0.08002177 -0.06923306 0.018483877 0.03372134 -0.021230426 -0.0016273456 0.031570915
-0.11395913 0.034434304 -0.11466844 -0.035344608 -0.012090532 0.041989654 0.08105724 0.029834807
0.03814452 -0.14270431 -0.0690202 -0.024101509 -0.10650231 -0.06055527 -0.07080142 0.10426068
-0.014898222 0.058382303 -0.08590394 -0.010238983 0.023642622 0.049824916 -0.11873153 0.023210423
0.013020114 -0.05749452 -0.075840905 -0.013215105 -0.03818672 -0.021753276 0.21424378 0.052371457
0.01225087 -0.02248764 -0.066721424 0.16213086 -0.11179911 0.016366832 -0.025522621 0.01950571
-0.04750238 -0.07886727 0.047817543 -0.054195717 0.013540592 0.018514253 0.09434156 0.005839578
0.013056801 -0.090576455 0.032856174 -0.02876067 -0.04546089 -0.030833539 0.03524813 0.01167566
0.056954514 -0.068023264 0.07836759 0.062215887 -0.037707146 -0.05966266 0.0013650632 0.0018803619
0.124716744 0.056343533 0.043402392 0.14079225 0.012498912 -0.08917726 0.07645931 -0.019937245
-0.042448044 -0.03211225 0.074775435 -0.026847603 0.044585638 -0.028579304 -0.026482461 -0.11730594
0.009026963 0.07772694 -0.023976015 -0.0100892335 -0.03882971 -0.001218532 0.037398018 -0.052642312
0.023869405 0.026359012 0.040357113 0.0075191953 0.099208355 -0.01672813 -0.09595161 -0.09247433
0.03132403 0.0017653183 -0.025472848 0.03081063 0.016971335 0.014994094 0.031210719 -0.017936183
0.10322787 -0.057456434 0.094311446 -0.020131186 0.00035976083 0.018295033 -0.007910345 0.019779831
0.048615422 0.014569463 -0.078415126 0.019557077 0.055861294 -0.005540467 -0.038401622 -0.09383233
-0.025956782 0.051325615 -0.11016015 0.013097478 -0.02902051 0.0032855277 0.12771057 0.0823461
0.113562904 0.058435388 -0.08129592 -0.053013567 0.060814857 0.06199556 0.1276062 0.0028170722
-0.020228047 -0.10781571 -0.013707871 0.07064148 0.08082652 0.039592434 0.04167867 0.006589239
-0.029487966 -0.028289862 -0.00758516 0.05465033 -0.045582134 -0.020319913 -0.021010976 0.047533486
-0.16244486 0.037007216 0.0047480613 -0.09625435 -0.042122938 0.010681568 -0.10469712 0.0260485
0.043281406 -0.12873794 -0.006626187 -0.051864646 0.068388365 0.07457784 -0.011663408 0.035329305
0.04791516 0.002056224 -0.07528748 -0.056232624 0.029058725 -0.027917132 -0.0015429156 0.021427967
-0.027368665 -0.12214458 -0.07258623 -0.040255994 -0.032080896 0.070365645 -0.14311941 -0.062253352
0.11098641 -0.015633708 -0.0519421 0.0737897 0.0561647 -0.035697605 -0.084214926 -0.038026344
0.012039328 -0.016397126 -0.038320284 -0.0068355696 0.06709877 0.059132714 -0.069420375 -0.007093744
0.11797166 -0.051783253 -0.016415516 -0.006802745 -0.020520506 0.004710826 -0.03256005 -0.04364101
-0.034615755 0.10265908 0.04584804 -0.03961507 -0.09537436 0.022053437 -0.015336946 0.0927801
00000000: 00f6 d2bc 4862 efba 908c f1bd 706f b63c
00000010: 5bf6 9d3d 0878 a73d 77ee ecbd 58e8 22bd
00000020: e33d abbd 8118 913d 98c0 3fbd b384 cc3d
00000030: 4ca3 c8bc b1d2 7fbd 16ff 6dbd c117 35be
00000040: a8af 05bc 296c 863c eaf3 a6bd 14d1 a93d
00000050: e157 d63d 4a82 fb3d 4793 843c ba72 6dbd
00000060: 3ef1 8ebc 48a7 633b 2891 d0bd 796b 16bd
00000070: 7904 ee3c a88f 453c 927c 92bd ce24 b6bc
00000080: d87a c5bb 74e2 a3bd 10ca 8dbd 806b 973c
00000090: 631f 0a3d 6eeb adbc a84c d5ba 8150 013d
000000a0: 6863 e9bd fc0a 0d3d 49d7 eabd 82c5 10bd
000000b0: 5e17 46bc 58fd 2b3d 5701 a63d 2068 f43c
000000c0: 6e3d 1c3d 1421 12be 765a 8dbd 8770 c5bc
000000d0: e21d dabd ce08 78bd 5600 91bd a086 d53d
000000e0: ac17 74bc 4822 6f3d 68ee afbd 68c1 27bc
000000f0: 2cae c13c 3615 4c3d 8429 f3bd c923 be3c
00000100: 5152 553c 607f 6bbd 7a52 9bbd 2b84 58bc
00000110: ae69 1cbd ed33 b2bc b962 5b3e 7483 563d
00000120: dfb7 483c 0038 b8bc 3ea5 88bd a205 263e
00000130: eff6 e4bd bc13 863c d114 d1bc 70ca 9f3c
00000140: db91 42bd 2a85 a1bd 54dc 433d 54fc 5dbd
00000150: 5cd9 5d3c 34ab 973c 2636 c13d ee59 bf3b
00000160: 31ec 553c 2680 b9bd 3294 063d 7f9b ebbc
00000170: 3335 3abd 9e96 fcbc 5860 103d 444b 3f3c
00000180: 2349 693d c84f 8bbd 307f a03d 16d6 7e3d
00000190: cf72 1abd d560 74bd eceb b23a 7a76 f63a
000001a0: 7e6b ff3d 7ac8 663d b5c6 313d d82b 103e
000001b0: 3dc8 4c3c 91a2 b6bd b396 9c3d 6f53 a3bc
000001c0: 00de 2dbd 2288 03bd dd23 993d 81ef dbbc
000001d0: 6e9f 363d 251f eabc bff1 d8bc 193e f0bd
000001e0: d4e5 133c 4d2f 9f3d 5969 c4bc 504d 25bc
000001f0: e70b 1fbd 26b7 9fba aa2e 193d 779f 57bd
00000200: c589 c33c dbee d73c 804d 253d 9563 f63b
00000210: c02d cb3d 6e09 89bc 4782 c4bd 2e63 bdbd
00000220: a04d 003d 4162 e73a 6fac d0bc 9366 fc3c
00000230: 7807 8b3c caa9 753c 9fad ff3c e7ee 92bc
00000240: 2269 d33d 7057 6bbd 5c26 c13d 28ea a4bc
00000250: 489e bc39 77df 953c 649a 01bc 5009 a23c
00000260: f720 473d c2b4 6e3c 1c98 a0bd 2a36 a03c
00000270: d0ce 643d ce8c b5bb 054b 1dbd 2a2b c0bd
00000280: 51a3 d4bc cf3a 523d a59b e1bd ce96 563c
00000290: 6cbc edbc 0252 573b 8fc6 023e 12a5 a83d
000002a0: ab93 e83d f259 6f3d 7a7e a6bd c124 59bd
000002b0: 0019 793d 0eef 7d3d 33ab 023e a19e 383b
000002c0: 4ab5 a5bc 7cce dcbd fa96 60bc 7bac 903d
000002d0: 6088 a53d ad2b 223d 41b7 2a3d 8bea d73b
000002e0: bf90 f1bc 24c0 e7bc ef8c f8bb 06d9 5f3d
000002f0: 55b4 3abd f275 a6bc 361f acbc 79b2 423d
00000300: f257 26be e194 173d a095 9b3b 0021 c5bd
00000310: 1a89 2cbd be01 2f3c 726b d6bd aa63 d53c
00000320: d847 313d e1d3 03be 7c20 d9bb 0670 54bd
00000330: 330f 8c3d 44bc 983d e117 3fbc 76b5 103d
00000340: b042 443d b7c1 063b 5330 9abd 2e54 66bd
00000350: 900c ee3c 78b2 e4bc a83b caba b489 af3c
00000360: 4034 e0bc f026 fabd 17a8 94bd 78e3 24bd
00000370: 4267 03bd dd1b 903d e58d 12be 5ffd 7ebd
00000380: d84c e33d 4312 80bc 3dc1 54bd 0e1f 973d
00000390: f50c 663d a737 12bd e078 acbd 83c1 1bbd
000003a0: 9a40 453c 4453 86bc bbf5 1cbd eafc dfbb
000003b0: 146b 893d 2535 723d 452c 8ebd a372 e8bb
000003c0: 209b f13d ad1a 54bd d579 86bc 90e9 debb
000003d0: 9f1a a8bc 465d 9a3b b05d 05bd eac0 32bd
000003e0: 40c9 0dbd ec3e d23d 28cb 3b3d 6943 22bd
000003f0: a253 c3bd 69a9 b43c d047 7bbc 7e03 be3d

lstm.bias_ih_l0 f4 [256]
0.0 0.0 0.0 0.0 0.0 0.0 0.0 0.0
0.0 0.0 0.0 0.0 0.0 0.0 0.0 0.0
0.0 0.0 0.0 0.0 0.0 0.0 0.0 0.0
0.0 0.0 0.0 0.0 0.0 0.0 0.0 0.0
0.0 0.0 0.0 0.0 0.0 0.0 0.0 0.0
0.0 0.0 0.0 0.0 0.0 0.0 0.0 0.0
0.0 0.0 0.0 0.0 0.0 0.0 0.0 0.0
0.0 0.0 0.0 0.0 0.0 0.0 0.0 0.0
0.0 0.0 0.0 0.0 0.0 0.0 0.0 0.0
0.0 0.0 0.0 0.0 0.0 0.0 0.0 0.0
0.0 0.0 0.0 0.0 0.0 0.0 0.0 0.0
0.0 0.0 0.0 0.0 0.0 0.0 0.0 0.0
0.0 0.0 0.0 0.0 0.0 0.0 0.0 0.0
0.0 0.0 0.0 0.0 0.0 0.0 0.0 0.0
0.0 0.0 0.0 0.0 0.0 0.0 0.0 0.0
0.0 0.0 0.0 0.0 0.0 0.0 0.0 0.0
0.0 0.0 0.0 0.0 0.0 0.0 0.0 0.0
0.0 0.0 0.0 0.0 0.0 0.0 0.0 0.0
0.0 0.0 0.0 0.0 0.0 0.0 0.0 0.0
0.0 0.0 0.0 0.0 0.0 0.0 0.0 0.0
0.0 0.0 0.0 0.0 0.0 0.0 0.0 0.0
0.0 0.0 0.0 0.0 0.0 0.0 0.0 0.0
0.0 0.0 0.0 0.0 0.0 0.0 0.0 0.0
0.0 0.0 0.0 0.0 0.0 0.0 0.0 0.0
0.0 0.0 0.0 0.0 0.0 0.0 0.0 0.0
0.0 0.0 0.0 0.0 0.0 0.0 0.0 0.0
0.0 0.0 0.0 0.0 0.0 0.0 0.0 0.0
0.0 0.0 0.0 0.0 0.0 0.0 0.0 0.0
0.0 0.0 0.0 0.0 0.0 0.0 0.0 0.0
0.0 0.0 0.0 0.0 0.0 0.0 0.0 0.0
0.0 0.0 0.0 0.0 0.0 0.0 0.0 0.0
0.0 0.0 0.0 0.0 0.0 0.0 0.0 0.0
00000000: 0000 0000 0000 0000 0000 0000 0000 0000
00000010: 0000 0000 0000 0000 0000 0000 0000 0000
00000020: 0000 0000 0000 0000 0000 0000 0000 0000
00000030: 0000 0000 0000 0000 0000 0000 0000 0000
00000040: 0000 0000 0000 0000 0000 0000 0000 0000
00000050: 0000 0000 0000 0000 0000 0000 0000 0000
00000060: 0000 0000 0000 0000 0000 0000 0000 0000
00000070: 0000 0000 0000 0000 0000 0000 0000 0000
00000080: 0000 0000 0000 0000 0000 0000 0000 0000
00000090: 0000 0000 0000 0000 0000 0000 0000 0000
000000a0: 0000 0000 0000 0000 0000 0000 0000 0000
000000b0: 0000 0000 0000 0000 0000 0000 0000 0000
000000c0: 0000 0000 0000 0000 0000 0000 0000 0000
000000d0: 0000 0000 0000 0000 0000 0000 0000 0000
000000e0: 0000 0000 0000 0000 0000 0000 0000 0000
000000f0: 0000 0000 0000 0000 0000 0000 0000 0000
00000100: 0000 0000 0000 0000 0000 0000 0000 0000
00000110: 0000 0000 0000 0000 0000 0000 0000 0000
00000120: 0000 0000 0000 0000 0000 0000 0000 0000
00000130: 0000 0000 0000 0000 0000 0000 0000 0000
00000140: 0000 0000 0000 0000 0000 0000 0000 0000
00000150: 0000 0000 0000 0000 0000 0000 0000 0000
00000160: 0000 0000 0000 0000 0000 0000 0000 0000
00000170: 0000 0000 0000 0000 0000 0000 0000 0000
00000180: 0000 0000 0000 0000 0000 0000 0000 0000
00000190: 0000 0000 0000 0000 0000 0000 0000 0000
000001a0: 0000 0000 0000 0000 0000 0000 0000 0000
000001b0: 0000 0000 0000 0000 0000 0000 0000 0000
000001c0: 0000 0000 0000 0000 0000 0000 0000 0000
000001d0: 0000 0000 0000 0000 0000 0000 0000 0000
000001e0: 0000 0000 0000 0000 0000 0000 0000 0000
000001f0: 0000 0000 0000 0000 0000 0000 0000 0000
00000200: 0000 0000 0000 0000 0000 0000 0000 0000
00000210: 0000 0000 0000 0000 0000 0000 0000 0000
00000220: 0000 0000 0000 0000 0000 0000 0000 0000
00000230: 0000 0000 0000 0000 0000 0000 0000 0000
00000240: 0000 0000 0000 0000 0000 0000 0000 0000
00000250: 0000 0000 0000 0000 0000 0000 0000 0000
00000260: 0000 0000 0000 0000 0000 0000 0000 0000
00000270: 0000 0000 0000 0000 0000 0000 0000 0000
00000280: 0000 0000 0000 0000 0000 0000 0000 0000
00000290: 0000 0000 0000 0000 0000 0000 0000 0000
000002a0: 0000 0000 0000 0000 0000 0000 0000 0000
000002b0: 0000 0000 0000 0000 0000 0000 0000 0000
000002c0: 0000 0000 0000 0000 0000 0000 0000 0000
000002d0: 0000 0000 0000 0000 0000 0000 0000 0000
000002e0: 0000 0000 0000 0000 0000 0000 0000 0000
000002f0: 0000 0000 0000 0000 0000 0000 0000 0000
00000300: 0000 0000 0000 0000 0000 0000 0000 0000
00000310: 0000 0000 0000 0000 0000 0000 0000 0000
00000320: 0000 0000 0000 0000 0000 0000 0000 0000
00000330: 0000 0000 0000 0000 0000 0000 0000 0000
00000340: 0000 0000 0000 0000 0000 0000 0000 0000
00000350: 0000 0000 0000 0000 0000 0000 0000 0000
00000360: 0000 0000 0000 0000 0000 0000 0000 0000
00000370: 0000 0000 0000 0000 0000 0000 0000 0000
00000380: 0000 0000 0000 0000 0000 0000 0000 0000
00000390: 0000 0000 0000 0000 0000 0000 0000 0000
000003a0: 0000 0000 0000 0000 0000 0000 0000 0000
000003b0: 0000 0000 0000 0000 0000 0000 0000 0000
000003c0: 0000 0000 0000 0000 0000 0000 0000 0000
000003d0: 0000 0000 0000 0000 0000 0000 0000 0000
000003e0: 0000 0000 0000 0000 0000 0000 0000 0000
000003f0: 0000 0000 0000 0000 0000 0000 0000 0000

lstm.bias_hh_l0 f4 [256]
0.0 0.0 0.0 0.0 0.0 0.0 0.0 0.0
0.0 0.0 0.0 0.0 0.0 0.0 0.0 0.0
0.0 0.0 0.0 0.0 0.0 0.0 0.0 0.0
0.0 0.0 0.0 0.0 0.0 0.0 0.0 0.0
0.0 0.0 0.0 0.0 0.0 0.0 0.0 0.0
0.0 0.0 0.0 0.0 0.0 0.0 0.0 0.0
0.0 0.0 0.0 0.0 0.0 0.0 0.0 0.0
0.0 0.0 0.0 0.0 0.0 0.0 0.0 0.0
0.0 0.0 0.0 0.0 0.0 0.0 0.0 0.0
0.0 0.0 0.0 0.0 0.0 0.0 0.0 0.0
0.0 0.0 0.0 0.0 0.0 0.0 0.0 0.0
0.0 0.0 0.0 0.0 0.0 0.0 0.0 0.0
0.0 0.0 0.0 0.0 0.0 0.0 0.0 0.0
0.0 0.0 0.0 0.0 0.0 0.0 0.0 0.0
0.0 0.0 0.0 0.0 0.0 0.0 0.0 0.0
0.0 0.0 0.0 0.0 0.0 0.0 0.0 0.0
0.0 0.0 0.0 0.0 0.0 0.0 0.0 0.0
0.0 0.0 0.0 0.0 0.0 0.0 0.0 0.0
0.0 0.0 0.0 0.0 0.0 0.0 0.0 0.0
0.0 0.0 0.0 0.0 0.0 0.0 0.0 0.0
0.0 0.0 0.0 0.0 0.0 0.0 0.0 0.0
0.0 0.0 0.0 0.0 0.0 0.0 0.0 0.0
0.0 0.0 0.0 0.0 0.0 0.0 0.0 0.0
0.0 0.0 0.0 0.0 0.0 0.0 0.0 0.0
0.0 0.0 0.0 0.0 0.0 0.0 0.0 0.0
0.0 0.0 0.0 0.0 0.0 0.0 0.0 0.0
0.0 0.0 0.0 0.0 0.0 0.0 0.0 0.0
0.0 0.0 0.0 0.0 0.0 0.0 0.0 0.0
0.0 0.0 0.0 0.0 0.0 0.0 0.0 0.0
0.0 0.0 0.0 0.0 0.0 0.0 0.0 0.0
0.0 0.0 0.0 0.0 0.0 0.0 0.0 0.0
0.0 0.0 0.0 0.0 0.0 0.0 0.0 0.0
00000000: 0000 0000 0000 0000 0000 0000 0000 0000
00000010: 0000 0000 0000 0000 0000 0000 0000 0000
00000020: 0000 0000 0000 0000 0000 0000 0000 0000
00000030: 0000 0000 0000 0000 0000 0000 0000 0000
00000040: 0000 0000 0000 0000 0000 0000 0000 0000
00000050: 0000 0000 0000 0000 0000 0000 0000 0000
00000060: 0000 0000 0000 0000 0000 0000 0000 0000
00000070: 0000 0000 0000 0000 0000 0000 0000 0000
00000080: 0000 0000 0000 0000 0000 0000 0000 0000
00000090: 0000 0000 0000 0000 0000 0000 0000 0000
000000a0: 0000 0000 0000 0000 0000 0000 0000 0000
000000b0: 0000 0000 0000 0000 0000 0000 0000 0000
000000c0: 0000 0000 0000 0000 0000 0000 0000 0000
000000d0: 0000 0000 0000 0000 0000 0000 0000 0000
000000e0: 0000 0000 0000 0000 0000 0000 0000 0000
000000f0: 0000 0000 0000 0000 0000 0000 0000 0000
00000100: 0000 0000 0000 0000 0000 0000 0000 0000
00000110: 0000 0000 0000 0000 0000 0000 0000 0000
00000120: 0000 0000 0000 0000 0000 0000 0000 0000
00000130: 0000 0000 0000 0000 0000 0000 0000 0000
00000140: 0000 0000 0000 0000 0000 0000 0000 0000
00000150: 0000 0000 0000 0000 0000 0000 0000 0000
00000160: 0000 0000 0000 0000 0000 0000 0000 0000
00000170: 0000 0000 0000 0000 0000 0000 0000 0000
00000180: 0000 0000 0000 0000 0000 0000 0000 0000
00000190: 0000 0000 0000 0000 0000 0000 0000 0000
000001a0: 0000 0000 0000 0000 0000 0000 0000 0000
000001b0: 0000 0000 0000 0000 0000 0000 0000 0000
000001c0: 0000 0000 0000 0000 0000 0000 0000 0000
000001d0: 0000 0000 0000 0000 0000 0000 0000 0000
000001e0: 0000 0000 0000 0000 0000 0000 0000 0000
000001f0: 0000 0000 0000 0000 0000 0000 0000 0000
00000200: 0000 0000 0000 0000 0000 0000 0000 0000
00000210: 0000 0000 0000 0000 0000 0000 0000 0000
00000220: 0000 0000 0000 0000 0000 0000 0000 0000
00000230: 0000 0000 0000 0000 0000 0000 0000 0000
00000240: 0000 0000 0000 0000 0000 0000 0000 0000
00000250: 0000 0000 0000 0000 0000 0000 0000 0000
00000260: 0000 0000 0000 0000 0000 0000 0000 0000
00000270: 0000 0000 0000 0000 0000 0000 0000 0000
00000280: 0000 0000 0000 0000 0000 0000 0000 0000
00000290: 0000 0000 0000 0000 0000 0000 0000 0000
000002a0: 0000 0000 0000 0000 0000 0000 0000 0000
000002b0: 0000 0000 0000 0000 0000 0000 0000 0000
000002c0: 0000 0000 0000 0000 0000 0000 0000 0000
000002d0: 0000 0000 0000 0000 0000 0000 0000 0000
000002e0: 0000 0000 0000 0000 0000 0000 0000 0000
000002f0: 0000 0000 0000 0000 0000 0000 0000 0000
00000300: 0000 0000 0000 0000 0000 0000 0000 0000
00000310: 0000 0000 0000 0000 0000 0000 0000 0000
00000320: 0000 0000 0000 0000 0000 0000 0000 0000
00000330: 0000 0000 0000 0000 0000 0000 0000 0000
00000340: 0000 0000 0000 0000 0000 0000 0000 0000
00000350: 0000 0000 0000 0000 0000 0000 0000 0000
00000360: 0000 0000 0000 0000 0000 0000 0000 0000
00000370: 0000 0000 0000 0000 0000 0000 0000 0000
00000380: 0000 0000 0000 0000 0000 0000 0000 0000
00000390: 0000 0000 0000 0000 0000 0000 0000 0000
000003a0: 0000 0000 0000 0000 0000 0000 0000 0000
000003b0: 0000 0000 0000 0000 0000 0000 0000 0000
000003c0: 0000 0000 0000 0000 0000 0000 0000 0000
000003d0: 0000 0000 0000 0000 0000 0000 0000 0000
000003e0: 0000 0000 0000 0000 0000 0000 0000 0000
000003f0: 0000 0000 0000 0000 0000 0000 0000 0000

lstm.weight_ih_l1 f4 [256, 64]
0.0768647 -0.09928401 -0.010398825 -0.09809839 0.12015701 -0.01318683 0.024521066 0.054383643
-0.12886184 -0.009620797 -0.09270504 -0.08596058 0.027747534 -0.0070784 0.0057196557 0.11466728
-0.07482739 -0.027058557 -0.056125022 -0.0802128 0.059178267 -0.04591222 -0.02208076 0.08063552
-0.05298776 0.12592591 -0.0007925503 -0.10791372 -0.100116126 -0.050908383 -0.057302218 0.13492957
-0.07481666 -0.07076508 0.040900707 0.024554836 -0.067941405 0.0019233215 -0.029988484 0.055153538
0.06917766 0.11236792 0.042579584 -0.061081856 -0.036064573 -0.021114994 0.053329248 -0.04443999
0.03135122 -0.055790726 -0.060696427 -0.13369091 0.046984073 0.11653783 0.124565646 0.007048087
0.07514956 0.11203298 -0.10773313 0.02570513 0.10865545 0.048125915 -0.11189446 0.066068836
0.06465844 -0.015325669 -0.075795464 -0.11826622 0.0034046215 -0.004429878 0.1485063 -0.111564286
0.1349509 -0.12238839 -0.0067610564 -0.02109955 -0.0013296859 0.018312493 0.06559611 0.12987727
-0.11737031 -0.066935346 -0.0006963925 -0.120203935 0.06483826 0.04702252 -0.034855988 -0.079685524
0.048365008 -0.09106865 -0.05120404 -0.020326313 -0.0885524 -0.12914653 0.13306028 0.12783913
0.046493564 0.06453523 0.043037556 0.07607808 0.050262377 0.03025845 -0.16549318 -0.09328044
-0.078005075 -0.13279176 0.056903195 -0.13367537 0.05584813 0.007539781 0.06105702 0.08643217
-0.119619414 -0.1371214 0.008386541 -0.03309211 -0.12201966 0.084315 -0.07989801 0.06592516
0.109017886 0.09391332 0.13503927 -0.06914042 -0.016176917 -0.062443353 0.03785768 -0.044685353
0.11479573 -0.019860001 0.13362183 -0.018582629 -0.062139202 -0.12390001 -0.0049542105 0.103079334
0.0213263 -0.0787409 -0.12518875 0.02271015 0.114108 -0.084740035 0.107538186 0.12089613
0.027483815 -0.036883548 -0.1395784 0.092691705 0.12115448 -0.12568615 0.038384456 -0.12741095
0.080351815 0.09562912 -0.025918106 0.06289506 0.04190564 -0.009423802 0.103831984 0.020088691
-0.0028644963 0.06968101 0.06806689 0.14381367 -0.02467913 0.12540102 0.15094548 0.09781397
0.08516705 -0.10262869 0.0115658175 0.13104154 0.09680342 0.07293341 0.13815738 -0.082471766
-0.0068022893 0.02938914 -0.09663519 0.11155364 -0.1281716 -0.037867736 0.124863565 0.06917175
0.061779074 -0.06978427 0.13299355 -0.056255106 -0.03475659 -0.11364195 0.062247623 -0.105663046
-0.1072347 -0.09560986 -0.06380621 0.0905887 -0.077930436 0.10881574 0.004349066 0.05628677
0.011157814 0.020256832 0.122814134 -0.00056371244 0.020337967 -0.019365354 -0.1028319 -0.048589665
-0.03573025 0.07808808 0.030505246 -0.0861411 0.07432813 0.011915857 -0.07500544 -0.07552954
-0.068267465 0.044900626 -0.06642191 -0.041121267 0.09598831 0.15119454 -0.07547069 -0.10378176
-0.03946472 -0.061694685 0.0625799 -0.032443777 0.14855745 -0.04870625 0.009703341 -0.098612644
0.019308314 0.07090064 -0.12913188 0.03627397 0.1317637 0.06242754 -0.16518672 0.08681512
0.09552811 0.18398277 0.04533953 0.08051128 -0.105602376 0.052578323 0.1526279 0.048146423
0.04770156 0.09814868 -0.051140495 0.047298662 -0.060549382 0.09105408 -0.07555221 0.0681192
00000000: 3d6b 9d3d 6a55 cbbd d55f 2abc cfe7 c8bd
00000010: e114 f63d 930d 58bc 67e0 c83c 62c1 5e3d
00000020: 5cf4 03be 8ca0 1dbc 24dc bdbd 1a0c b0bd
00000030: cc4e e33c ecf1 e7bb f36b bb3b aed6 ea3d
00000040: 1a3f 99bd e8a9 ddbc 5ae3 65bd 9c46 a4bd
00000050: e964 723d 740e 3cbd b6e2 b4bc 3c24 a53d
00000060: b209 59bd b9f2 003e 26c3 4fba de01 ddbd
00000070: af09 cdbd 4f85 50bd bbb5 6abd fa2a 0a3e
00000080: 7a39 99bd 48ed 90bd 8087 273d 3927 c93c
00000090: dd24 8bbd f617 fc3a 69aa f5bc ade8 613d
000000a0: 04ad 8d3d 2721 e63d ee67 2e3d f830 7abd
000000b0: 72b8 13bd 5af9 acbc c56f 5a3d b506 36bd
000000c0: 236a 003d d184 64bd d19c 78bd 45e6 08be
000000d0: 5f72 403d 63ab ee3d 461c ff3d a4f3 e63b
000000e0: 03e8 993d 8c71 e53d 30a3 dcbd 9193 d23c
000000f0: c086 de3d ae1f 453d ec28 e5bd 194f 873d
00000100: a56b 843d 8418 7bbc a73a 9bbd 8f35 f2bd
00000110: 1220 5f3b 8328 91bb 0912 183e d17b e4bd
00000120: 9230 0a3e c4a6 fabd da8b ddbb f7d8 acbc
00000130: db48 aeba 1504 963c 4157 863d 8cfe 043e
00000140: d85f f0bd 6615 89bd 1c8e 36ba 7b2d f6bd
00000150: ecc9 843d b09a 403d 27c5 0ebd 2a32 a3bd
00000160: 631a 463d 3382 babd 54bb 51bd 5e83 a6bc
00000170: f65a b5bd fd3e 04be f440 083e 43e8 023e
00000180: 0970 3e3d 0c2b 843d 2648 303d d3ce 9b3d
00000190: ecdf 4d3d 92e0 f73c 0b77 29be d109 bfbd
000001a0: 20c1 9fbd 90fa 07be 5313 693d 32e2 08be
000001b0: 02c1 643d 4410 f73b ed16 7a3d 5903 b13d
000001c0: 06fb f4bd 8d69 0cbe b467 093c 988b 07bd
000001d0: 72e5 f9bd 58ad ac3d 91a1 a3bd c503 873d
000001e0: c544 df3d a055 c03d bc47 0a3e 7e99 8dbd
000001f0: 7485 84bc 9ac4 7fbd a810 1b3d fd07 37bd
00000200: 061a eb3d 71b1 a2bc 29d4 083e 993a 98bc
00000210: ad85 7ebd 4abf fdbd ee56 a2bb 421b d33d
00000220: 7eb4 ae3c e942 a1bd 7b31 00be a30a ba3c
00000230: 75b1 e93d 2f8c adbd fb3c dc3d 6498 f73d
00000240: bd25 e13c 3413 17bd a4ed 0ebe 26d5 bd3d
00000250: d71f f83d dfb3 00be 0539 1d3d 0478 02be
00000260: 7e8f a43d 33d9 c33d 3552 d4bc 20cf 803d
00000270: 40a5 2b3d 4a66 1abc dda5 d43d 0a91 a43c
00000280: 46ba 3bbb ebb4 8e3d a766 8b3d e443 133e
00000290: e32b cabc 2069 003e 7491 1a3e b152 c83d
000002a0: 106c ae3d fe2e d2bd 8e7e 3d3c c12f 063e
000002b0: df40 c63d 1d5e 953d 2179 0d3e f5e6 a8bd
000002c0: bde5 debb 7ec1 f03c ace8 c5bd 3c76 e43d
000002d0: 6a3f 03be 331b 1bbd 78b8 ff3d eba9 8d3d
000002e0: 0e0c 7d3d 0eeb 8ebd 762f 083e c16b 66bd
000002f0: ed5c 0ebd 1cbd e8bd 5df7 7e3d de65 d8bd
00000300: de9d dbbd 1acf c3bd d5ac 82bd 9186 b93d
00000310: fe99 9fbd c9da de3d 9c82 8e3b f58c 663d
00000320: 44cf 363c a8f1 a53c fa85 fb3d 1ac6 13ba
00000330: cf9b a63c 17a4 9ebc 8899 d2bd f505 47bd
00000340: e259 12bd a5ec 9f3d 23e6 f93c bf6a b0bd
00000350: 5939 983d ba3a 433c 749c 99bd 3baf 9abd
00000360: d0cf 8bbd b8e9 373d 3608 88bd c66e 28bd
00000370: 8595 c43d bed2 1a3e 6190 9abd 888b d4bd
00000380: c2a5 21bd 91b3 7cbd e429 803d c4e3 04bd
00000390: 721f 183e 3480 47bd c3fa 1e3c 6df5 c9bd
000003a0: 782c 9e3c 5b34 913d 263b 04be 0494 143d
000003b0: 10ed 063e 05b4 7f3d b526 29be 20cc b13d
000003c0: 3ea4 c33d fb65 3c3e f1b5 393d 19e3 a43d
000003d0: 0f46 d8bd 5e5c 573d 7d4a 1c3e 2f35 453d
000003e0: b662 433d 2d02 c93d b278 51bd 3ebc 413d
000003f0: a102 78bd 907a ba3d 1ebb 9abd 1482 8b3d

lstm.weight_hh_l1 f4 [256, 64]
-0.059252657 0.09318208 0.092764325 0.083863415 0.08349833 0.029888423 0.07819481 0.057481237
0.11829877 -0.13481489 -0.076559335 -0.09444392 -0.06275435 -0.11020593 0.21973439 -0.10880496
-0.026331345 0.09922724 -0.112967215 0.015575677 0.060288306 -0.020650115 -0.16665085 0.19913654
0.046869583 0.05629217 -0.15081997 0.14401884 -0.038284354 0.0064361314 0.04544975 0.01749964
-0.0032131814 0.03392161 0.10238791 -0.1160463 -0.047106065 -0.06600768 -0.10726099 -0.076438524
-0.1337449 0.08699142 0.010295235 -0.003934611 -0.07477157 -0.05482067 0.06947673 -0.0013011717
0.029946482 0.0021761416 -0.08207084 -0.029807039 0.0992184 0.023767604 0.18269083 0.049793504
0.05464066 0.1480617 -0.044652164 0.07419674 0.0227038 0.047558453 0.08976803 -0.012484152
-0.05321942 -0.12890567 0.052373085 0.060966697 -0.03573342 -0.106400326 -0.03501876 0.10605389
0.015593299 0.019246314 -0.0021826907 0.07091778 -0.0069401604 0.07316325 0.04055343 0.003040571
0.035945106 0.060391154 0.026299091 -0.048876464 0.021702427 -0.036872905 0.09104702 0.01765325
0.043959197 -0.101626866 0.017322743 -0.06582005 0.01453377 0.027730552 -0.018474732 -0.012761098
0.108644634 -0.057503283 -0.03570713 0.060864154 0.008390013 0.072853476 0.054033756 0.113630235
0.030123513 -0.009006358 -0.03271848 -0.017334359 0.10288509 -0.0935158 -0.0012374212 0.07859424
0.06974305 0.0763192 0.026467243 0.005837341 -0.020113455 0.08908661 0.00034516287 -0.007036379
-0.14115801 0.044434898 0.08293797 0.06864613 -0.007763825 -0.12744479 -0.02908634 -0.13284014
-0.027628388 -0.058985323 0.09868853 -0.023535717 -0.026914475 0.0877756 0.040771835 0.14323136
0.040012784 -0.027388273 0.059595782 -0.16579129 0.015190316 -0.07212728 0.063798316 0.091792606
0.015404594 0.062912665 0.10087067 0.024205824 0.008959629 -0.06645861 0.05939618 0.050984368
0.06081124 -0.11785314 0.050433975 0.15205932 0.13193083 0.007810875 0.03490309 0.039736126
0.061510902 0.038774624 -0.09909131 -0.12400569 -0.017214278 0.08867982 0.04139849 -0.0050754305
-0.04685344 -0.04907174 -0.040580876 0.07803449 0.016414432 -0.033353757 0.03945843 0.08566466
-0.059466407 -0.027981196 -0.012329928 -0.039491374 0.037066683 -0.014101726 0.10152748 0.03227135
0.07450425 0.044107627 0.077273384 0.0351941 0.014443895 0.08108189 -0.0291554 -0.0070240702
0.02382699 0.022420574 -0.0052306186 -0.0029410277 -0.00078932306 0.098468885 0.09555862 -0.06356403
-0.05744364 -0.058728304 -0.027352925 0.04573588 0.022862572 0.02939207 0.120927915 0.008541893
0.08691639 0.041993745 -0.1195482 -0.0006065597 -0.028704084 -0.069756895 0.039657116 -0.022367777
0.025320837 -0.051078264 -0.16644593 -0.038199063 -0.1923918 0.013606003 0.0072679725 0.002861999
0.02348079 -0.03114497 0.07452786 0.06876459 0.0828405 -0.051812977 0.049125586 0.04086758
-0.020580312 0.110943735 0.03525315 0.04818839 0.20712017 0.022603579 -0.13143396 -0.085974045
-0.008801468 0.10421973 -0.008296609 -0.035658915 -0.050579682 0.119230315 0.0035934066 0.057315346
0.083005965 0.06831696 -0.057628557 -0.112861186 0.07004586 0.19339487 -0.006888399 -0.0980938
00000000: eab2 72bd 3fd6 be3d 39fb bd3d 95c0 ab3d
00000010: 2c01 ab3d 91d8 f43c 9a24 a03d 7271 6b3d
00000020: a046 f23d ea0c 0abe 24cb 9cbd d06b c1bd
00000030: 5a85 80bd a6b3 e1bd 0d02 613e 23d5 debd
00000040: d5b4 d7bc a737 cb3d 5b5b e7bd 2031 7f3c
00000050: dff0 763d 6e2a a9bc 85a6 2abe 73ea 4b3e
00000060: 52fa 3f3d 9e92 663d 8d70 1abe ad79 133e
00000070: 0ed0 1cbd 2fe6 d23b 8429 3a3d 685b 8f3c
00000080: 3d94 52bb 63f1 0a3d c1b0 d13d afa9 edbd
00000090: 4af2 40bd 092f 87bd a6ab dbbd cd8b 9cbd
000000a0: 6cf4 08be 8f28 b23d 58ad 283c e9ed 80bb
000000b0: d621 99bd a48b 60bd d149 8e3d 148c aaba
000000c0: 5352 f53c 999d 0e3b c214 a8bd e42d f4bc
000000d0: 0433 cb3d 47b4 c23c 4e13 3b3e 46f4 4b3d
000000e0: e2ce 5f3d 7c9d 173e 30e5 36bd 76f4 973d
000000f0: 52fd b93c a7cc 423d 4dd8 b73d 548a 4cbc
00000100: 9bfc 59bd d9ff 03be 2985 563d 37b8 793d
00000110: 355d 12bd 6ae8 d9bd d56f 0fbd c832 d93d
00000120: 097b 7f3c 72aa 9d3c 790b 0fbb 573d 913d
00000130: 496a e3bb 9dd6 953d 5a1b 263d 5144 473b
00000140: 2d3b 133d b75c 773d 3171 d73c b032 48bd
00000150: 4ac9 b13c 0b08 17bd dc76 ba3d 8c9d 903c
00000160: 8f0e 343d bf21 d0bd 6de8 8d3c aacc 86bd
00000170: 0d1f 6e3c 2f2b e33c 5258 97bc ed13 51bc
00000180: 1481 de3d 9088 6bbd a441 12bd b14c 793d
00000190: 4476 093c 3434 953d 8052 5d3d f8b6 e83d
000001a0: 96c5 f63c 678f 13bc d003 06bd c900 8ebc
000001b0: 6bb5 d23d 3685 bfbd f730 a2ba 04f6 a03d
000001c0: 72d5 8e3d 3e4d 9c3d d5d1 d83c 2a47 bf3b
000001d0: f9c4 a4bc 0a73 b63d faf6 b439 6d91 e6bb
000001e0: ba8b 10be 5e01 363d 62db a93d 5896 8c3d
000001f0: af67 febb e380 02be 7a46 eebc 3f07 08be
00000200: ee54 e2bc 989a 71bd 361d ca3d facd c0bc
00000210: bf7b dcbc b2c3 b33d 5e00 273d 3eab 123e
00000220: 72e4 233d 5f5d e0bc b51a 743d 31c5 29be
00000230: cee0 783c 78b7 93bd b1a8 823d c3fd bb3d
00000240: 8d63 7c3c 5bd8 803d 4895 ce3d 4b4b c63c
00000250: 68cb 123c 741b 88bd 6949 733d fcd4 503d
00000260: 3515 793d fd5c f1bd db93 4e3d 70b5 1b3e
00000270: e018 073e 5ef2 ff3b 8bf6 0e3d 59c2 223d
00000280: dbf2 7b3d 24d2 1e3d 62f0 cabd b2f6 fdbd
00000290: f504 8dbc c49d b53d 7791 293d cc4f a6bb
000002a0: 65e9 3fbd 73ff 48bd 2238 26bd 8cd0 9f3d
000002b0: 8f77 863c f39d 08bd 2a9f 213d f470 af3d
000002c0: 0c93 73bd d238 e5bc 7703 4abc b5c1 21bd
000002d0: 3cd3 173d ed0a 67bc a4ed cf3d f72e 043d
000002e0: af95 983d 33aa 343d 8241 9e3d b027 103d
000002f0: 16a6 6c3c 430e a63d 4ed7 eebc 2c2a e6bb
00000300: d230 c33c 5aab b73c 9c65 abbb 42be 40bb
00000310: 93ea 4eba 0eaa c93d 3db4 c33d dc2d 82bd
00000320: 064a 6bbd 178d 70bd 3e13 e0bc 8c55 3b3d
00000330: 4a4a bb3c a3c7 f03c 0ea9 f73d 4cf3 0b3c
00000340: 3801 b23d a201 2c3d b0d5 f4bd 8801 1fba
00000350: d424 ebbc b4dc 8ebd 806f 223d a13c b7bc
00000360: a56d cf3c 7137 51bd cd70 2abe 9f76 1cbd
00000370: 5b02 45be b6eb 5e3c 2c28 ee3b 6090 3b3b
00000380: c95a c03c bc23 ffbc 10a2 983d 73d4 8c3d
00000390: 48a8 a93d d839 54bd e937 493d c364 273d
000003a0: 0b98 a8bc 7836 e33d 9b65 103d 3061 453d
000003b0: 4f17 543e 242b b93c a096 06be 2913 b0bd
000003c0: 0834 10bc 2771 d53d 80ee 07bc 150f 12bd
000003d0: a42c 4fbd 062f f43d 5c7f 6b3b 7fc3 6a3d
000003e0: 08ff a93d c3e9 8b3d ec0b 6cbd c423 e7bd
000003f0: 3474 8f3d 4e09 463e 14b8 e1bb 67e5 c8bd

lstm.bias_ih_l1 f4 [256]
-0.02290765 0.0416963 -0.014929156 -0.039893866 0.010275231 0.032982234 0.032473203 0.020095874
-0.004072978 0.0018969306 -0.0006328372 0.0050139106 0.0007886514 -0.012756356 0.013167089 0.047015436
0.03309811 -0.008294025 0.022325868 0.027242279 -0.06370277 0.0208379 -0.019404879 0.0029637797
-0.004724196 -0.005430546 0.03575951 -0.005110654 0.037980266 0.035466466 -0.0042374036 -0.0028788361
0.050331905 0.03868748 0.014436295 -0.003915502 -0.011263042 0.024425939 0.014643574 0.0072851274
-0.017800517 0.016357945 0.026270203 0.003488593 -0.0064598927 0.0016194225 0.031984743 -0.017250104
0.032105416 0.0403654 0.021215105 -0.0019609772 0.042899977 -0.024731193 0.007882257 -0.030797087
0.031371806 0.01596638 0.037331197 -0.058113854 0.034158792 0.05317642 0.032101713 -0.007974717
-0.030563287 0.042407937 -0.038933214 -0.058773726 -0.0030425275 0.038435906 0.0147986505 -0.0073367474
-0.008605935 -0.015949598 -0.0060693454 -0.007864239 -0.0032475912 -0.023322174 -0.0022634848 0.045024004
0.02310237 -0.011092306 -0.0072398824 0.012217585 -0.030797638 -0.00079105486 -0.020276401 -0.017088827
-0.006124272 -0.030521072 0.0021286393 -0.008782687 0.029795093 0.006115264 -0.015755909 -0.011253085
0.034730762 0.02397569 0.0040940456 -0.018790426 -0.02007087 0.004712212 0.0025511817 -0.010091338
-0.004086033 -0.007373231 0.009972799 0.002761717 -0.048668202 -0.006773372 0.017489817 -0.014761238
0.020464476 0.038445618 0.005798359 -0.016621986 0.037060447 -0.034052033 0.0072020525 -0.033978716
0.03397191 0.00552165 0.043209173 -0.024625147 0.025218021 0.018928032 0.013828921 -0.009551706
0.03408458 -0.039814886 -0.04746204 -0.027342863 -0.03153926 -0.025438903 -0.053604502 -0.057526413
0.035123266 0.046405468 0.07755521 0.032152124 0.031694565 -0.03942658 -0.04005819 0.07651014
0.045876313 -0.04702269 -0.03530292 -0.044371773 -0.026350828 0.040805634 0.045881994 -0.03947537
-0.027011959 -0.038864132 0.06507575 -0.033709332 0.036765955 0.07807874 -0.04848359 0.027929151
0.055002533 -0.056850668 -0.032798182 0.060011443 0.05424619 0.039820835 0.049281813 0.044298492
0.03638672 0.04810881 -0.048283577 -0.06929801 -0.02500176 0.045206796 -0.051419523 0.041378997
-0.041533187 -0.03884914 0.050833706 0.055073116 -0.036460385 -0.046532746 -0.056223113 -0.040802922
-0.027358972 -0.035017412 0.040521584 0.02836483 -0.02913891 -0.053289037 -0.048771728 0.028069148
-0.035987426 -0.006286828 -0.011036434 -0.038656697 -0.004819869 0.0031408616 0.020088265 0.00061696005
-0.010197142 -0.008565272 -0.022919433 -0.025424529 -0.011212451 -0.028382817 -0.0015479148 -0.0070028272
0.00078305614 -0.0017107524 0.012165908 -0.0011880194 -0.05699141 0.010129523 -0.02403074 -0.016473267
-0.006937039 -0.008771462 0.032919403 -0.016868502 -0.020097584 -0.0013043575 -0.012332581 -0.014846386
0.013319967 0.010600762 -0.024676086 -0.007630226 -0.013258371 -0.013827844 0.009655002 -0.0029459724
-0.029127764 -0.00010684543 0.0031701196 0.0025613245 -0.013962611 -0.009117501 0.0067732423 -0.013962996
-0.013400179 0.0021397397 0.006323751 -0.0044387383 -0.009103748 -0.02877448 0.0016926706 -0.025446633
0.005128305 0.00021974667 -0.012664509 -0.05788969 -0.027047077 0.024359545 0.013633154 -0.013177504
00000000: d3a8 bbbc bdc9 2a3d 6b99 74bc c067 23bd
00000010: 7159 283c 6118 073d 9f02 053d 1aa0 a43c
00000020: 9e76 85bb 6ea2 f83a fce4 25ba bb4b a43b
00000030: 80bd 4e3a 0900 51bc c6ba 573c 4293 403d
00000040: e291 073d aae3 07bc bde4 b63c 332b df3c
00000050: 9976 82bd 3eb4 aa3c fbf6 9ebc f93b 423b
00000060: 6ecd 9abb b9f2 b1bb 9078 123d 4677 a7bb
00000070: 3291 1b3d 4945 113d ebd9 8abb dbaa 3cbb
00000080: d428 4e3d c376 1e3d 3686 6c3c 9d4d 80bb
00000090: 9f88 38bc e818 c83c 9aeb 6f3c 14b8 ee3b
000000a0: 64d2 91bc 1901 863c 9c34 d73c e1a0 643b
000000b0: 82ad d3bb cd42 d43a 6f02 033d 1750 8dbc
000000c0: f880 033d 3156 253d 4dcb ad3c bd83 00bb
000000d0: e3b7 2f3d 1299 cabc 9524 013c 2c4a fcbc
000000e0: b97f 003d edcb 823c 99e8 183d cb08 6ebd
000000f0: 17ea 0b3d 85cf 593d 167d 033d 63a8 02bc
00000100: dc5f fabc f2b3 2d3d 6f78 1fbd b8bc 70bd
00000110: 2465 47bb f86e 1d3d 0a76 723c 1969 f0bb
00000120: e8ff 0cbc bba8 82bc 5ce1 c6bb 02d9 00bc
00000130: 8ad5 54bb 250e bfbc f956 14bb 176b 383d
00000140: 2e41 bd3c 81bc 35bc 893c edbb 442c 483c
00000150: 544b fcbc cb5e 4fba b21a a6bc defd 8bbc
00000160: 1eae c8bb 5407 fabc a480 0b3b 42e5 0fbc
00000170: d714 f43c 8d62 c83b 8912 81bc dc5e 38bc
00000180: d841 0e3d ab68 c43c 5827 863b 61ee 99bc
00000190: aa6b a4bc e668 9a3b ba31 273b 2456 25bc
000001a0: 21e4 85bb 259b f1bb f364 233c ecfd 343b
000001b0: 4f58 47bd 2af3 ddbb ce46 8f3c 1fd9 71bc
000001c0: 1ea5 a73c 2779 1d3d 2900 be3b d52a 88bc
000001d0: b2cc 173d 257a 0bbd 32ff eb3b 442d 0bbd
000001e0: 2126 0b3d f5ee b43b 1afc 303d adba c9bc
000001f0: 0696 ce3c f60e 9b3c b392 623c c27e 1cbc
00000200: 469c 0b3d ef14 23bd 8e67 42bd 24fe dfbc
00000210: 502f 01bd 3f65 d0bc 6590 5bbd d1a0 6bbd
00000220: 6add 0f3d a913 3e3d 44d5 9e3d f2b1 033d
00000230: 29d2 013d c47d 21bd 0e14 24bd 59b1 9c3d
00000240: cde8 3b3d dd9a 40bd cb99 10bd 2dbf 35bd
00000250: b1dd d7bc cf23 273d c2ee 3b3d edb0 21bd
00000260: 2f48 ddbc ff2f 1fbd 6f46 853d cc12 0abd
00000270: e697 163d bfe7 9f3d bb96 46bd adcb e43c
00000280: 564a 613d 3fdc 68bd 6357 06bd 8fce 753d
00000290: 4131 5e3d 2c1b 233d badb 493d 5672 353d
000002a0: 3e0a 153d be0d 453d 00c5 45bd 1dec 8dbd
000002b0: 7ed0 ccbc c32a 393d 479d 52bd 067d 293d
000002c0: b41e 2abd 4720 1fbd 0137 503d 5994 613d
000002d0: 7c57 15bd 1f99 3ebd 354a 66bd f720 27bd
000002e0: ec1f e0bc 6b6e 0fbd f6f9 253d 5c5d e83c
000002f0: b9b4 eebc 9b45 5abd ddc4 47bd 45f1 e53c
00000300: 8d67 13bd bc01 cebb 29d2 34bc 7c56 1ebd
00000310: feef 9dbb ead6 4d3b 2590 a43c 7dbb 213a
00000320: ea11 27bc 5b55 0cbc 89c1 bbbc 1a47 d0bc
00000330: 6eb4 37bc 1583 e8bc 67e3 caba f977 e5bb
00000340: 0246 4d3a 533b e0ba 8453 473c 51b7 9bba
00000350: d36f 69bd 4df6 253c 1ddc c4bc f2f2 86bc
00000360: 1a50 e3bb 2eb6 0fbc 7fd6 063d d02f 8abc
00000370: b0a3 a4bc faf6 aaba 980e 4abc 423e 73bc
00000380: fe3b 5a3c d2ae 2d3c 8125 cabc fa06 fabb
00000390: a339 59bc 2e8e 62bc 0330 1e3c 3711 41bb
000003a0: 599d eebc 3412 e0b8 c8c1 4f3b e5db 273b
000003b0: 6fc3 64bc 9261 15bc 13f2 dd3b 0dc5 64bc
000003c0: 6d8c 5bbc e03a 0c3b 7837 cf3b d672 91bb
000003d0: e327 15bc 75b8 ebbc 9adc dd3a 7575 d0bc
000003e0: 570b a83b cc6b 6639 cd7e 4fbc bd1d 6dbd
000003f0: d591 ddbc ab8d c73c 985d 5f3c 75e6 57bc

lstm.bias_hh_l1 f4 [256]
-0.02290765 0.0416963 -0.014929156 -0.039893866 0.010275231 0.032982234 0.032473203 0.020095874
-0.004072978 0.0018969306 -0.0006328372 0.0050139106 0.0007886514 -0.012756356 0.013167089 0.047015436
0.03309811 -0.008294025 0.022325868 0.027242279 -0.06370277 0.0208379 -0.019404879 0.0029637797
-0.004724196 -0.005430546 0.03575951 -0.005110654 0.037980266 0.035466466 -0.0042374036 -0.0028788361
0.050331905 0.03868748 0.014436295 -0.003915502 -0.011263042 0.024425939 0.014643574 0.0072851274
-0.017800517 0.016357945 0.026270203 0.003488593 -0.0064598927 0.0016194225 0.031984743 -0.017250104
0.032105416 0.0403654 0.021215105 -0.0019609772 0.042899977 -0.024731193 0.007882257 -0.030797087
0.031371806 0.01596638 0.037331197 -0.058113854 0.034158792 0.05317642 0.032101713 -0.007974717
-0.030563287 0.042407937 -0.038933214 -0.058773726 -0.0030425275 0.038435906 0.0147986505 -0.0073367474
-0.008605935 -0.015949598 -0.0060693454 -0.007864239 -0.0032475912 -0.023322174 -0.0022634848 0.045024004
0.02310237 -0.011092306 -0.0072398824 0.012217585 -0.030797638 -0.00079105486 -0.020276401 -0.017088827
-0.006124272 -0.030521072 0.0021286393 -0.008782687 0.029795093 0.006115264 -0.015755909 -0.011253085
0.034730762 0.02397569 0.0040940456 -0.018790426 -0.02007087 0.004712212 0.0025511817 -0.010091338
-0.004086033 -0.007373231 0.009972799 0.002761717 -0.048668202 -0.006773372 0.017489817 -0.014761238
0.020464476 0.038445618 0.005798359 -0.016621986 0.037060447 -0.034052033 0.0072020525 -0.033978716
0.03397191 0.00552165 0.043209173 -0.024625147 0.025218021 0.018928032 0.013828921 -0.009551706
0.03408458 -0.039814886 -0.04746204 -0.027342863 -0.03153926 -0.025438903 -0.053604502 -0.057526413
0.035123266 0.046405468 0.07755521 0.032152124 0.031694565 -0.03942658 -0.04005819 0.07651014
0.045876313 -0.04702269 -0.03530292 -0.044371773 -0.026350828 0.040805634 0.045881994 -0.03947537
-0.027011959 -0.038864132 0.06507575 -0.033709332 0.036765955 0.07807874 -0.04848359 0.027929151
0.055002533 -0.056850668 -0.032798182 0.060011443 0.05424619 0.039820835 0.049281813 0.044298492
0.03638672 0.04810881 -0.048283577 -0.06929801 -0.02500176 0.045206796 -0.051419523 0.041378997
-0.041533187 -0.03884914 0.050833706 0.055073116 -0.036460385 -0.046532746 -0.056223113 -0.040802922
-0.027358972 -0.035017412 0.040521584 0.02836483 -0.02913891 -0.053289037 -0.048771728 0.028069148
-0.035987426 -0.006286828 -0.011036434 -0.038656697 -0.004819869 0.0031408616 0.020088265 0.00061696005
-0.010197142 -0.008565272 -0.022919433 -0.025424529 -0.011212451 -0.028382817 -0.0015479148 -0.0070028272
0.00078305614 -0.0017107524 0.012165908 -0.0011880194 -0.05699141 0.010129523 -0.02403074 -0.016473267
-0.006937039 -0.008771462 0.032919403 -0.016868502 -0.020097584 -0.0013043575 -0.012332581 -0.014846386
0.013319967 0.010600762 -0.024676086 -0.007630226 -0.013258371 -0.013827844 0.009655002 -0.0029459724
-0.029127764 -0.00010684543 0.0031701196 0.0025613245 -0.013962611 -0.009117501 0.0067732423 -0.013962996
-0.013400179 0.0021397397 0.006323751 -0.0044387383 -0.009103748 -0.02877448 0.0016926706 -0.025446633
0.005128305 0.00021974667 -0.012664509 -0.05788969 -0.027047077 0.024359545 0.013633154 -0.013177504
00000000: d3a8 bbbc bdc9 2a3d 6b99 74bc c067 23bd
00000010: 7159 283c 6118 073d 9f02 053d 1aa0 a43c
00000020: 9e76 85bb 6ea2 f83a fce4 25ba bb4b a43b
00000030: 80bd 4e3a 0900 51bc c6ba 573c 4293 403d
00000040: e291 073d aae3 07bc bde4 b63c 332b df3c
00000050: 9976 82bd 3eb4 aa3c fbf6 9ebc f93b 423b
00000060: 6ecd 9abb b9f2 b1bb 9078 123d 4677 a7bb
00000070: 3291 1b3d 4945 113d ebd9 8abb dbaa 3cbb
00000080: d428 4e3d c376 1e3d 3686 6c3c 9d4d 80bb
00000090: 9f88 38bc e818 c83c 9aeb 6f3c 14b8 ee3b
000000a0: 64d2 91bc 1901 863c 9c34 d73c e1a0 643b
000000b0: 82ad d3bb cd42 d43a 6f02 033d 1750 8dbc
000000c0: f880 033d 3156 253d 4dcb ad3c bd83 00bb
000000d0: e3b7 2f3d 1299 cabc 9524 013c 2c4a fcbc
000000e0: b97f 003d edcb 823c 99e8 183d cb08 6ebd
000000f0: 17ea 0b3d 85cf 593d 167d 033d 63a8 02bc
00000100: dc5f fabc f2b3 2d3d 6f78 1fbd b8bc 70bd
00000110: 2465 47bb f86e 1d3d 0a76 723c 1969 f0bb
00000120: e8ff 0cbc bba8 82bc 5ce1 c6bb 02d9 00bc
00000130: 8ad5 54bb 250e bfbc f956 14bb 176b 383d
00000140: 2e41 bd3c 81bc 35bc 893c edbb 442c 483c
00000150: 544b fcbc cb5e 4fba b21a a6bc defd 8bbc
00000160: 1eae c8bb 5407 fabc a480 0b3b 42e5 0fbc
00000170: d714 f43c 8d62 c83b 8912 81bc dc5e 38bc
00000180: d841 0e3d ab68 c43c 5827 863b 61ee 99bc
00000190: aa6b a4bc e668 9a3b ba31 273b 2456 25bc
000001a0: 21e4 85bb 259b f1bb f364 233c ecfd 343b
000001b0: 4f58 47bd 2af3 ddbb ce46 8f3c 1fd9 71bc
000001c0: 1ea5 a73c 2779 1d3d 2900 be3b d52a 88bc
000001d0: b2cc 173d 257a 0bbd 32ff eb3b 442d 0bbd
000001e0: 2126 0b3d f5ee b43b 1afc 303d adba c9bc
000001f0: 0696 ce3c f60e 9b3c b392 623c c27e 1cbc
00000200: 469c 0b3d ef14 23bd 8e67 42bd 24fe dfbc
00000210: 502f 01bd 3f65 d0bc 6590 5bbd d1a0 6bbd
00000220: 6add 0f3d a913 3e3d 44d5 9e3d f2b1 033d
00000230: 29d2 013d c47d 21bd 0e14 24bd 59b1 9c3d
00000240: cde8 3b3d dd9a 40bd cb99 10bd 2dbf 35bd
00000250: b1dd d7bc cf23 273d c2ee 3b3d edb0 21bd
00000260: 2f48 ddbc ff2f 1fbd 6f46 853d cc12 0abd
00000270: e697 163d bfe7 9f3d bb96 46bd adcb e43c
00000280: 564a 613d 3fdc 68bd 6357 06bd 8fce 753d
00000290: 4131 5e3d 2c1b 233d badb 493d 5672 353d
000002a0: 3e0a 153d be0d 453d 00c5 45bd 1dec 8dbd
000002b0: 7ed0 ccbc c32a 393d 479d 52bd 067d 293d
000002c0: b41e 2abd 4720 1fbd 0137 503d 5994 613d
000002d0: 7c57 15bd 1f99 3ebd 354a 66bd f720 27bd
000002e0: ec1f e0bc 6b6e 0fbd f6f9 253d 5c5d e83c
000002f0: b9b4 eebc 9b45 5abd ddc4 47bd 45f1 e53c
00000300: 8d67 13bd bc01 cebb 29d2 34bc 7c56 1ebd
00000310: feef 9dbb ead6 4d3b 2590 a43c 7dbb 213a
00000320: ea11 27bc 5b55 0cbc 89c1 bbbc 1a47 d0bc
00000330: 6eb4 37bc 1583 e8bc 67e3 caba f977 e5bb
00000340: 0246 4d3a 533b e0ba 8453 473c 51b7 9bba
00000350: d36f 69bd 4df6 253c 1ddc c4bc f2f2 86bc
00000360: 1a50 e3bb 2eb6 0fbc 7fd6 063d d02f 8abc
00000370: b0a3 a4bc faf6 aaba 980e 4abc 423e 73bc
00000380: fe3b 5a3c d2ae 2d3c 8125 cabc fa06 fabb
00000390: a339 59bc 2e8e 62bc 0330 1e3c 3711 41bb
000003a0: 599d eebc 3412 e0b8 c8c1 4f3b e5db 273b
000003b0: 6fc3 64bc 9261 15bc 13f2 dd3b 0dc5 64bc
000003c0: 6d8c 5bbc e03a 0c3b 7837 cf3b d672 91bb
000003d0: e327 15bc 75b8 ebbc 9adc dd3a 7575 d0bc
000003e0: 570b a83b cc6b 6639 cd7e 4fbc bd1d 6dbd
000003f0: d591 ddbc ab8d c73c 985d 5f3c 75e6 57bc

fc.weight f4 [1, 64]
0.092245415 -0.031412784 -0.053436533 -0.03650547 -0.048718564 -0.053831127 -0.050019592 -0.093616895
0.065474585 0.050344758 0.07253282 0.07127758 0.072897196 -0.08736593 -0.039962076 0.060147647
0.029378781 -0.124982744 -0.037868902 -0.046616644 -0.020261863 0.06363838 0.080027886 -0.03608389
-0.09446571 -0.043988813 0.06830489 -0.088613495 0.065878294 0.06770442 -0.104414366 0.072772235
0.06282521 -0.10627512 -0.06542691 0.10508249 0.090565786 0.061183788 0.052378327 0.034765404
0.06556535 0.08351319 -0.07011747 -0.052882038 -0.04296106 0.08238285 -0.058338013 0.093826555
-0.06449459 -0.05285919 0.06906722 0.05896521 -0.04512607 -0.08017903 -0.1029578 -0.09962399
-0.032770284 -0.082505584 0.034325622 0.053505722 -0.01783826 -0.051202267 -0.082505316 0.056696724
00000000: 2aeb bc3d b1aa 00bd 44e0 5abd c286 15bd
00000010: 1e8d 47bd 077e 5cbd 58e1 4cbd 37ba bfbd
00000020: 8a17 863d 4e36 4e3d 168c 943d fbf9 913d
00000030: 204b 953d e9ec b2bd 46af 23bd 615d 763d
00000040: c5ab f03c f4f6 ffbd 6c1c 1bbd 18f1 3ebd
00000050: 35fc a5bc d754 823d a9e5 a33d b3cc 13bd
00000060: 3d77 c1bd 9d2d 34bd 6fe3 8b3d fe7a b5bd
00000070: 33eb 863d 9da8 8a3d 33d7 d5bd 9c09 953d
00000080: 81aa 803d c5a6 d9bd 8bfe 85bd 7d35 d73d
00000090: 8e7a b93d da9b 7a3d a88a 563d 2b66 0e3d
000000a0: 2047 863d f708 ab3d c099 8fbd d69a 58bd
000000b0: f0f7 2fbd 57b8 a83d d7f3 6ebd 2328 c03d
000000c0: bd15 84bd e182 58bd 1d73 8d3d 8185 713d
000000d0: 1dd6 38bd e734 a4bd 8adb d2bd aa07 ccbd
000000e0: 223a 06bd b0f8 a8bd 0699 0c3d d128 5b3d
000000f0: 8b21 92bc 78b9 51bd 8cf8 a8bd d33a 683d
