ML/models/SOL/4h/lstm_model.pth (torch, 224124 bytes, 9 tensors)

lstm.weight_ih_l0 f4 [256, 19]
000000 0f 21 2d 3d 78 33 fc 3c 54 16 a7 3d 7e b3 32 3a
       0.042267855 0.030786261 0.081585556 0.00068169076
000010 04 19 8b bd 0a 6f 12 3e 93 d7 03 bd 4f 75 0a 3d
       -0.06791881 0.1430017 -0.03218801 0.03380328
000020 d4 44 de 3d 3c d6 fd bd 0a 16 03 bc 1f 05 df 3d
       0.10852972 -0.123943776 -0.00800086 0.10889649
000030 9e 27 4d 3d df 49 ed bd 35 2e c2 3d 2d 88 ee 3d
       0.05008661 -0.115863554 0.094814695 0.11647067
000040 10 02 03 be ce 24 8b 3d 98 f1 75 bd 90 e2 ab 3c
       -0.12793756 0.06794129 -0.060044855 0.020982057
000050 93 03 e5 bd 88 4a 53 bd 7e cb 10 3e a8 28 89 bd
       -0.11182322 -0.05158475 0.14140126 -0.06697208
000060 a5 b7 14 be 8a 82 06 be c1 78 85 3d 15 8c 06 be
       -0.1452318 -0.13135734 0.065171726 -0.13139375
000070 92 b7 39 bc 05 f9 fa bd de d6 5d 3b 35 2d 17 3e
       -0.0113352705 -0.12254528 0.0033849995 0.14763339
000080 6c 4b 8f 3d af d9 91 3d 5a 17 ca bd e5 13 0e be
       0.069968075 0.07121598 -0.09867735 -0.13874777
000090 0f a2 99 bc 57 9f c9 3c fd 2f 96 3d cc 50 d3 3d
       -0.018754033 0.024612112 0.07333372 0.10318145
0000a0 c0 36 b6 3a a9 81 db 3d 6d ed c0 bd bf 0a fd bd
       0.0013901815 0.1071809 -0.094202854 -0.12355565
0000b0 eb c1 bd 3d 83 38 24 bd cc 5e 09 be 7c 14 2f 3d
       0.092655025 -0.040092956 -0.13415068 0.042744145
0000c0 b5 e9 aa 3d c5 e4 cc 3d 35 8a 33 bd 6d 0d 84 bd
       0.08345357 0.10004572 -0.043832976 -0.06447873
0000d0 5a 2e c7 3d 27 fd 73 bd f4 a8 f7 3d c2 18 af 3d
       0.09725638 -0.059567597 0.12092772 0.08549644
0000e0 10 d4 c8 3d d0 51 ec 3d e5 5c bc 3d ac 1d 67 bd
       0.09806073 0.11539042 0.09197406 -0.05642478
0000f0 36 61 ff 3d ab b6 b8 3c fe 5e dc 3d 89 18 12 be
       0.124697134 0.02254804 0.10760306 -0.14267172
000100 03 96 f9 bd 7c 66 f8 bd 50 37 c9 3c 2d e8 72 bd
       -0.121868156 -0.12128922 0.024562508 -0.05930345
000110 4c d3 20 bc 84 87 86 bd 0c 4c 51 3d 60 eb 14 be
       -0.009816002 -0.06568816 0.051097915 -0.14542913
000120 55 bd e0 bc 73 26 5c bd 32 4a 16 be 07 85 a5 3d
       -0.02743403 -0.053747606 -0.14676741 0.080820136
000130 ea d7 45 3b a6 dd d8 3d 46 81 57 3d 37 9c 03 bd
       0.003018851 0.10589151 0.05261352 -0.0321314
000140 3d cb 5b bc 03 48 98 3c f0 a1 55 bd de 06 9f 3d
       -0.013415155 0.018589025 -0.05215639 0.07764982
000150 21 16 ea bd cb 65 3e 3d 1e 71 30 bd 13 a8 b1 3d
       -0.11430002 0.046483796 -0.043076627 0.08674636
000160 94 e9 04 bd 17 15 60 3d 92 ba a8 bd b4 84 93 3c
       -0.03244932 0.054707613 -0.082387105 0.018007614
000170 ac 23 09 3e fc fe c3 bc 67 22 bb bd bc e6 06 3e
       0.13392514 -0.023925297 -0.09137421 0.13173956
000180 4a 5e 15 3e bf bf 9b bb 2a 5a a5 3d 20 72 0e be
       0.1458675 -0.0047530825 0.08073838 -0.13910723
000190 e5 38 d9 3b ec 4a 80 bd 6e d5 9f bd 4a 98 eb 3d
       0.006629097 -0.0626429 -0.0780438 0.11503656
0001a0 80 84 62 ba 07 7d 08 3e 16 83 06 bd 02 d5 e6 bd
       -0.000864096 0.13328944 -0.032839857 -0.11271097
0001b0 83 0e 68 3a e9 35 72 bc 68 d1 2e bd a3 2c 9d 3d
       0.000885226 -0.014783361 -0.042680174 0.076745294
0001c0 af 26 05 3e ff d9 00 3e c0 ae 05 be 28 77 ae 3d
       0.13003038 0.12583159 -0.13054943 0.08518821
0001d0 2d aa f1 3b ac fb 15 be d6 72 e4 3d 47 e8 f4 bd
       0.007375023 -0.14646786 0.11154716 -0.11958366
0001e0 f7 29 02 3e db ff 0a be 8e c7 1b bd 96 44 a8 bd
       0.12711321 -0.13574164 -0.038032107 -0.08216207
0001f0 3f 74 a0 bd 33 38 4d bd 25 c8 9e bd fc 12 10 3d
       -0.07834672 -0.050102424 -0.07753018 0.035174355
000200 42 cf e7 bd a4 52 ee bc 4c d3 0e 3e 74 37 0a 3d
       -0.11318828 -0.02909214 0.13947791 0.03374429
000210 2e 68 00 be f3 f6 8f 3d 03 17 a4 bd e4 e4 c7 3d
       -0.12539741 0.07029524 -0.08012202 0.09760454
000220 46 1c 93 3d 04 e5 2c 3d d8 52 f1 3d 91 c2 cd 3d
       0.07183127 0.042210594 0.11783379 0.10046876
000230 ca e9 16 3d d5 5d 1b 3d 59 63 76 3d 53 1c e6 bd
       0.036844052 0.037931282 0.06015334 -0.11235871
000240 c6 b2 7e 3d 5c 09 01 be 18 ed 95 3d dd 76 d3 3c
       0.06218221 -0.12601227 0.07320613 0.025813514
000250 09 fd af 3c 1b 48 b9 3d 89 db e7 3d a3 4e 9c bd
       0.021482961 0.09046956 0.1132117 -0.07632186
000260 f8 f9 31 3d 2b 99 f9 bd d8 cd 86 bc e0 af eb bd
       0.04345128 -0.121874176 -0.016455576 -0.11508155
000270 30 ee 3a bd 42 95 c7 3c 8e 7f 08 3c 2c 59 07 bb
       -0.04563731 0.024363164 0.008331193 -0.0020652516
000280 45 2b 00 3e 04 e7 c9 bc d0 d9 f3 3c 55 b8 86 bd
       0.12516506 -0.02464629 0.029766947 -0.06578127
000290 08 ee 46 3d a1 63 1e 3d 18 a6 e2 3d ea 58 85 ba
       0.048566848 0.038669232 0.11066836 -0.0010173593
0002a0 24 28 c5 bd 3d ca 11 3d 89 3d 01 3e d7 d0 ec 3d
       -0.09626797 0.03559326 0.1262113 0.115632705
0002b0 77 8e c1 3d 44 d6 0b be 51 34 2e 3d 41 cc da 3d
       0.09451001 -0.13655955 0.04253036 0.106834896
0002c0 2e 47 0e be 33 5d 77 3d e0 ab a1 3c f6 91 dd bd
       -0.1389434 0.060391616 0.019735277 -0.108188555
0002d0 83 ad 0c be 24 a1 c5 bd e0 14 2d bd 3f fd 20 3c
       -0.13738064 -0.09649876 -0.042256236 0.009826004
0002e0 b4 3e be bd a1 b0 b7 bd 45 77 07 be f6 de cf bb
       -0.092893034 -0.08969236 -0.13229091 -0.0063437177
0002f0 00 40 05 3e 1c 7e e2 bd 9f 76 96 bd ab 7f d2 bc
       0.13012695 -0.1105921 -0.07346844 -0.025695642
000300 4b 28 14 3d c4 70 0a 3d 5f 1d c8 bc 14 f4 15 3e
       0.03617124 0.033798948 -0.024428068 0.1464389
000310 1b 39 15 3e 79 cb b9 bd d9 77 67 3c a2 81 12 3e
       0.14572565 -0.090720125 0.014127695 0.14307263
000320 be 89 14 bc bb 63 0b 3d 00 70 6b bd 22 75 ed 3d
       -0.009066043 0.034030657 -0.05747986 0.11594607
000330 20 11 11 3e fe 6f 13 3e 04 64 6c bd d4 97 f8 3d
       0.14166689 0.1439819 -0.05771257 0.12138334
000340 83 64 02 3e d0 0f 9b bd 8c e3 f9 3d 33 da 8f bd
       0.12733655 -0.07571375 0.12201604 -0.0702404
000350 99 32 b3 3c ae 56 4f bd 78 b3 6a 3c 7d e4 1d 3a
       0.021874713 -0.050619774 0.014325015 0.0006023122
000360 ff 27 cf 3d 9b 36 eb bd d6 bf 22 3d 47 72 f3 bd
       0.101150505 -0.114850245 0.03973373 -0.11887031
000370 cb 49 27 3b 3c eb b1 3d d9 31 48 bd 10 12 a2 3d
       0.0025526162 0.086874455 -0.048875663 0.079136014
000380 85 e9 d7 bd f4 2f 97 bc b2 df c6 3d e6 e7 a8 3d
       -0.10542587 -0.018455483 0.09710635 0.08247356
000390 0c 89 0b be 14 84 b4 bc ad 32 4e bd 10 28 8d 3d
       -0.13626498 -0.022035636 -0.050341297 0.06892407
0003a0 c5 53 fc bd a9 52 1f bd 60 9f f0 3c 1b ce 2a bd
       -0.12320665 -0.03889719 0.02937287 -0.041700464
0003b0 33 d9 08 3d e3 9e 31 bd b8 7d 6d bd 98 02 7f bd
       0.033410262 -0.043364417 -0.057981223 -0.062258333
0003c0 81 95 15 3e d7 cd 0d 3e 03 99 cd bd 4c 40 5d 3d
       0.14607812 0.13848053 -0.1003895 0.054016396
0003d0 73 97 06 3c c9 1e db 3d e1 4f 12 bd 71 8e 29 bc
       0.008214819 0.10699231 -0.03572071 -0.010348902
0003e0 4b cc 2b 3d 02 9a 16 3e 69 5d be 3c 01 45 93 3c
       0.041942876 0.14707187 0.0232379 0.01797724
0003f0 54 b6 20 3d be 64 a2 bd 92 9b cd bc 52 d2 c3 3d
       0.03923638 -0.07929371 -0.025098596 0.095616

lstm.weight_hh_l0 f4 [256, 64]
000000 d0 84 bc bd 91 52 6c bd 7b b2 a0 bd 94 7b 03 3d
       -0.092050195 -0.05769593 -0.078465424 0.032100275
000010 e8 4d 76 bc 6a 9f 38 bd 8a 18 8a 3d 80 c0 5a ba
       -0.015033223 -0.045073904 0.06742962 -0.0008344725
000020 10 a4 16 bb a0 ad 6c 3d cd 86 cb 3d ef 6f 0e 3c
       -0.0022985972 0.05778277 0.099378206 0.008693679
000030 86 01 b8 bd 30 65 2d 3e f0 b5 29 3b 3a 2f d1 bc
       -0.089846656 0.16933131 0.0025895797 -0.025535215
000040 0e e5 42 3d e2 3b f1 3c f8 03 33 3d 7f 03 56 3d
       0.047581725 0.0294475 0.043704957 0.052249428
000050 28 e7 57 3d c7 c8 0d 3d 83 33 c5 bd de fa dc 3b
       0.052710682 0.034615304 -0.09628966 0.006743773
000060 27 d1 dc 3d df 1f be bc 92 ea f7 bc 28 fb 32 bd
       0.1078208 -0.023208557 -0.030263219 -0.043696553
000070 41 dc 8e bd a3 38 87 bd 02 63 ce 3d 14 2c c0 bb
       -0.06975604 -0.066025995 0.10077478 -0.0058646295
000080 73 78 90 3d 6a 20 e5 bc 09 7f 92 bd 0d 89 82 3c
       0.07054224 -0.027969558 -0.07153136 0.015934492
000090 ec fb 46 bc 09 bf 8a bd b3 f9 72 3d 59 82 85 3c
       -0.012145024 -0.06774718 0.059320163 0.016297506
0000a0 ca d8 91 bd 17 4e 10 3c 23 16 0c 3d 6c ce f2 bc
       -0.07121427 0.008807681 0.0342008 -0.029639445
0000b0 f2 38 95 3d 8d a2 e3 bb 0d 15 04 3d d3 7a 84 3d
       0.07286252 -0.006946868 0.032246638 0.06468739
0000c0 81 a0 c6 3d de 57 68 bc ac d3 0c 3e 14 41 34 bb
       0.096985824 -0.014181105 0.13752621 -0.002750461
0000d0 3e a2 73 3d 07 a6 89 3d 5a eb e4 bd 59 9b 9c 3d
       0.059480898 0.0672112 -0.11177702 0.07646818
0000e0 1e 69 a2 3d 62 71 80 3c 50 61 81 3d 32 3d 9b 3c
       0.07930206 0.015679065 0.06317389 0.018950079
0000f0 34 8b e0 3d 14 06 e9 bd 05 f1 af 3d 26 0d 10 bc
       0.10964051 -0.113781124 0.08590893 -0.008792197
000100 63 10 0b bd 00 e2 0e 3c 06 59 86 3d 3d 71 6e bc
       -0.033951174 0.008720875 0.065599486 -0.014553365
000110 17 5b 5a 3d cb cd c5 bd 7f e2 bc 3c f6 38 32 3d
       0.053309526 -0.096583925 0.02305722 0.043511353
000120 f1 40 ab bd 04 cc f9 bc 30 b8 13 3a 2e a0 df 3c
       -0.08361996 -0.03049279 0.0005635051 0.02729806
000130 4c 62 80 3d 00 59 62 bd 20 70 40 3d a9 36 42 3d
       0.06268749 -0.05526066 0.04698193 0.04741541
000140 c0 ae 81 3c 11 aa 43 3d d9 9d b2 3d 71 7b dc 3d
       0.015830398 0.04776961 0.08721513 0.10765732
000150 f5 14 24 3d 10 2d 0e bd d5 89 9e 3d 01 36 b3 3d
       0.04005905 -0.034710944 0.07741133 0.08750535
000160 46 b8 a5 3d ca 1f 04 bc a8 69 70 bc 3d d7 a0 bd
       0.08091788 -0.00806422 -0.014673628 -0.078535534
000170 7d 6b 60 bd 25 1e 1c bd 84 8f bc bc 45 66 55 bd
       -0.05479001 -0.038114686 -0.023017652 -0.052099485
000180 64 e8 14 3c 26 75 fc bb 5e 70 d2 3d 9e ae 8c 3d
       0.009088609 -0.007704395 0.102753386 0.06869243
000190 f3 90 b7 3d d0 20 94 bd 7f 02 43 be 17 9a 98 3d
       0.08963194 -0.07232821 -0.19043921 0.07451265
0001a0 c8 77 bd bd c2 60 89 b9 84 e9 48 3d 99 02 26 bd
       -0.09251362 -0.00026202766 0.049050823 -0.04052982
0001b0 4a 52 73 bb e6 bf ed 3d 26 f0 10 3d 97 74 8d 3d
       -0.0037127906 0.11608867 0.035385273 0.069070034
0001c0 84 59 f9 3b b5 50 49 bd a8 2c df bb d0 fa cf bb
       0.007609548 -0.049149234 -0.0068107434 -0.006347038
0001d0 02 41 51 bd 55 4a 71 3d 04 28 ba 3d 60 26 98 bd
       -0.051087387 0.05890878 0.090896636 -0.074291945
0001e0 cb bc 02 3d e4 78 69 3d 0d 47 c9 bd 45 1f 0d bc
       0.03191833 0.057000056 -0.09828005 -0.008613412
0001f0 22 04 c0 bd 96 f3 b2 3c 79 93 a2 3d 40 4c 8f 3d
       -0.09375788 0.021844666 0.079382844 0.069969654
000200 e3 37 ad bd 10 88 4a bd c0 9e 1a 3d f5 fd 60 3d
       -0.08457925 -0.049446166 0.037749052 0.054929692
000210 a7 f7 3a bd 5d fc 12 3c cf 16 78 bd 0b 50 74 bc
       -0.045646336 0.008971301 -0.060568627 -0.014911662
000220 c7 a7 57 bd ca 82 8e 3d 0a 9a f4 bb ab 2f 97 3d
       -0.05265024 0.0695854 -0.007464652 0.07382139
000230 ea 5a 9c bd 3a 7a de 3d b8 1e 65 3c ea 12 d0 3d
       -0.07634528 0.108631566 0.013984375 0.101598576
000240 42 ef 1c bd bb a2 25 bd 82 66 99 bc fd 85 0d bc
       -0.03831411 -0.040438395 -0.018725637 -0.008637902
000250 2b 20 a3 3c a1 03 ad 3d 30 39 26 3d 1c f7 0f 3b
       0.0199128 0.08447958 0.040581882 0.0021967357
000260 4c 51 0e 3e 16 c5 04 bd 30 c7 fe bc 3d 74 c8 3d
       0.138982 -0.03241452 -0.03110084 0.09787796
000270 95 4e 90 3d 23 58 e8 3d 0b 61 0a 3d d0 24 17 3c
       0.07046238 0.11344936 0.033783954 0.009225085
000280 1a 26 93 3c 82 ea e9 3d 30 86 d6 3c d9 62 98 3c
       0.017962504 0.11421682 0.026187032 0.018601822
000290 b8 ed 3c 3c 0b 89 af 3d 73 e9 24 3c 79 b5 b0 3d
       0.011531286 0.08571061 0.010065424 0.08628363
0002a0 74 cb 97 bd 52 1c eb 3a f7 e3 f8 bc 18 6e 0d bd
       -0.074118525 0.0017937517 -0.03038214 -0.03452882
0002b0 9e d0 61 3b 72 01 1a bd a6 e4 7e bd c4 68 d4 3d
       0.003445662 -0.037599035 -0.062229775 0.10371545
0002c0 e9 a5 ba bc 12 09 87 3d fc 99 dd 3c b8 bb 89 3d
       -0.02278419 0.06593527 0.027050965 0.06725258
0002d0 1a db 94 3d 30 67 48 3d e7 81 bd 3d 94 f7 41 bb
       0.07268353 0.048926532 0.092532925 -0.002959703
0002e0 a0 a7 91 3d 03 6e 3f 3d 4b 40 c1 3d 95 43 7d 3d
       0.0711205 0.046735775 0.09436091 0.06183203
0002f0 4c 26 90 3d 18 24 29 3e 15 31 94 bb 22 bb ac 3c
       0.070385545 0.16517675 -0.0045224526 0.021085326
000300 61 f2 bc bb ff 4b 4d 3d 2a 5f bb bc 40 87 c2 3d
       -0.0057661985 0.050121304 -0.022872526 0.09498453
000310 9c 0c 9d 3b 1f 8e 47 bc c9 5a b6 bd c3 41 cf 3d
       0.004792763 -0.01217988 -0.08904035 0.10119965
000320 b5 75 c9 3b 87 6d 36 3d 64 a9 df 3d 57 ae 88 bd
       0.006148065 0.044538047 0.109209806 -0.06673878
000330 bd 7d 3d 3d c4 2c 32 3c d8 42 75 bd 14 23 a6 bd
       0.04626249 0.010874931 -0.0598782 -0.08112159
000340 88 22 2c be 5d 8a 28 bd 97 a9 d7 3b 3c 11 6b 3d
       -0.16810048 -0.04114758 0.006581496 0.057389483
000350 4f 3f 2b bc 93 88 a2 3d 99 e0 2d 3d 89 01 e7 bd
       -0.010452106 0.07936206 0.04245052 -0.1127959
000360 a2 37 9b 3c 38 b9 87 bd a3 1c 37 bd 5b 6c a9 3d
       0.018947426 -0.066271245 -0.044705044 0.0827262
000370 14 6b 86 3c 45 fd 6b bd 33 3e c2 bb 2c d3 a8 3c
       0.01640848 -0.057614584 -0.005927825 0.020608507
000380 24 3b d6 3d d4 c4 f1 3b 1e 18 42 39 6f 3f b3 bd
       0.10460499 0.0073782 0.00018510266 -0.087523334
000390 2f 33 f3 3d c9 58 fc bc 14 d8 01 bd c8 47 5f bd
       0.11874997 -0.030804055 -0.03170021 -0.054511815
0003a0 76 79 54 bd ae f3 93 bc 7e 98 f8 bb b8 b9 00 3d
       -0.051873647 -0.018060531 -0.007586538 0.031427115
0003b0 52 7d a6 bb b1 a4 bc bc 95 9d 4c bd 2a a9 19 bd
       -0.0050808573 -0.02302775 -0.04995497 -0.037514843
0003c0 74 21 07 3e 98 2c e9 3c c0 97 b9 bd e1 d3 4a bd
       0.13196355 0.028463647 -0.09062147 -0.04951847
0003d0 d2 80 99 3d 35 7f 87 3c 9b d0 02 3e 52 d4 ed 3c
       0.07495274 0.01654015 0.12774889 0.029031906
0003e0 89 44 a3 bd c2 50 53 3c 5f 70 8e 3c 13 7d 04 3e
       -0.079720564 0.012897672 0.017387567 0.12938337
0003f0 c6 62 38 3c ee 2b 34 3d 2e f6 7d bd 3f 9f c2 bd
       0.011254018 0.043987207 -0.062002353 -0.0950303

lstm.bias_ih_l0 f4 [256]
000000 00 00 00 00 00 00 00 00 00 00 00 00 00 00 00 00
       0.0 0.0 0.0 0.0
000010 00 00 00 00 00 00 00 00 00 00 00 00 00 00 00 00
       0.0 0.0 0.0 0.0
000020 00 00 00 00 00 00 00 00 00 00 00 00 00 00 00 00
       0.0 0.0 0.0 0.0
000030 00 00 00 00 00 00 00 00 00 00 00 00 00 00 00 00
       0.0 0.0 0.0 0.0
000040 00 00 00 00 00 00 00 00 00 00 00 00 00 00 00 00
       0.0 0.0 0.0 0.0
000050 00 00 00 00 00 00 00 00 00 00 00 00 00 00 00 00
       0.0 0.0 0.0 0.0
000060 00 00 00 00 00 00 00 00 00 00 00 00 00 00 00 00
       0.0 0.0 0.0 0.0
000070 00 00 00 00 00 00 00 00 00 00 00 00 00 00 00 00
       0.0 0.0 0.0 0.0
000080 00 00 00 00 00 00 00 00 00 00 00 00 00 00 00 00
       0.0 0.0 0.0 0.0
000090 00 00 00 00 00 00 00 00 00 00 00 00 00 00 00 00
       0.0 0.0 0.0 0.0
0000a0 00 00 00 00 00 00 00 00 00 00 00 00 00 00 00 00
       0.0 0.0 0.0 0.0
0000b0 00 00 00 00 00 00 00 00 00 00 00 00 00 00 00 00
       0.0 0.0 0.0 0.0
0000c0 00 00 00 00 00 00 00 00 00 00 00 00 00 00 00 00
       0.0 0.0 0.0 0.0
0000d0 00 00 00 00 00 00 00 00 00 00 00 00 00 00 00 00
       0.0 0.0 0.0 0.0
0000e0 00 00 00 00 00 00 00 00 00 00 00 00 00 00 00 00
       0.0 0.0 0.0 0.0
0000f0 00 00 00 00 00 00 00 00 00 00 00 00 00 00 00 00
       0.0 0.0 0.0 0.0
000100 00 00 00 00 00 00 00 00 00 00 00 00 00 00 00 00
       0.0 0.0 0.0 0.0
000110 00 00 00 00 00 00 00 00 00 00 00 00 00 00 00 00
       0.0 0.0 0.0 0.0
000120 00 00 00 00 00 00 00 00 00 00 00 00 00 00 00 00
       0.0 0.0 0.0 0.0
000130 00 00 00 00 00 00 00 00 00 00 00 00 00 00 00 00
       0.0 0.0 0.0 0.0
000140 00 00 00 00 00 00 00 00 00 00 00 00 00 00 00 00
       0.0 0.0 0.0 0.0
000150 00 00 00 00 00 00 00 00 00 00 00 00 00 00 00 00
       0.0 0.0 0.0 0.0
000160 00 00 00 00 00 00 00 00 00 00 00 00 00 00 00 00
       0.0 0.0 0.0 0.0
000170 00 00 00 00 00 00 00 00 00 00 00 00 00 00 00 00
       0.0 0.0 0.0 0.0
000180 00 00 00 00 00 00 00 00 00 00 00 00 00 00 00 00
       0.0 0.0 0.0 0.0
000190 00 00 00 00 00 00 00 00 00 00 00 00 00 00 00 00
       0.0 0.0 0.0 0.0
0001a0 00 00 00 00 00 00 00 00 00 00 00 00 00 00 00 00
       0.0 0.0 0.0 0.0
0001b0 00 00 00 00 00 00 00 00 00 00 00 00 00 00 00 00
       0.0 0.0 0.0 0.0
0001c0 00 00 00 00 00 00 00 00 00 00 00 00 00 00 00 00
       0.0 0.0 0.0 0.0
0001d0 00 00 00 00 00 00 00 00 00 00 00 00 00 00 00 00
       0.0 0.0 0.0 0.0
0001e0 00 00 00 00 00 00 00 00 00 00 00 00 00 00 00 00
       0.0 0.0 0.0 0.0
0001f0 00 00 00 00 00 00 00 00 00 00 00 00 00 00 00 00
       0.0 0.0 0.0 0.0
000200 00 00 00 00 00 00 00 00 00 00 00 00 00 00 00 00
       0.0 0.0 0.0 0.0
000210 00 00 00 00 00 00 00 00 00 00 00 00 00 00 00 00
       0.0 0.0 0.0 0.0
000220 00 00 00 00 00 00 00 00 00 00 00 00 00 00 00 00
       0.0 0.0 0.0 0.0
000230 00 00 00 00 00 00 00 00 00 00 00 00 00 00 00 00
       0.0 0.0 0.0 0.0
000240 00 00 00 00 00 00 00 00 00 00 00 00 00 00 00 00
       0.0 0.0 0.0 0.0
000250 00 00 00 00 00 00 00 00 00 00 00 00 00 00 00 00
       0.0 0.0 0.0 0.0
000260 00 00 00 00 00 00 00 00 00 00 00 00 00 00 00 00
       0.0 0.0 0.0 0.0
000270 00 00 00 00 00 00 00 00 00 00 00 00 00 00 00 00
       0.0 0.0 0.0 0.0
000280 00 00 00 00 00 00 00 00 00 00 00 00 00 00 00 00
       0.0 0.0 0.0 0.0
000290 00 00 00 00 00 00 00 00 00 00 00 00 00 00 00 00
       0.0 0.0 0.0 0.0
0002a0 00 00 00 00 00 00 00 00 00 00 00 00 00 00 00 00
       0.0 0.0 0.0 0.0
0002b0 00 00 00 00 00 00 00 00 00 00 00 00 00 00 00 00
       0.0 0.0 0.0 0.0
0002c0 00 00 00 00 00 00 00 00 00 00 00 00 00 00 00 00
       0.0 0.0 0.0 0.0
0002d0 00 00 00 00 00 00 00 00 00 00 00 00 00 00 00 00
       0.0 0.0 0.0 0.0
0002e0 00 00 00 00 00 00 00 00 00 00 00 00 00 00 00 00
       0.0 0.0 0.0 0.0
0002f0 00 00 00 00 00 00 00 00 00 00 00 00 00 00 00 00
       0.0 0.0 0.0 0.0
000300 00 00 00 00 00 00 00 00 00 00 00 00 00 00 00 00
       0.0 0.0 0.0 0.0
000310 00 00 00 00 00 00 00 00 00 00 00 00 00 00 00 00
       0.0 0.0 0.0 0.0
000320 00 00 00 00 00 00 00 00 00 00 00 00 00 00 00 00
       0.0 0.0 0.0 0.0
000330 00 00 00 00 00 00 00 00 00 00 00 00 00 00 00 00
       0.0 0.0 0.0 0.0
000340 00 00 00 00 00 00 00 00 00 00 00 00 00 00 00 00
       0.0 0.0 0.0 0.0
000350 00 00 00 00 00 00 00 00 00 00 00 00 00 00 00 00
       0.0 0.0 0.0 0.0
000360 00 00 00 00 00 00 00 00 00 00 00 00 00 00 00 00
       0.0 0.0 0.0 0.0
000370 00 00 00 00 00 00 00 00 00 00 00 00 00 00 00 00
       0.0 0.0 0.0 0.0
000380 00 00 00 00 00 00 00 00 00 00 00 00 00 00 00 00
       0.0 0.0 0.0 0.0
000390 00 00 00 00 00 00 00 00 00 00 00 00 00 00 00 00
       0.0 0.0 0.0 0.0
0003a0 00 00 00 00 00 00 00 00 00 00 00 00 00 00 00 00
       0.0 0.0 0.0 0.0
0003b0 00 00 00 00 00 00 00 00 00 00 00 00 00 00 00 00
       0.0 0.0 0.0 0.0
0003c0 00 00 00 00 00 00 00 00 00 00 00 00 00 00 00 00
       0.0 0.0 0.0 0.0
0003d0 00 00 00 00 00 00 00 00 00 00 00 00 00 00 00 00
       0.0 0.0 0.0 0.0
0003e0 00 00 00 00 00 00 00 00 00 00 00 00 00 00 00 00
       0.0 0.0 0.0 0.0
0003f0 00 00 00 00 00 00 00 00 00 00 00 00 00 00 00 00
       0.0 0.0 0.0 0.0

lstm.bias_hh_l0 f4 [256]
000000 00 00 00 00 00 00 00 00 00 00 00 00 00 00 00 00
       0.0 0.0 0.0 0.0
000010 00 00 00 00 00 00 00 00 00 00 00 00 00 00 00 00
       0.0 0.0 0.0 0.0
000020 00 00 00 00 00 00 00 00 00 00 00 00 00 00 00 00
       0.0 0.0 0.0 0.0
000030 00 00 00 00 00 00 00 00 00 00 00 00 00 00 00 00
       0.0 0.0 0.0 0.0
000040 00 00 00 00 00 00 00 00 00 00 00 00 00 00 00 00
       0.0 0.0 0.0 0.0
000050 00 00 00 00 00 00 00 00 00 00 00 00 00 00 00 00
       0.0 0.0 0.0 0.0
000060 00 00 00 00 00 00 00 00 00 00 00 00 00 00 00 00
       0.0 0.0 0.0 0.0
000070 00 00 00 00 00 00 00 00 00 00 00 00 00 00 00 00
       0.0 0.0 0.0 0.0
000080 00 00 00 00 00 00 00 00 00 00 00 00 00 00 00 00
       0.0 0.0 0.0 0.0
000090 00 00 00 00 00 00 00 00 00 00 00 00 00 00 00 00
       0.0 0.0 0.0 0.0
0000a0 00 00 00 00 00 00 00 00 00 00 00 00 00 00 00 00
       0.0 0.0 0.0 0.0
0000b0 00 00 00 00 00 00 00 00 00 00 00 00 00 00 00 00
       0.0 0.0 0.0 0.0
0000c0 00 00 00 00 00 00 00 00 00 00 00 00 00 00 00 00
       0.0 0.0 0.0 0.0
0000d0 00 00 00 00 00 00 00 00 00 00 00 00 00 00 00 00
       0.0 0.0 0.0 0.0
0000e0 00 00 00 00 00 00 00 00 00 00 00 00 00 00 00 00
       0.0 0.0 0.0 0.0
0000f0 00 00 00 00 00 00 00 00 00 00 00 00 00 00 00 00
       0.0 0.0 0.0 0.0
000100 00 00 00 00 00 00 00 00 00 00 00 00 00 00 00 00
       0.0 0.0 0.0 0.0
000110 00 00 00 00 00 00 00 00 00 00 00 00 00 00 00 00
       0.0 0.0 0.0 0.0
000120 00 00 00 00 00 00 00 00 00 00 00 00 00 00 00 00
       0.0 0.0 0.0 0.0
000130 00 00 00 00 00 00 00 00 00 00 00 00 00 00 00 00
       0.0 0.0 0.0 0.0
000140 00 00 00 00 00 00 00 00 00 00 00 00 00 00 00 00
       0.0 0.0 0.0 0.0
000150 00 00 00 00 00 00 00 00 00 00 00 00 00 00 00 00
       0.0 0.0 0.0 0.0
000160 00 00 00 00 00 00 00 00 00 00 00 00 00 00 00 00
       0.0 0.0 0.0 0.0
000170 00 00 00 00 00 00 00 00 00 00 00 00 00 00 00 00
       0.0 0.0 0.0 0.0
000180 00 00 00 00 00 00 00 00 00 00 00 00 00 00 00 00
       0.0 0.0 0.0 0.0
000190 00 00 00 00 00 00 00 00 00 00 00 00 00 00 00 00
       0.0 0.0 0.0 0.0
0001a0 00 00 00 00 00 00 00 00 00 00 00 00 00 00 00 00
       0.0 0.0 0.0 0.0
0001b0 00 00 00 00 00 00 00 00 00 00 00 00 00 00 00 00
       0.0 0.0 0.0 0.0
0001c0 00 00 00 00 00 00 00 00 00 00 00 00 00 00 00 00
       0.0 0.0 0.0 0.0
0001d0 00 00 00 00 00 00 00 00 00 00 00 00 00 00 00 00
       0.0 0.0 0.0 0.0
0001e0 00 00 00 00 00 00 00 00 00 00 00 00 00 00 00 00
       0.0 0.0 0.0 0.0
0001f0 00 00 00 00 00 00 00 00 00 00 00 00 00 00 00 00
       0.0 0.0 0.0 0.0
000200 00 00 00 00 00 00 00 00 00 00 00 00 00 00 00 00
       0.0 0.0 0.0 0.0
000210 00 00 00 00 00 00 00 00 00 00 00 00 00 00 00 00
       0.0 0.0 0.0 0.0
000220 00 00 00 00 00 00 00 00 00 00 00 00 00 00 00 00
       0.0 0.0 0.0 0.0
000230 00 00 00 00 00 00 00 00 00 00 00 00 00 00 00 00
       0.0 0.0 0.0 0.0
000240 00 00 00 00 00 00 00 00 00 00 00 00 00 00 00 00
       0.0 0.0 0.0 0.0
000250 00 00 00 00 00 00 00 00 00 00 00 00 00 00 00 00
       0.0 0.0 0.0 0.0
000260 00 00 00 00 00 00 00 00 00 00 00 00 00 00 00 00
       0.0 0.0 0.0 0.0
000270 00 00 00 00 00 00 00 00 00 00 00 00 00 00 00 00
       0.0 0.0 0.0 0.0
000280 00 00 00 00 00 00 00 00 00 00 00 00 00 00 00 00
       0.0 0.0 0.0 0.0
000290 00 00 00 00 00 00 00 00 00 00 00 00 00 00 00 00
       0.0 0.0 0.0 0.0
0002a0 00 00 00 00 00 00 00 00 00 00 00 00 00 00 00 00
       0.0 0.0 0.0 0.0
0002b0 00 00 00 00 00 00 00 00 00 00 00 00 00 00 00 00
       0.0 0.0 0.0 0.0
0002c0 00 00 00 00 00 00 00 00 00 00 00 00 00 00 00 00
       0.0 0.0 0.0 0.0
0002d0 00 00 00 00 00 00 00 00 00 00 00 00 00 00 00 00
       0.0 0.0 0.0 0.0
0002e0 00 00 00 00 00 00 00 00 00 00 00 00 00 00 00 00
       0.0 0.0 0.0 0.0
0002f0 00 00 00 00 00 00 00 00 00 00 00 00 00 00 00 00
       0.0 0.0 0.0 0.0
000300 00 00 00 00 00 00 00 00 00 00 00 00 00 00 00 00
       0.0 0.0 0.0 0.0
000310 00 00 00 00 00 00 00 00 00 00 00 00 00 00 00 00
       0.0 0.0 0.0 0.0
000320 00 00 00 00 00 00 00 00 00 00 00 00 00 00 00 00
       0.0 0.0 0.0 0.0
000330 00 00 00 00 00 00 00 00 00 00 00 00 00 00 00 00
       0.0 0.0 0.0 0.0
000340 00 00 00 00 00 00 00 00 00 00 00 00 00 00 00 00
       0.0 0.0 0.0 0.0
000350 00 00 00 00 00 00 00 00 00 00 00 00 00 00 00 00
       0.0 0.0 0.0 0.0
000360 00 00 00 00 00 00 00 00 00 00 00 00 00 00 00 00
       0.0 0.0 0.0 0.0
000370 00 00 00 00 00 00 00 00 00 00 00 00 00 00 00 00
       0.0 0.0 0.0 0.0
000380 00 00 00 00 00 00 00 00 00 00 00 00 00 00 00 00
       0.0 0.0 0.0 0.0
000390 00 00 00 00 00 00 00 00 00 00 00 00 00 00 00 00
       0.0 0.0 0.0 0.0
0003a0 00 00 00 00 00 00 00 00 00 00 00 00 00 00 00 00
       0.0 0.0 0.0 0.0
0003b0 00 00 00 00 00 00 00 00 00 00 00 00 00 00 00 00
       0.0 0.0 0.0 0.0
0003c0 00 00 00 00 00 00 00 00 00 00 00 00 00 00 00 00
       0.0 0.0 0.0 0.0
0003d0 00 00 00 00 00 00 00 00 00 00 00 00 00 00 00 00
       0.0 0.0 0.0 0.0
0003e0 00 00 00 00 00 00 00 00 00 00 00 00 00 00 00 00
       0.0 0.0 0.0 0.0
0003f0 00 00 00 00 00 00 00 00 00 00 00 00 00 00 00 00
       0.0 0.0 0.0 0.0

lstm.weight_ih_l1 f4 [256, 64]
000000 c0 52 68 bd c9 b6 f6 3d f4 6d aa 3d a2 c6 94 bd
       -0.05671954 0.12046582 0.08321753 -0.07264449
000010 7b bf 99 bd 01 45 0e 3e 30 3e 0c bc 6e 01 db bb
       -0.07507225 0.1389351 -0.0085597485 -0.00668352
000020 0b e0 ae bc 64 ab e3 3d 6f 25 f1 3c 85 5a da 3d
       -0.021347066 0.111166745 0.029436795 0.106617965
000030 00 5b c4 3c b1 5d cd bd 42 c2 b8 3d c9 6a fb bd
       0.023969173 -0.10027636 0.09021427 -0.12276227
000040 ef 02 8a 3d f7 49 c6 3d 96 fc f2 3d de d0 8d bc
       0.06738841 0.096820764 0.11864583 -0.01731151
000050 d0 5a 03 bd 72 56 93 bd e6 6c c9 bc 08 d1 d1 bd
       -0.032069027 -0.071942225 -0.02458806 -0.10244948
000060 df 99 74 bd e9 f3 9a bd 04 3a ec 3c a3 99 c2 bd
       -0.059717055 -0.075660534 0.028836258 -0.0950196
000070 a9 b3 f1 bd 86 9b 3c bd 98 be 06 bd a7 25 e5 3d
       -0.118018456 -0.046046756 -0.032896608 0.11188822
000080 f8 41 f6 3d 7e 92 aa bd f4 a7 a7 3c 6c a8 ce bd
       0.12024301 -0.083287224 0.020465828 -0.10090718
000090 c0 14 62 3b e0 80 62 bd ed 5d c8 bd 0a 0f de 3d
       0.0034497231 -0.055298686 -0.0978354 0.10842712
0000a0 fb 1f c0 bd 94 38 14 3c 08 6d d6 bb 03 8b db 3d
       -0.093811 0.009046692 -0.0065437593 0.10719874
0000b0 eb 4d 49 bc 06 b9 cb 3d 7d 4a c0 bd dc dc 18 3d
       -0.0122866435 0.099474 -0.093892075 0.037320003
0000c0 ca 6f fd 3b 11 36 06 be f5 d3 b6 bd 0e 8c af 3c
       0.0077342736 -0.13106562 -0.08927146 0.021429088
0000d0 56 73 04 bd cc d0 a0 3d 0a 1e 54 bb 13 56 09 3d
       -0.032336555 0.07852325 -0.0032366537 0.033529352
0000e0 ad cc 67 bc aa b2 50 bd 2e 2e b4 bd af ad 04 bd
       -0.01414792 -0.050951637 -0.087978706 -0.0323922
0000f0 d6 bc 05 bd 90 6f e9 bd 9a 45 eb 3d a2 54 ac 3d
       -0.03265079 -0.11398232 0.11487885 0.0841458
000100 01 0b 0d be 81 fc 26 3d c9 92 c8 3d bc 6f 26 3d
       -0.13773729 0.04076815 0.09793622 0.040633902
000110 9d 7a 94 3c 61 f6 33 bd f1 f6 4d 3d b3 d6 99 bd
       0.018124873 -0.043936137 0.05028433 -0.07511654
000120 e6 a4 88 3d cc b0 a1 bd 4b 2d 5c bd a7 65 11 3c
       0.06672077 -0.078950495 -0.053754132 0.008874333
000130 f7 fa b8 bd 9e 0d aa 3d 75 c6 c3 3d b7 30 b0 3d
       -0.09032243 0.083033785 0.09559337 0.086030416
000140 4f 4c 50 3e 2d 53 81 3c cb ae d7 3d 9b 9e b6 3d
       0.2034161 0.015786732 0.10531386 0.0891697
000150 43 6c 43 bd d7 1d e8 3d 3a 33 27 be ff b9 c4 bd
       -0.04771067 0.113338165 -0.16328135 -0.096057884
000160 5e 83 c1 3d 32 a2 ec 3d 5b b1 0b 3c 6a 70 ef 3d
       0.094488844 0.11554374 0.008526172 0.11691363
000170 1c 97 16 3e 7b ce 3a 3b 60 84 a9 3d 1d 34 05 3c
       0.14706081 0.002850442 0.08277202 0.008130101
000180 89 08 76 3b 08 00 31 bd 10 7f 55 3d c8 68 fa 3d
       0.0037541708 -0.04321292 0.05212313 0.12227017
000190 26 e6 f1 bd a0 96 9b 3d 8d b0 39 3e ce 90 c5 bc
       -0.118114755 0.07597089 0.18133755 -0.0241169
0001a0 73 7d 47 bc 2e b4 00 3e 4d 52 b8 bb c4 a8 7a 3d
       -0.0121759055 0.12568733 -0.0056250454 0.061196104
0001b0 0f 47 59 3d 3d 1f de bd 79 de 09 bd 50 7d 0e 3d
       0.053046282 -0.10845802 -0.033659432 0.034787476
0001c0 1b 93 2e be 72 31 a6 ba a7 70 d7 bd e9 59 e8 bd
       -0.17048304 -0.0012679531 -0.105195336 -0.11345274
0001d0 26 05 18 be c6 e5 08 3e 9e 73 89 3d a6 17 b3 bd
       -0.14845714 0.13368902 0.06711505 -0.08744745
0001e0 11 66 19 3c 64 f4 19 be 36 55 18 3e c2 85 4e bc
       0.009362713 -0.15034634 0.14876255 -0.012605133
0001f0 29 d9 e0 bc da 20 90 bc 2c 7a 8f bd 5e 5d d1 3d
       -0.0274473 -0.01759379 -0.07005724 0.102228865
000200 a7 07 3c bc 6a 60 93 3d d5 00 0a be f3 42 98 bd
       -0.011476434 0.07196124 -0.1347688 -0.074346446
000210 66 7b 81 3d ca 20 a6 bd 21 b9 fc 3b 7c 25 11 bd
       0.063223645 -0.08111723 0.007712499 -0.03543614
000220 04 99 14 be 1e a5 39 3d fa b4 cf bd c3 f0 1d 3d
       -0.14511496 0.045323484 -0.101419404 0.038559686
000230 b8 40 f4 3d d6 60 ef bd 3b be af bb 56 d3 aa bd
       0.119264066 -0.11688392 -0.0053632534 -0.083410904
000240 ad 20 a0 bd 6b 7f 3a 3c 89 f1 43 bd 96 4c 97 3d
       -0.078187324 0.011382918 -0.047837768 0.073876545
000250 33 0b fa 3d e8 72 1d 3b 44 ac 40 bd 71 9e 01 be
       0.12209167 0.0024024788 -0.047039285 -0.12658097
000260 ab d4 52 bd 9d 5a 95 3d 9b 50 ce bd ba 91 eb 3d
       -0.051472347 0.07292674 -0.10073968 0.115024045
000270 2e d5 cb 3c 56 c8 80 bd c1 da 66 3d 59 d7 57 3c
       0.024881925 -0.06288211 0.056360964 0.0131739015
000280 45 80 ee bd 33 6e 3b bc 9e e4 5d bd be 6c 1d bd
       -0.11645559 -0.011439848 -0.054173104 -0.038433783
000290 9e a0 e2 3d f2 43 b1 3d 70 75 2e 3e af 5b d9 ba
       0.110657915 0.08655538 0.17036986 -0.001658311
0002a0 a7 d8 09 bd d6 cc 8e bd de 37 fe 3d 92 01 e0 3d
       -0.03365388 -0.06972663 0.124129996 0.109377995
0002b0 64 bc ee bd 30 d1 6c 3d 42 a0 f8 3d 6c f4 b0 bd
       -0.116570264 0.057816684 0.12139942 -0.0864037
0002c0 5f 91 8a bc d8 93 6e bd d5 ea 03 3e ac bc 07 be
       -0.016915021 -0.058246464 0.1288255 -0.13255566
0002d0 55 4b cb bd a5 1a cc 3c 42 18 32 3d 02 bc b5 bd
       -0.09926478 0.024915049 0.043480165 -0.0887375
0002e0 9a 0c 34 bd dd cf 8e bb 51 ba 11 3e 5a 45 f2 bd
       -0.04395733 -0.0043582753 0.1423123 -0.11829634
0002f0 ee fa 38 bd 37 a6 09 3e 48 9d a6 bc a4 58 0b be
       -0.04516118 0.13442312 -0.02033867 -0.13608032
000300 3f db 6a 3c 15 f2 e1 bd a1 fc a9 3c 3d 4b 9f 3d
       0.014334499 -0.110325016 0.020750346 0.077780224
000310 46 d2 96 3d dc a0 66 bd e7 58 bd bc c5 05 02 bd
       0.07364325 -0.05630575 -0.023113681 -0.031743784
000320 57 78 b1 3d 08 8a 10 bd 8e ae b2 bd d6 7b d5 bd
       0.08665531 -0.035287887 -0.087247 -0.104240105
000330 2f fa 9c bd e3 75 ec bd 6e ea 9f ba 3a 50 b6 3c
       -0.07664906 -0.115459226 -0.0012200603 0.022255052
000340 1b 30 2c bd c2 4b 52 bd 53 ec 03 3d 8c af c3 bd
       -0.042038064 -0.05134178 0.0322078 -0.09554967
000350 dd 6f 18 3c ec 81 6e ba c9 96 27 3d 45 59 81 bd
       0.009304014 -0.00090983394 0.040915284 -0.06315855
000360 fd 15 87 3d 3c 25 f9 bd a9 83 6d 3d 89 17 80 bd
       0.06595991 -0.12165305 0.05798689 -0.06254489
000370 26 23 66 3d af 01 04 be bd 7f d2 bd de 4b 59 bd
       0.056185864 -0.12891267 -0.102782704 -0.05305087
000380 06 34 e5 3d fa 7f a2 bd 32 41 05 3e 16 d4 7a bd
       0.11191563 -0.07934566 0.13013151 -0.061237417
000390 c8 35 84 bd 56 6b 7e 3c 6e ce ac 3d 7c 0d 4e bd
       -0.064555705 0.015528521 0.08437811 -0.05030583
0003a0 27 34 00 be 21 32 b7 3d 46 72 07 be 30 0a 5e bd
       -0.12519895 0.08945108 -0.13227186 -0.054208934
0003b0 8f 5f 80 bc a2 33 5d 3d 01 2b be bd d7 49 c2 3d
       -0.015670566 0.05400432 -0.09285546 0.0948674
0003c0 fd 3e d5 bd f7 e9 06 3d 4d ae f9 bc 81 35 6b bd
       -0.10412405 0.03293797 -0.03047862 -0.057424072
0003d0 b3 82 04 be 62 cb 66 3d 6b 49 02 3e 51 de 5b bd
       -0.12940483 0.056346305 0.12723319 -0.053678814
0003e0 ff 7e 2f bd 5d 36 95 3c b6 0e 97 3d cc 6a ae bb
       -0.042845722 0.018214399 0.07375853 -0.00532279
0003f0 a2 e9 e3 3d 44 0d 96 bd da 38 ee bd 00 bb b8 3d
       0.11128546 -0.07326749 -0.11631937 0.090200424

lstm.weight_hh_l1 f4 [256, 64]
000000 79 73 3f bc b5 99 f8 bc 80 18 6c 3d f5 68 8e 3c
       -0.011685246 -0.03034673 0.057640553 0.017384032
000010 58 0c 12 3b 59 29 88 bc 17 8e 6e 3c ff 79 56 bc
       0.002228519 -0.016621279 0.014560244 -0.01309061
000020 ad 8f c3 bd 3e 07 bd b9 5f 8b b1 3d c8 0b ed 3b
       -0.09548888 -0.00036054285 0.08669161 0.0072340705
000030 00 07 27 3d 87 76 c4 bc 38 9f 82 3d 92 a7 91 bd
       0.04077816 -0.0239823 0.06378025 -0.071120396
000040 e8 47 09 bd db 28 20 3d ae e0 0a bd 49 d9 0d bc
       -0.03351584 0.039101463 -0.033905677 -0.008657762
000050 7a 52 e6 3d c8 a2 df bc 9b 41 ac bd 17 d7 26 bc
       0.112462 -0.0272993 -0.08410951 -0.010183117
000060 ac a1 ab 3d 25 f0 b4 3b a7 0f 35 ba 45 90 11 bc
       0.08380446 0.0055217915 -0.00069069344 -0.008884494
000070 6a 3a 76 3d 62 a0 48 3d 0d 94 46 3d 30 5b 09 3e
       0.0601143 0.048981078 0.048481036 0.13413692
000080 65 54 16 3d f5 fa 7e 3d 47 4f 03 bd fc 32 cf 3c
       0.03670158 0.06225105 -0.032058027 0.025292866
000090 bb af 7d bb 9e f4 3f bd 0a 88 35 3d 8d 1c 95 bd
       -0.003870948 -0.046864145 0.04431919 -0.07280836
0000a0 3f 90 04 bd e2 33 98 3d 82 c5 a9 bc 64 1b 2e bd
       -0.032364126 0.07431771 -0.020724062 -0.04250659
0000b0 2a 3b 8f bd 18 5f de 3b 22 20 3f bb 0f 32 3a bc
       -0.069937065 0.0067862384 -0.002916344 -0.011364474
0000c0 8c f1 57 bd c7 67 b1 bd fb a3 84 3d 39 31 08 3e
       -0.05272059 -0.08662372 0.06476589 0.13300027
0000d0 38 65 97 3c 73 31 49 bd 14 c9 e2 3d 59 5b b0 3c
       0.018480882 -0.049119424 0.11073509 0.021527933
0000e0 37 40 be bd 27 8a 8c 3d d4 47 0b be d0 b1 d3 bd
       -0.09289592 0.06862288 -0.13601619 -0.103366494
0000f0 4b 03 8b 3d 39 2d 9e bd 2e df 43 3d 47 d6 24 bd
       0.067877375 -0.07723469 0.047820263 -0.040243413
000100 3d 1c c1 3d 40 0b 6d bd 92 fd 1d 3d ae 92 7d 3d
       0.09429214 -0.057872057 0.0385719 0.061907463
000110 f8 e4 d9 3d cf c6 0a 3e fe 42 06 be d1 83 d8 bd
       0.106393754 0.13552402 -0.13111493 -0.10572017
000120 56 30 d9 3d 8b 40 d5 3d de 5b 20 bc d6 76 7d 3d
       0.106049225 0.10412701 -0.009787528 0.06188091
000130 41 06 f6 bd fd 64 0c be 0c 01 95 3d 5f 6a 29 3e
       -0.120129116 -0.13710399 0.0727559 0.16544484
000140 6b 79 82 bd 8f 46 a0 bd 82 8d 1f 3e c5 f2 f1 3d
       -0.06370815 -0.07825958 0.15581325 0.11813883
000150 1a 7b 17 3e 46 bc ca 3d 9d b3 22 3d ec 39 9d bc
       0.14793053 0.098991916 0.039722074 -0.019192658
000160 e7 17 ae bd e2 f8 46 bd fa cb 54 bd fe b0 b3 3c
       -0.08500653 -0.048577197 -0.05195234 0.021934982
000170 b8 4e f4 bd d0 6f 87 bd 7b 7b 76 3d 00 40 85 bd
       -0.11929077 -0.066131234 0.060176354 -0.06506348
000180 16 d3 c8 3d 93 5b 1b be 0c c8 5c 3d 8c ea a2 3d
       0.098058864 -0.15171652 0.053901717 0.079548925
000190 d5 c1 06 3e 08 82 c7 3d 60 13 dd bb dc a1 bc 3d
       0.13159879 0.09741598 -0.0067466944 0.0921056
0001a0 7f 14 de bd 67 65 22 3d 31 87 c9 bd 2a 5b a3 3d
       -0.10843753 0.039647486 -0.09840239 0.079763725
0001b0 da 33 da bd 2c f8 0f be 1e 28 4e 3d c6 80 19 3d
       -0.10654421 -0.14059514 0.050331227 0.037476324
0001c0 43 ad 24 be 0b 14 61 bd 54 07 07 be 59 3e eb 3d
       -0.16081719 -0.054950755 -0.13186389 0.11486501
0001d0 11 cd c7 3d 60 67 da bd f0 66 fc bc f8 ec 0b be
       0.0975591 -0.106642485 -0.030810803 -0.13664615
0001e0 d2 37 f6 3d c0 eb aa 3d c5 a3 73 bd a4 07 a5 3c
       0.12022366 0.08345747 -0.059482355 0.020145245
0001f0 8d 97 c3 3d f7 06 ae bc bd bd 1b be d8 82 ca bd
       0.095503904 -0.021243555 -0.15209098 -0.09888238
000200 65 93 f0 ba a7 d0 6e 3b c7 08 d2 3d d3 42 9d 3c
       -0.0018354474 0.0036440284 0.102555804 0.019196903
000210 a1 e8 e7 3c 81 c0 ad bb d8 6a 10 be 4e 27 f2 3c
       0.028309168 -0.0053024893 -0.14103258 0.029559758
000220 79 df 0f 3e 4a 54 e1 3d ad 45 b1 bd 6e 42 75 3d
       0.14050092 0.11002405 -0.08655868 0.059877805
000230 16 6d fe bb 99 d9 1c be 3e 81 11 3d 62 01 44 3d
       -0.007764469 -0.15317382 0.035523646 0.04785288
000240 ee fb 47 be fd 19 00 be 07 b9 13 3e a7 20 b0 3d
       -0.19529697 -0.12509914 0.14426051 0.08599978
000250 14 44 d4 3d 8b 91 c4 3c cf bb 3c 3e d3 de 2d bd
       0.10364547 0.023995182 0.18431018 -0.04244883
000260 ea d6 58 3d 25 68 1f be ad 83 75 bd b3 51 29 be
       0.052939333 -0.15567072 -0.05994003 -0.16535072
000270 a8 5e 05 be 4d f1 a9 bc b5 a7 4e bc 20 51 a7 bd
       -0.1302439 -0.020744944 -0.012613227 -0.0816977
000280 96 58 31 3e e7 14 7c bd fb 27 02 bd 47 0d ba bd
       0.17318949 -0.06154337 -0.03177641 -0.09084564
000290 08 79 20 3d c4 24 a7 bd f8 ce dc bd 85 2c 82 3d
       0.039177924 -0.08161309 -0.10781664 0.06356148
0002a0 cd a1 05 be 5e 33 02 be 7a 64 cd bc fb 95 88 3d
       -0.13050003 -0.12714908 -0.025072325 0.066692315
0002b0 9f 3a 98 bd 02 65 c5 bd 54 2e fc 3d 19 9f 28 3d
       -0.07433056 -0.09638406 0.12313524 0.041167352
0002c0 85 a6 0b be a2 8b 77 3d a8 11 cb bd 6c fc 7f 3c
       -0.13637741 0.0604359 -0.09915477 0.015624147
0002d0 5d bc 09 3e 2f 21 85 bd c7 50 98 3d 1e 4b dc bd
       0.13450761 -0.0650047 0.07437282 -0.10756515
0002e0 26 4c 2a 3e a3 7e 3a bd 32 7d da bc c6 81 cc 3d
       0.16630611 -0.045530926 -0.026671026 0.0998569
0002f0 c7 f8 d5 3d b8 d5 d2 bd 81 c5 4d be 70 36 3c 3d
       0.10447841 -0.1029467 -0.20094873 0.045950353
000300 85 09 34 bc 71 11 c9 ba 3e 4f 60 3d 51 29 70 3d
       -0.010988598 -0.0015340281 0.05476307 0.058633152
000310 a6 8d 84 3d 6d 6e a5 bd 82 fb 45 bd d8 e0 3c bd
       0.0647233 -0.08077703 -0.04833556 -0.046112865
000320 ed 3d ec 3d 54 e3 cb 3d 5a ca a4 bc 9a 0f c8 3c
       0.11535249 0.09955469 -0.02011602 0.024421502
000330 a3 85 f0 3c 1b d3 c6 3c 4a f6 41 3e c4 4d 11 3e
       0.029360598 0.024270585 0.18941608 0.14189821
000340 a2 ac fc bd eb 45 6c bd 43 93 d0 3d 3b c5 6c 3b
       -0.123376146 -0.057683866 0.10184338 0.00361283
000350 e9 bd b4 3d ef 7a 7c 3d 20 ff 47 3d 62 f7 c4 ba
       0.08825285 0.061640676 0.04882729 -0.0015027339
000360 5e 2c 5b bd de 75 f8 bd 3e af ea bd 64 0a 99 3c
       -0.05350911 -0.121318564 -0.11459206 0.018681712
000370 18 8d da bd 45 0b 85 3d 4b 5b 37 3b 47 d3 d4 bd
       -0.10671443 0.0649629 0.0027977999 -0.103918605
000380 5b f0 48 bd bc de 39 bc 62 fd 00 bc 1a 5b be bd
       -0.049057346 -0.011344608 -0.007872911 -0.0929472
000390 b0 09 2a 3d 28 0d 47 bd 4f 63 31 bb 3d bc de 3d
       0.041513145 -0.04859653 -0.002706725 0.10875747
0003a0 c6 1e 30 bd 2d 24 9f bc 95 64 af 3d 97 aa 85 3d
       -0.042998098 -0.01942643 0.085641064 0.06526678
0003b0 d7 4c a3 bd 0c 3c 25 bd 43 38 33 3d d5 df c9 ba
       -0.079736404 -0.04034047 0.043754827 -0.001540179
0003c0 af a3 cd bd 3f ca a0 3d 81 a2 31 bd 84 6f 93 3d
       -0.10040986 0.078510754 -0.043367866 0.07199004
0003d0 d9 43 13 3e a9 15 87 bd 0d a9 02 3e 78 4e 9a bd
       0.1438135 -0.06595928 0.127598 -0.07534498
0003e0 a7 9a 0a bd 05 f9 15 bc d5 2a 04 be b7 11 dd bb
       -0.033838894 -0.009153609 -0.12906964 -0.0067464965
0003f0 c4 84 87 3d ff c1 0a bd 96 51 ad 3c c5 75 28 bd
       0.0661712 -0.033876415 0.021157067 -0.04112794

lstm.bias_ih_l1 f4 [256]
000000 e7 39 17 3c 5f ab 82 bd 63 ee 68 bd f0 f4 6f bd
       0.009230114 -0.06380343 -0.05686797 -0.0585832
000010 1f 4a 91 3a b0 7e 36 3c 1a f1 55 bc c9 e2 b2 3b
       0.0011084712 0.011138603 -0.013057971 0.005459164
000020 2d 92 bd bc 62 46 05 3b 86 ed 64 3d a4 40 9d 3c
       -0.023140991 0.002033614 0.055890583 0.019195862
000030 3f 26 a3 bb c8 4d 2e 3d 2f 65 4a 3c 73 a1 9b 3c
       -0.0049789245 0.042554647 0.012353226 0.018997883
000040 c7 12 ff 3c 12 d2 82 3c 38 0b 75 3c 0c 2d 21 3d
       0.031136883 0.01596931 0.014956288 0.0393496
000050 d1 65 0f bb f7 4f a5 3c 7e 6e b6 3b e5 2e a7 3b
       -0.0021880756 0.020179732 0.005567371 0.005102026
000060 2a f8 8d bc 97 ca 2c 3c 2b c2 ee 3a 8f b5 69 3d
       -0.017330248 0.010546348 0.0018215826 0.057057913
000070 cc eb 14 3d 39 fa da bb 43 bb 56 3b 06 4a 1d 3b
       0.036357686 -0.006682661 0.0032765425 0.002400042
000080 8a aa e1 ba 74 e4 05 3d 66 25 0f bd 3f 50 e3 3c
       -0.0017216962 0.032688573 -0.034947775 0.027748225
000090 dd 81 58 3d d6 f7 62 bd f6 bd d1 bc b8 9c 51 3d
       0.052858222 -0.055412136 -0.025603276 0.05117485
0000a0 28 47 13 3d dc 93 12 3b 16 42 4c bc f6 f7 ba bc
       0.03595653 0.0022365963 -0.012466928 -0.022823315
0000b0 5d 21 a9 3b c9 9c dc 3c a1 9b f1 3c fa 72 91 bc
       0.005161448 0.02693023 0.029493155 -0.01775502
0000c0 5e 77 19 3d bf 80 17 3d 33 da 36 bc bc 5f 67 bd
       0.037467353 0.036988016 -0.011160421 -0.056487784
0000d0 99 62 e8 3c 77 42 1b 3c f2 49 2c 3d 87 06 42 bc
       0.028367328 0.009476296 0.042062707 -0.011842377
0000e0 01 cf 9c 3c 60 55 5d 3b 57 5f 52 bb 6d 2b 37 3b
       0.019141676 0.0033772811 -0.0032100284 0.0027949468
0000f0 63 b2 24 3d a4 ba de bc 77 c2 20 3d af 49 91 3c
       0.040209185 -0.027188607 0.039247956 0.01773533
000100 f8 20 b2 bc 39 c6 2f bd 8f a5 d7 bc 95 c6 72 bd
       -0.021744236 -0.04291365 -0.026324062 -0.059271414
000110 19 a9 57 bc 7b 7e 6e bb 12 96 11 bd 0a 55 fc bc
       -0.013162875 -0.0036391306 -0.03554351 -0.030802269
000120 5f d8 b3 bc ab 3e 20 bc b8 b0 4f 3d 79 96 f0 3a
       -0.02195376 -0.009780566 0.05070564 0.0018355391
000130 e8 5b eb bc 0d d8 86 3c d3 a6 4e bb b3 34 b4 3b
       -0.028730348 0.016460443 -0.003153254 0.0054994463
000140 ab 8c 52 3c 03 79 88 ba 5d 73 94 bc 81 a6 3a 3d
       0.012850921 -0.0010412041 -0.018121416 0.045568947
000150 69 da ca bc 4a 01 88 bc c8 fc b3 bb a3 e1 56 bc
       -0.02476235 -0.016602177 -0.0054927804 -0.013115319
000160 1d 8e e3 bc f8 94 84 bb fa 96 d3 3a 9b ad 62 3d
       -0.027777726 -0.004046079 0.0016143017 0.055341344
000170 2e f0 9b 3c a8 0f 4c bd ee c4 58 bc 5a ee 5f bd
       0.019035425 -0.04981962 -0.013230545 -0.05467067
000180 dc a0 4d bb e2 e6 12 3c 73 91 38 bd 8e c9 02 3c
       -0.0031376397 0.00896618 -0.045060586 0.007982625
000190 5e 33 28 3d 68 bc 6c bd 10 53 2c bd 7c d8 56 3d
       0.041064613 -0.057796866 -0.042071402 0.05245255
0001a0 1f 9e c3 3c b3 f4 fe bb 7e 48 1e bc c4 4b 9c bc
       0.023879109 -0.0077806353 -0.009660838 -0.019079097
0001b0 f9 8f bf bb 1e 63 ff 3a 53 51 28 3c 77 31 26 bd
       -0.0058460203 0.0019484495 0.010273295 -0.040574517
0001c0 60 97 b0 3c 10 24 53 3c 53 18 a0 bc d8 2e 01 bd
       0.021556556 0.012887016 -0.019542849 -0.031538814
0001d0 fc 20 f1 3a e9 e2 41 bd 94 b1 15 3d b1 24 69 bc
       0.0018396671 -0.04733554 0.036546305 -0.014229939
0001e0 53 e6 cf ba 19 06 99 bc 6a ab ce bb 2c b8 2f bc
       -0.0015861489 -0.018679665 -0.0063070552 -0.010725062
0001f0 af 30 3c 3d 67 f8 30 bd 93 63 81 3c 8e 5f e2 bb
       0.045944866 -0.043205645 0.015794551 -0.0069083637
000200 7d 55 8d bd e8 cd a7 3c 1c 15 98 3c a8 d9 d9 3a
       -0.06901071 0.020483926 0.018564753 0.0016620653
000210 df d9 9f bd a8 0f 50 bd 6a 60 75 3d 25 d1 8c 3d
       -0.078052275 -0.05079618 0.0599064 0.06875829
000220 42 65 8f bd e0 11 80 bd 22 4c 55 3d 40 c8 65 bd
       -0.07001735 -0.062534094 0.05207456 -0.056099176
000230 8a b9 af 3d b7 d6 53 3d d0 e9 4d bd c9 f3 52 bd
       0.08580311 0.05171844 -0.05027181 -0.051502023
000240 4d 91 5a 3d df 63 47 3d fe 8e 72 bd 43 f9 d8 bc
       0.053361226 0.04867923 -0.0592184 -0.026486045
000250 ed 42 90 bd 5f c8 80 bd 57 7b 3f bd 92 13 33 3d
       -0.07044015 -0.06288218 -0.046748485 0.043719836
000260 2b 7d 4d 3d 33 30 62 3d 78 26 49 3d c7 43 4f 3d
       0.050168198 0.055221748 0.049108952 0.050601747
000270 1a fa 67 3d cb 62 2b 3d 30 4c 17 3d 05 6d 57 3d
       0.056635 0.041842263 0.036937892 0.052594204
000280 3d 89 2e bd a3 79 82 3d 83 6f 5c bd c2 e1 4c 3d
       -0.04261135 0.063708566 -0.053817283 0.050019987
000290 6e 56 44 bd 69 c7 a7 3c 41 dc 3d 3d 38 67 37 bd
       -0.04793399 0.020480828 0.04635263 -0.04477617
0002a0 37 e9 72 3d 6d 65 0a 3d cb 67 1b bd c4 a4 36 bd
       0.059304442 0.033788133 -0.03794078 -0.044590726
0002b0 09 fa 44 3d df a4 45 3d cc 5c 5c bd 20 a1 8c bd
       0.048090015 0.048252936 -0.053799435 -0.0686667
0002c0 49 d0 3e 3d cc 98 8a bd 06 d0 72 3d ef 02 ff bb
       0.046585355 -0.06767425 0.059280418 -0.007782332
0002d0 06 1f 43 bd 5f 0d 51 3d 59 70 4a bd f6 18 36 3d
       -0.047637008 0.051038142 -0.04942355 0.0444574
0002e0 2b a8 83 bd 43 ad 0a bd 2b e0 1f 3d 4a 20 3b bd
       -0.0642856 -0.03385664 0.039032143 -0.04568509
0002f0 0a 9d 0e bd 51 a1 ff 3c 11 a4 7c 3d ca 97 81 3d
       -0.034817733 0.031204851 0.061679903 0.063277796
000300 06 23 67 bc c8 37 78 bd a5 3f 4c bd be ca 66 bd
       -0.014107471 -0.060600072 -0.049865384 -0.056345694
000310 90 c5 3b bc 1e 27 7c bc 1e d2 ea bc 63 a8 4a bc
       -0.011460677 -0.015390186 -0.028664645 -0.012369248
000320 f2 0c 76 bc 2f d1 3a 3b d8 c6 ef 39 7f 86 ce b9
       -0.015017735 0.002850603 0.00045733782 -0.0003939159
000330 8c 0b 0a bc f5 4c 0d bc 87 27 06 3c 9b a7 c3 3b
       -0.008425605 -0.008624305 0.008188135 0.005970908
000340 80 fe b8 bb 16 48 c7 bc 02 3a 1e bc b1 93 2b bc
       -0.005645573 -0.024326365 -0.009657385 -0.010472224
000350 19 9e 3e bb ee 28 2d bd 1e 96 20 bc 0f d2 0e bc
       -0.0029085933 -0.04227536 -0.009801416 -0.008717074
000360 37 ac e4 bc 75 4b 38 3b 0f 49 a1 ba d1 1c ba 3c
       -0.02791415 0.0028121148 -0.0012305098 0.022718819
000370 03 b5 7b bb f0 70 45 bc 69 e0 01 bd 37 88 99 3b
       -0.0038407452 -0.012050852 -0.031708155 0.0046854275
000380 e1 6e a1 bb 81 a2 b0 3c c8 8f fa bc 4f 34 32 3c
       -0.004926548 0.021561863 -0.030586138 0.010876729
000390 08 1d 60 ba 4a e6 5e bd 1f 27 04 bd e9 83 6e 3b
       -0.0008549248 -0.05441884 -0.03226387 0.0036394543
0003a0 ce 29 87 bb cd 29 c2 bc 0f 0d c0 bc b5 b8 a1 bc
       -0.0041248566 -0.023701573 -0.023443727 -0.019741395
0003b0 b4 2a 5e bc fc b9 37 bb 5a 0a 2e 3b 71 36 9e bc
       -0.013559986 -0.002803444 0.0026556463 -0.019313069
0003c0 a3 50 a4 bb 10 32 de bc 14 62 87 bc 90 ed 64 bd
       -0.0050144955 -0.027123481 -0.01652626 -0.05589062
0003d0 b3 4e 8e bc 4f 21 16 3c e5 02 2c bc f2 8e 30 bc
       -0.017371511 0.009163215 -0.010498737 -0.010776268
0003e0 0e dc 98 bc 21 a5 be bc ab f5 11 3b 02 bb a6 bb
       -0.018659618 -0.023272099 0.0022271674 -0.005088211
0003f0 6c 34 02 bc f0 66 1e bd e5 85 0e 3d 08 56 ab bb
       -0.007947069 -0.038672388 0.03479566 -0.0052287616
